{
    "model_info": {
        "model_name": "MobileNetV2Scratch",
        "architecture": "MobileNetV2Scratch(\n  (features): Sequential(\n    (0): ConvBNReLU(\n      (0): Conv2d(3, 32, kernel_size=(3, 3), stride=(2, 2), padding=(1, 1), bias=False)\n      (1): BatchNorm2d(32, eps=1e-05, momentum=0.1, affine=True, track_running_stats=True)\n      (2): ReLU6(inplace=True)\n    )\n    (1): InvertedResidual(\n      (conv): Sequential(\n        (0): ConvBNReLU(\n          (0): Conv2d(32, 32, kernel_size=(3, 3), stride=(1, 1), padding=(1, 1), groups=32, bias=False)\n          (1): BatchNorm2d(32, eps=1e-05, momentum=0.1, affine=True, track_running_stats=True)\n          (2): ReLU6(inplace=True)\n        )\n        (1): Conv2d(32, 16, kernel_size=(1, 1), stride=(1, 1), bias=False)\n        (2): BatchNorm2d(16, eps=1e-05, momentum=0.1, affine=True, track_running_stats=True)\n      )\n    )\n    (2): InvertedResidual(\n      (conv): Sequential(\n        (0): Sequential(\n          (0): Conv2d(16, 96, kernel_size=(1, 1), stride=(1, 1), bias=False)\n          (1): BatchNorm2d(96, eps=1e-05, momentum=0.1, affine=True, track_running_stats=True)\n          (2): ReLU6(inplace=True)\n        )\n        (1): ConvBNReLU(\n          (0): Conv2d(96, 96, kernel_size=(3, 3), stride=(2, 2), padding=(1, 1), groups=96, bias=False)\n          (1): BatchNorm2d(96, eps=1e-05, momentum=0.1, affine=True, track_running_stats=True)\n          (2): ReLU6(inplace=True)\n        )\n        (2): Conv2d(96, 24, kernel_size=(1, 1), stride=(1, 1), bias=False)\n        (3): BatchNorm2d(24, eps=1e-05, momentum=0.1, affine=True, track_running_stats=True)\n      )\n    )\n    (3): InvertedResidual(\n      (conv): Sequential(\n        (0): Sequential(\n          (0): Conv2d(24, 144, kernel_size=(1, 1), stride=(1, 1), bias=False)\n          (1): BatchNorm2d(144, eps=1e-05, momentum=0.1, affine=True, track_running_stats=True)\n          (2): ReLU6(inplace=True)\n        )\n        (1): ConvBNReLU(\n          (0): Conv2d(144, 144, kernel_size=(3, 3), stride=(1, 1), padding=(1, 1), groups=144, bias=False)\n          (1): BatchNorm2d(144, eps=1e-05, momentum=0.1, affine=True, track_running_stats=True)\n          (2): ReLU6(inplace=True)\n        )\n        (2): Conv2d(144, 24, kernel_size=(1, 1), stride=(1, 1), bias=False)\n        (3): BatchNorm2d(24, eps=1e-05, momentum=0.1, affine=True, track_running_stats=True)\n      )\n    )\n    (4): InvertedResidual(\n      (conv): Sequential(\n        (0): Sequential(\n          (0): Conv2d(24, 144, kernel_size=(1, 1), stride=(1, 1), bias=False)\n          (1): BatchNorm2d(144, eps=1e-05, momentum=0.1, affine=True, track_running_stats=True)\n          (2): ReLU6(inplace=True)\n        )\n        (1): ConvBNReLU(\n          (0): Conv2d(144, 144, kernel_size=(3, 3), stride=(2, 2), padding=(1, 1), groups=144, bias=False)\n          (1): BatchNorm2d(144, eps=1e-05, momentum=0.1, affine=True, track_running_stats=True)\n          (2): ReLU6(inplace=True)\n        )\n        (2): Conv2d(144, 32, kernel_size=(1, 1), stride=(1, 1), bias=False)\n        (3): BatchNorm2d(32, eps=1e-05, momentum=0.1, affine=True, track_running_stats=True)\n      )\n    )\n    (5): InvertedResidual(\n      (conv): Sequential(\n        (0): Sequential(\n          (0): Conv2d(32, 192, kernel_size=(1, 1), stride=(1, 1), bias=False)\n          (1): BatchNorm2d(192, eps=1e-05, momentum=0.1, affine=True, track_running_stats=True)\n          (2): ReLU6(inplace=True)\n        )\n        (1): ConvBNReLU(\n          (0): Conv2d(192, 192, kernel_size=(3, 3), stride=(1, 1), padding=(1, 1), groups=192, bias=False)\n          (1): BatchNorm2d(192, eps=1e-05, momentum=0.1, affine=True, track_running_stats=True)\n          (2): ReLU6(inplace=True)\n        )\n        (2): Conv2d(192, 32, kernel_size=(1, 1), stride=(1, 1), bias=False)\n        (3): BatchNorm2d(32, eps=1e-05, momentum=0.1, affine=True, track_running_stats=True)\n      )\n    )\n    (6): InvertedResidual(\n      (conv): Sequential(\n        (0): Sequential(\n          (0): Conv2d(32, 192, kernel_size=(1, 1), stride=(1, 1), bias=False)\n          (1): BatchNorm2d(192, eps=1e-05, momentum=0.1, affine=True, track_running_stats=True)\n          (2): ReLU6(inplace=True)\n        )\n        (1): ConvBNReLU(\n          (0): Conv2d(192, 192, kernel_size=(3, 3), stride=(1, 1), padding=(1, 1), groups=192, bias=False)\n          (1): BatchNorm2d(192, eps=1e-05, momentum=0.1, affine=True, track_running_stats=True)\n          (2): ReLU6(inplace=True)\n        )\n        (2): Conv2d(192, 32, kernel_size=(1, 1), stride=(1, 1), bias=False)\n        (3): BatchNorm2d(32, eps=1e-05, momentum=0.1, affine=True, track_running_stats=True)\n      )\n    )\n    (7): InvertedResidual(\n      (conv): Sequential(\n        (0): Sequential(\n          (0): Conv2d(32, 192, kernel_size=(1, 1), stride=(1, 1), bias=False)\n          (1): BatchNorm2d(192, eps=1e-05, momentum=0.1, affine=True, track_running_stats=True)\n          (2): ReLU6(inplace=True)\n        )\n        (1): ConvBNReLU(\n          (0): Conv2d(192, 192, kernel_size=(3, 3), stride=(2, 2), padding=(1, 1), groups=192, bias=False)\n          (1): BatchNorm2d(192, eps=1e-05, momentum=0.1, affine=True, track_running_stats=True)\n          (2): ReLU6(inplace=True)\n        )\n        (2): Conv2d(192, 64, kernel_size=(1, 1), stride=(1, 1), bias=False)\n        (3): BatchNorm2d(64, eps=1e-05, momentum=0.1, affine=True, track_running_stats=True)\n      )\n    )\n    (8): InvertedResidual(\n      (conv): Sequential(\n        (0): Sequential(\n          (0): Conv2d(64, 384, kernel_size=(1, 1), stride=(1, 1), bias=False)\n          (1): BatchNorm2d(384, eps=1e-05, momentum=0.1, affine=True, track_running_stats=True)\n          (2): ReLU6(inplace=True)\n        )\n        (1): ConvBNReLU(\n          (0): Conv2d(384, 384, kernel_size=(3, 3), stride=(1, 1), padding=(1, 1), groups=384, bias=False)\n          (1): BatchNorm2d(384, eps=1e-05, momentum=0.1, affine=True, track_running_stats=True)\n          (2): ReLU6(inplace=True)\n        )\n        (2): Conv2d(384, 64, kernel_size=(1, 1), stride=(1, 1), bias=False)\n        (3): BatchNorm2d(64, eps=1e-05, momentum=0.1, affine=True, track_running_stats=True)\n      )\n    )\n    (9): InvertedResidual(\n      (conv): Sequential(\n        (0): Sequential(\n          (0): Conv2d(64, 384, kernel_size=(1, 1), stride=(1, 1), bias=False)\n          (1): BatchNorm2d(384, eps=1e-05, momentum=0.1, affine=True, track_running_stats=True)\n          (2): ReLU6(inplace=True)\n        )\n        (1): ConvBNReLU(\n          (0): Conv2d(384, 384, kernel_size=(3, 3), stride=(1, 1), padding=(1, 1), groups=384, bias=False)\n          (1): BatchNorm2d(384, eps=1e-05, momentum=0.1, affine=True, track_running_stats=True)\n          (2): ReLU6(inplace=True)\n        )\n        (2): Conv2d(384, 64, kernel_size=(1, 1), stride=(1, 1), bias=False)\n        (3): BatchNorm2d(64, eps=1e-05, momentum=0.1, affine=True, track_running_stats=True)\n      )\n    )\n    (10): InvertedResidual(\n      (conv): Sequential(\n        (0): Sequential(\n          (0): Conv2d(64, 384, kernel_size=(1, 1), stride=(1, 1), bias=False)\n          (1): BatchNorm2d(384, eps=1e-05, momentum=0.1, affine=True, track_running_stats=True)\n          (2): ReLU6(inplace=True)\n        )\n        (1): ConvBNReLU(\n          (0): Conv2d(384, 384, kernel_size=(3, 3), stride=(1, 1), padding=(1, 1), groups=384, bias=False)\n          (1): BatchNorm2d(384, eps=1e-05, momentum=0.1, affine=True, track_running_stats=True)\n          (2): ReLU6(inplace=True)\n        )\n        (2): Conv2d(384, 96, kernel_size=(1, 1), stride=(1, 1), bias=False)\n        (3): BatchNorm2d(96, eps=1e-05, momentum=0.1, affine=True, track_running_stats=True)\n      )\n    )\n    (11): InvertedResidual(\n      (conv): Sequential(\n        (0): Sequential(\n          (0): Conv2d(96, 576, kernel_size=(1, 1), stride=(1, 1), bias=False)\n          (1): BatchNorm2d(576, eps=1e-05, momentum=0.1, affine=True, track_running_stats=True)\n          (2): ReLU6(inplace=True)\n        )\n        (1): ConvBNReLU(\n          (0): Conv2d(576, 576, kernel_size=(3, 3), stride=(1, 1), padding=(1, 1), groups=576, bias=False)\n          (1): BatchNorm2d(576, eps=1e-05, momentum=0.1, affine=True, track_running_stats=True)\n          (2): ReLU6(inplace=True)\n        )\n        (2): Conv2d(576, 96, kernel_size=(1, 1), stride=(1, 1), bias=False)\n        (3): BatchNorm2d(96, eps=1e-05, momentum=0.1, affine=True, track_running_stats=True)\n      )\n    )\n    (12): ConvBNReLU(\n      (0): Conv2d(96, 1280, kernel_size=(3, 3), stride=(1, 1), padding=(1, 1), bias=False)\n      (1): BatchNorm2d(1280, eps=1e-05, momentum=0.1, affine=True, track_running_stats=True)\n      (2): ReLU6(inplace=True)\n    )\n  )\n  (pool): AdaptiveAvgPool2d(output_size=(1, 1))\n  (classifier): Sequential(\n    (0): Dropout(p=0.5, inplace=False)\n    (1): Linear(in_features=1280, out_features=4, bias=True)\n  )\n)",
        "architecture_image": "results/MobileNet\\architecture.svg",
        "architecture_image_format": "svg",
        "total_parameters": 1483588,
        "trainable_parameters": 1483588,
        "input_size": [
            1,
            3,
            224,
            224
        ],
        "layers": [
            {
                "name": "features",
                "type": "Sequential",
                "parameters": 0,
                "trainable_parameters": 0,
                "config": "Sequential(\n  (0): ConvBNReLU(\n    (0): Conv2d(3, 32, kernel_size=(3, 3), stride=(2, 2), padding=(1, 1), bias=False)\n    (1): BatchNorm2d(32, eps=1e-05, momentum=0.1, affine=True, track_running_stats=True)\n    (2): ReLU6(inplace=True)\n  )\n  (1): InvertedResidual(\n    (conv): Sequential(\n      (0): ConvBNReLU(\n        (0): Conv2d(32, 32, kernel_size=(3, 3), stride=(1, 1), padding=(1, 1), groups=32, bias=False)\n        (1): BatchNorm2d(32, eps=1e-05, momentum=0.1, affine=True, track_running_stats=True)\n        (2): ReLU6(inplace=True)\n      )\n      (1): Conv2d(32, 16, kernel_size=(1, 1), stride=(1, 1), bias=False)\n      (2): BatchNorm2d(16, eps=1e-05, momentum=0.1, affine=True, track_running_stats=True)\n    )\n  )\n  (2): InvertedResidual(\n    (conv): Sequential(\n      (0): Sequential(\n        (0): Conv2d(16, 96, kernel_size=(1, 1), stride=(1, 1), bias=False)\n        (1): BatchNorm2d(96, eps=1e-05, momentum=0.1, affine=True, track_running_stats=True)\n        (2): ReLU6(inplace=True)\n      )\n      (1): ConvBNReLU(\n        (0): Conv2d(96, 96, kernel_size=(3, 3), stride=(2, 2), padding=(1, 1), groups=96, bias=False)\n        (1): BatchNorm2d(96, eps=1e-05, momentum=0.1, affine=True, track_running_stats=True)\n        (2): ReLU6(inplace=True)\n      )\n      (2): Conv2d(96, 24, kernel_size=(1, 1), stride=(1, 1), bias=False)\n      (3): BatchNorm2d(24, eps=1e-05, momentum=0.1, affine=True, track_running_stats=True)\n    )\n  )\n  (3): InvertedResidual(\n    (conv): Sequential(\n      (0): Sequential(\n        (0): Conv2d(24, 144, kernel_size=(1, 1), stride=(1, 1), bias=False)\n        (1): BatchNorm2d(144, eps=1e-05, momentum=0.1, affine=True, track_running_stats=True)\n        (2): ReLU6(inplace=True)\n      )\n      (1): ConvBNReLU(\n        (0): Conv2d(144, 144, kernel_size=(3, 3), stride=(1, 1), padding=(1, 1), groups=144, bias=False)\n        (1): BatchNorm2d(144, eps=1e-05, momentum=0.1, affine=True, track_running_stats=True)\n        (2): ReLU6(inplace=True)\n      )\n      (2): Conv2d(144, 24, kernel_size=(1, 1), stride=(1, 1), bias=False)\n      (3): BatchNorm2d(24, eps=1e-05, momentum=0.1, affine=True, track_running_stats=True)\n    )\n  )\n  (4): InvertedResidual(\n    (conv): Sequential(\n      (0): Sequential(\n        (0): Conv2d(24, 144, kernel_size=(1, 1), stride=(1, 1), bias=False)\n        (1): BatchNorm2d(144, eps=1e-05, momentum=0.1, affine=True, track_running_stats=True)\n        (2): ReLU6(inplace=True)\n      )\n      (1): ConvBNReLU(\n        (0): Conv2d(144, 144, kernel_size=(3, 3), stride=(2, 2), padding=(1, 1), groups=144, bias=False)\n        (1): BatchNorm2d(144, eps=1e-05, momentum=0.1, affine=True, track_running_stats=True)\n        (2): ReLU6(inplace=True)\n      )\n      (2): Conv2d(144, 32, kernel_size=(1, 1), stride=(1, 1), bias=False)\n      (3): BatchNorm2d(32, eps=1e-05, momentum=0.1, affine=True, track_running_stats=True)\n    )\n  )\n  (5): InvertedResidual(\n    (conv): Sequential(\n      (0): Sequential(\n        (0): Conv2d(32, 192, kernel_size=(1, 1), stride=(1, 1), bias=False)\n        (1): BatchNorm2d(192, eps=1e-05, momentum=0.1, affine=True, track_running_stats=True)\n        (2): ReLU6(inplace=True)\n      )\n      (1): ConvBNReLU(\n        (0): Conv2d(192, 192, kernel_size=(3, 3), stride=(1, 1), padding=(1, 1), groups=192, bias=False)\n        (1): BatchNorm2d(192, eps=1e-05, momentum=0.1, affine=True, track_running_stats=True)\n        (2): ReLU6(inplace=True)\n      )\n      (2): Conv2d(192, 32, kernel_size=(1, 1), stride=(1, 1), bias=False)\n      (3): BatchNorm2d(32, eps=1e-05, momentum=0.1, affine=True, track_running_stats=True)\n    )\n  )\n  (6): InvertedResidual(\n    (conv): Sequential(\n      (0): Sequential(\n        (0): Conv2d(32, 192, kernel_size=(1, 1), stride=(1, 1), bias=False)\n        (1): BatchNorm2d(192, eps=1e-05, momentum=0.1, affine=True, track_running_stats=True)\n        (2): ReLU6(inplace=True)\n      )\n      (1): ConvBNReLU(\n        (0): Conv2d(192, 192, kernel_size=(3, 3), stride=(1, 1), padding=(1, 1), groups=192, bias=False)\n        (1): BatchNorm2d(192, eps=1e-05, momentum=0.1, affine=True, track_running_stats=True)\n        (2): ReLU6(inplace=True)\n      )\n      (2): Conv2d(192, 32, kernel_size=(1, 1), stride=(1, 1), bias=False)\n      (3): BatchNorm2d(32, eps=1e-05, momentum=0.1, affine=True, track_running_stats=True)\n    )\n  )\n  (7): InvertedResidual(\n    (conv): Sequential(\n      (0): Sequential(\n        (0): Conv2d(32, 192, kernel_size=(1, 1), stride=(1, 1), bias=False)\n        (1): BatchNorm2d(192, eps=1e-05, momentum=0.1, affine=True, track_running_stats=True)\n        (2): ReLU6(inplace=True)\n      )\n      (1): ConvBNReLU(\n        (0): Conv2d(192, 192, kernel_size=(3, 3), stride=(2, 2), padding=(1, 1), groups=192, bias=False)\n        (1): BatchNorm2d(192, eps=1e-05, momentum=0.1, affine=True, track_running_stats=True)\n        (2): ReLU6(inplace=True)\n      )\n      (2): Conv2d(192, 64, kernel_size=(1, 1), stride=(1, 1), bias=False)\n      (3): BatchNorm2d(64, eps=1e-05, momentum=0.1, affine=True, track_running_stats=True)\n    )\n  )\n  (8): InvertedResidual(\n    (conv): Sequential(\n      (0): Sequential(\n        (0): Conv2d(64, 384, kernel_size=(1, 1), stride=(1, 1), bias=False)\n        (1): BatchNorm2d(384, eps=1e-05, momentum=0.1, affine=True, track_running_stats=True)\n        (2): ReLU6(inplace=True)\n      )\n      (1): ConvBNReLU(\n        (0): Conv2d(384, 384, kernel_size=(3, 3), stride=(1, 1), padding=(1, 1), groups=384, bias=False)\n        (1): BatchNorm2d(384, eps=1e-05, momentum=0.1, affine=True, track_running_stats=True)\n        (2): ReLU6(inplace=True)\n      )\n      (2): Conv2d(384, 64, kernel_size=(1, 1), stride=(1, 1), bias=False)\n      (3): BatchNorm2d(64, eps=1e-05, momentum=0.1, affine=True, track_running_stats=True)\n    )\n  )\n  (9): InvertedResidual(\n    (conv): Sequential(\n      (0): Sequential(\n        (0): Conv2d(64, 384, kernel_size=(1, 1), stride=(1, 1), bias=False)\n        (1): BatchNorm2d(384, eps=1e-05, momentum=0.1, affine=True, track_running_stats=True)\n        (2): ReLU6(inplace=True)\n      )\n      (1): ConvBNReLU(\n        (0): Conv2d(384, 384, kernel_size=(3, 3), stride=(1, 1), padding=(1, 1), groups=384, bias=False)\n        (1): BatchNorm2d(384, eps=1e-05, momentum=0.1, affine=True, track_running_stats=True)\n        (2): ReLU6(inplace=True)\n      )\n      (2): Conv2d(384, 64, kernel_size=(1, 1), stride=(1, 1), bias=False)\n      (3): BatchNorm2d(64, eps=1e-05, momentum=0.1, affine=True, track_running_stats=True)\n    )\n  )\n  (10): InvertedResidual(\n    (conv): Sequential(\n      (0): Sequential(\n        (0): Conv2d(64, 384, kernel_size=(1, 1), stride=(1, 1), bias=False)\n        (1): BatchNorm2d(384, eps=1e-05, momentum=0.1, affine=True, track_running_stats=True)\n        (2): ReLU6(inplace=True)\n      )\n      (1): ConvBNReLU(\n        (0): Conv2d(384, 384, kernel_size=(3, 3), stride=(1, 1), padding=(1, 1), groups=384, bias=False)\n        (1): BatchNorm2d(384, eps=1e-05, momentum=0.1, affine=True, track_running_stats=True)\n        (2): ReLU6(inplace=True)\n      )\n      (2): Conv2d(384, 96, kernel_size=(1, 1), stride=(1, 1), bias=False)\n      (3): BatchNorm2d(96, eps=1e-05, momentum=0.1, affine=True, track_running_stats=True)\n    )\n  )\n  (11): InvertedResidual(\n    (conv): Sequential(\n      (0): Sequential(\n        (0): Conv2d(96, 576, kernel_size=(1, 1), stride=(1, 1), bias=False)\n        (1): BatchNorm2d(576, eps=1e-05, momentum=0.1, affine=True, track_running_stats=True)\n        (2): ReLU6(inplace=True)\n      )\n      (1): ConvBNReLU(\n        (0): Conv2d(576, 576, kernel_size=(3, 3), stride=(1, 1), padding=(1, 1), groups=576, bias=False)\n        (1): BatchNorm2d(576, eps=1e-05, momentum=0.1, affine=True, track_running_stats=True)\n        (2): ReLU6(inplace=True)\n      )\n      (2): Conv2d(576, 96, kernel_size=(1, 1), stride=(1, 1), bias=False)\n      (3): BatchNorm2d(96, eps=1e-05, momentum=0.1, affine=True, track_running_stats=True)\n    )\n  )\n  (12): ConvBNReLU(\n    (0): Conv2d(96, 1280, kernel_size=(3, 3), stride=(1, 1), padding=(1, 1), bias=False)\n    (1): BatchNorm2d(1280, eps=1e-05, momentum=0.1, affine=True, track_running_stats=True)\n    (2): ReLU6(inplace=True)\n  )\n)",
                "input_shape": [
                    1,
                    3,
                    224,
                    224
                ],
                "output_shape": [
                    1,
                    1280,
                    14,
                    14
                ]
            },
            {
                "name": "features.0",
                "type": "ConvBNReLU",
                "parameters": 0,
                "trainable_parameters": 0,
                "config": "ConvBNReLU(\n  (0): Conv2d(3, 32, kernel_size=(3, 3), stride=(2, 2), padding=(1, 1), bias=False)\n  (1): BatchNorm2d(32, eps=1e-05, momentum=0.1, affine=True, track_running_stats=True)\n  (2): ReLU6(inplace=True)\n)",
                "input_shape": [
                    1,
                    3,
                    224,
                    224
                ],
                "output_shape": [
                    1,
                    32,
                    112,
                    112
                ]
            },
…
                "config": "ReLU6(inplace=True)",
                "input_shape": [
                    1,
                    32,
                    112,
                    112
                ],
                "output_shape": [
                    1,
                    32,
                    112,
                    112
                ]
            },
            {
                "name": "features.1",
                "type": "InvertedResidual",
                "parameters": 0,
                "trainable_parameters": 0,
                "config": "InvertedResidual(\n  (conv): Sequential(\n    (0): ConvBNReLU(\n      (0): Conv2d(32, 32, kernel_size=(3, 3), stride=(1, 1), padding=(1, 1), groups=32, bias=False)\n      (1): BatchNorm2d(32, eps=1e-05, momentum=0.1, affine=True, track_running_stats=True)\n      (2): ReLU6(inplace=True)\n    )\n    (1): Conv2d(32, 16, kernel_size=(1, 1), stride=(1, 1), bias=False)\n    (2): BatchNorm2d(16, eps=1e-05, momentum=0.1, affine=True, track_running_stats=True)\n  )\n)",
                "input_shape": [
                    1,
                    32,
                    112,
                    112
                ],
                "output_shape": [
                    1,
                    16,
                    112,
                    112
                ]
            },
            {
                "name": "features.1.conv",
                "type": "Sequential",
                "parameters": 0,
                "trainable_parameters": 0,
                "config": "Sequential(\n  (0): ConvBNReLU(\n    (0): Conv2d(32, 32, kernel_size=(3, 3), stride=(1, 1), padding=(1, 1), groups=32, bias=False)\n    (1): BatchNorm2d(32, eps=1e-05, momentum=0.1, affine=True, track_running_stats=True)\n    (2): ReLU6(inplace=True)\n  )\n  (1): Conv2d(32, 16, kernel_size=(1, 1), stride=(1, 1), bias=False)\n  (2): BatchNorm2d(16, eps=1e-05, momentum=0.1, affine=True, track_running_stats=True)\n)",
                "input_shape": [
                    1,
                    32,
                    112,
                    112
                ],
                "output_shape": [
                    1,
                    16,
                    112,
                    112
                ]
            },
            {
                "name": "features.1.conv.0",
                "type": "ConvBNReLU",
                "parameters": 0,
                "trainable_parameters": 0,
                "config": "ConvBNReLU(\n  (0): Conv2d(32, 32, kernel_size=(3, 3), stride=(1, 1), padding=(1, 1), groups=32, bias=False)\n  (1): BatchNorm2d(32, eps=1e-05, momentum=0.1, affine=True, track_running_stats=True)\n  (2): ReLU6(inplace=True)\n)",
                "input_shape": [
                    1,
                    32,
                    112,
                    112
                ],
                "output_shape": [
                    1,
                    32,
                    112,
                    112
                ]
            },
…
                "config": "BatchNorm2d(16, eps=1e-05, momentum=0.1, affine=True, track_running_stats=True)",
                "input_shape": [
                    1,
                    16,
                    112,
                    112
                ],
                "output_shape": [
                    1,
                    16,
                    112,
                    112
                ]
            },
            {
                "name": "features.2",
                "type": "InvertedResidual",
                "parameters": 0,
                "trainable_parameters": 0,
                "config": "InvertedResidual(\n  (conv): Sequential(\n    (0): Sequential(\n      (0): Conv2d(16, 96, kernel_size=(1, 1), stride=(1, 1), bias=False)\n      (1): BatchNorm2d(96, eps=1e-05, momentum=0.1, affine=True, track_running_stats=True)\n      (2): ReLU6(inplace=True)\n    )\n    (1): ConvBNReLU(\n      (0): Conv2d(96, 96, kernel_size=(3, 3), stride=(2, 2), padding=(1, 1), groups=96, bias=False)\n      (1): BatchNorm2d(96, eps=1e-05, momentum=0.1, affine=True, track_running_stats=True)\n      (2): ReLU6(inplace=True)\n    )\n    (2): Conv2d(96, 24, kernel_size=(1, 1), stride=(1, 1), bias=False)\n    (3): BatchNorm2d(24, eps=1e-05, momentum=0.1, affine=True, track_running_stats=True)\n  )\n)",
                "input_shape": [
                    1,
                    16,
                    112,
                    112
                ],
                "output_shape": [
                    1,
                    24,
                    56,
                    56
                ]
            },
            {
                "name": "features.2.conv",
                "type": "Sequential",
                "parameters": 0,
                "trainable_parameters": 0,
                "config": "Sequential(\n  (0): Sequential(\n    (0): Conv2d(16, 96, kernel_size=(1, 1), stride=(1, 1), bias=False)\n    (1): BatchNorm2d(96, eps=1e-05, momentum=0.1, affine=True, track_running_stats=True)\n    (2): ReLU6(inplace=True)\n  )\n  (1): ConvBNReLU(\n    (0): Conv2d(96, 96, kernel_size=(3, 3), stride=(2, 2), padding=(1, 1), groups=96, bias=False)\n    (1): BatchNorm2d(96, eps=1e-05, momentum=0.1, affine=True, track_running_stats=True)\n    (2): ReLU6(inplace=True)\n  )\n  (2): Conv2d(96, 24, kernel_size=(1, 1), stride=(1, 1), bias=False)\n  (3): BatchNorm2d(24, eps=1e-05, momentum=0.1, affine=True, track_running_stats=True)\n)",
                "input_shape": [
                    1,
                    16,
                    112,
                    112
                ],
                "output_shape": [
                    1,
                    24,
                    56,
                    56
                ]
            },
            {
                "name": "features.2.conv.0",
                "type": "Sequential",
                "parameters": 0,
                "trainable_parameters": 0,
                "config": "Sequential(\n  (0): Conv2d(16, 96, kernel_size=(1, 1), stride=(1, 1), bias=False)\n  (1): BatchNorm2d(96, eps=1e-05, momentum=0.1, affine=True, track_running_stats=True)\n  (2): ReLU6(inplace=True)\n)",
                "input_shape": [
                    1,
                    16,
                    112,
                    112
                ],
                "output_shape": [
                    1,
                    96,
                    112,
                    112
                ]
            },
…
                "config": "BatchNorm2d(24, eps=1e-05, momentum=0.1, affine=True, track_running_stats=True)",
                "input_shape": [
                    1,
                    24,
                    56,
                    56
                ],
                "output_shape": [
                    1,
                    24,
                    56,
                    56
                ]
            },
            {
                "name": "features.3",
                "type": "InvertedResidual",
                "parameters": 0,
                "trainable_parameters": 0,
                "config": "InvertedResidual(\n  (conv): Sequential(\n    (0): Sequential(\n      (0): Conv2d(24, 144, kernel_size=(1, 1), stride=(1, 1), bias=False)\n      (1): BatchNorm2d(144, eps=1e-05, momentum=0.1, affine=True, track_running_stats=True)\n      (2): ReLU6(inplace=True)\n    )\n    (1): ConvBNReLU(\n      (0): Conv2d(144, 144, kernel_size=(3, 3), stride=(1, 1), padding=(1, 1), groups=144, bias=False)\n      (1): BatchNorm2d(144, eps=1e-05, momentum=0.1, affine=True, track_running_stats=True)\n      (2): ReLU6(inplace=True)\n    )\n    (2): Conv2d(144, 24, kernel_size=(1, 1), stride=(1, 1), bias=False)\n    (3): BatchNorm2d(24, eps=1e-05, momentum=0.1, affine=True, track_running_stats=True)\n  )\n)",
                "input_shape": [
                    1,
                    24,
                    56,
                    56
                ],
                "output_shape": [
                    1,
                    24,
                    56,
                    56
                ]
            },
            {
                "name": "features.3.conv",
                "type": "Sequential",
                "parameters": 0,
                "trainable_parameters": 0,
                "config": "Sequential(\n  (0): Sequential(\n    (0): Conv2d(24, 144, kernel_size=(1, 1), stride=(1, 1), bias=False)\n    (1): BatchNorm2d(144, eps=1e-05, momentum=0.1, affine=True, track_running_stats=True)\n    (2): ReLU6(inplace=True)\n  )\n  (1): ConvBNReLU(\n    (0): Conv2d(144, 144, kernel_size=(3, 3), stride=(1, 1), padding=(1, 1), groups=144, bias=False)\n    (1): BatchNorm2d(144, eps=1e-05, momentum=0.1, affine=True, track_running_stats=True)\n    (2): ReLU6(inplace=True)\n  )\n  (2): Conv2d(144, 24, kernel_size=(1, 1), stride=(1, 1), bias=False)\n  (3): BatchNorm2d(24, eps=1e-05, momentum=0.1, affine=True, track_running_stats=True)\n)",
                "input_shape": [
                    1,
                    24,
                    56,
                    56
                ],
                "output_shape": [
                    1,
                    24,
                    56,
                    56
                ]
            },
            {
                "name": "features.3.conv.0",
                "type": "Sequential",
                "parameters": 0,
                "trainable_parameters": 0,
                "config": "Sequential(\n  (0): Conv2d(24, 144, kernel_size=(1, 1), stride=(1, 1), bias=False)\n  (1): BatchNorm2d(144, eps=1e-05, momentum=0.1, affine=True, track_running_stats=True)\n  (2): ReLU6(inplace=True)\n)",
                "input_shape": [
                    1,
                    24,
                    56,
                    56
                ],
                "output_shape": [
                    1,
                    144,
                    56,
                    56
                ]
            },
…
                "config": "BatchNorm2d(24, eps=1e-05, momentum=0.1, affine=True, track_running_stats=True)",
                "input_shape": [
                    1,
                    24,
                    56,
                    56
                ],
                "output_shape": [
                    1,
                    24,
                    56,
                    56
                ]
            },
            {
                "name": "features.4",
                "type": "InvertedResidual",
                "parameters": 0,
                "trainable_parameters": 0,
                "config": "InvertedResidual(\n  (conv): Sequential(\n    (0): Sequential(\n      (0): Conv2d(24, 144, kernel_size=(1, 1), stride=(1, 1), bias=False)\n      (1): BatchNorm2d(144, eps=1e-05, momentum=0.1, affine=True, track_running_stats=True)\n      (2): ReLU6(inplace=True)\n    )\n    (1): ConvBNReLU(\n      (0): Conv2d(144, 144, kernel_size=(3, 3), stride=(2, 2), padding=(1, 1), groups=144, bias=False)\n      (1): BatchNorm2d(144, eps=1e-05, momentum=0.1, affine=True, track_running_stats=True)\n      (2): ReLU6(inplace=True)\n    )\n    (2): Conv2d(144, 32, kernel_size=(1, 1), stride=(1, 1), bias=False)\n    (3): BatchNorm2d(32, eps=1e-05, momentum=0.1, affine=True, track_running_stats=True)\n  )\n)",
                "input_shape": [
                    1,
                    24,
                    56,
                    56
                ],
                "output_shape": [
                    1,
                    32,
                    28,
                    28
                ]
            },
            {
                "name": "features.4.conv",
                "type": "Sequential",
                "parameters": 0,
                "trainable_parameters": 0,
                "config": "Sequential(\n  (0): Sequential(\n    (0): Conv2d(24, 144, kernel_size=(1, 1), stride=(1, 1), bias=False)\n    (1): BatchNorm2d(144, eps=1e-05, momentum=0.1, affine=True, track_running_stats=True)\n    (2): ReLU6(inplace=True)\n  )\n  (1): ConvBNReLU(\n    (0): Conv2d(144, 144, kernel_size=(3, 3), stride=(2, 2), padding=(1, 1), groups=144, bias=False)\n    (1): BatchNorm2d(144, eps=1e-05, momentum=0.1, affine=True, track_running_stats=True)\n    (2): ReLU6(inplace=True)\n  )\n  (2): Conv2d(144, 32, kernel_size=(1, 1), stride=(1, 1), bias=False)\n  (3): BatchNorm2d(32, eps=1e-05, momentum=0.1, affine=True, track_running_stats=True)\n)",
                "input_shape": [
                    1,
                    24,
                    56,
                    56
                ],
                "output_shape": [
                    1,
                    32,
                    28,
                    28
                ]
            },
            {
                "name": "features.4.conv.0",
                "type": "Sequential",
                "parameters": 0,
                "trainable_parameters": 0,
                "config": "Sequential(\n  (0): Conv2d(24, 144, kernel_size=(1, 1), stride=(1, 1), bias=False)\n  (1): BatchNorm2d(144, eps=1e-05, momentum=0.1, affine=True, track_running_stats=True)\n  (2): ReLU6(inplace=True)\n)",
                "input_shape": [
                    1,
                    24,
                    56,
                    56
                ],
                "output_shape": [
                    1,
                    144,
                    56,
                    56
                ]
            },
…
                "config": "BatchNorm2d(32, eps=1e-05, momentum=0.1, affine=True, track_running_stats=True)",
                "input_shape": [
                    1,
                    32,
                    28,
                    28
                ],
                "output_shape": [
                    1,
                    32,
                    28,
                    28
                ]
            },
            {
                "name": "features.5",
                "type": "InvertedResidual",
                "parameters": 0,
                "trainable_parameters": 0,
                "config": "InvertedResidual(\n  (conv): Sequential(\n    (0): Sequential(\n      (0): Conv2d(32, 192, kernel_size=(1, 1), stride=(1, 1), bias=False)\n      (1): BatchNorm2d(192, eps=1e-05, momentum=0.1, affine=True, track_running_stats=True)\n      (2): ReLU6(inplace=True)\n    )\n    (1): ConvBNReLU(\n      (0): Conv2d(192, 192, kernel_size=(3, 3), stride=(1, 1), padding=(1, 1), groups=192, bias=False)\n      (1): BatchNorm2d(192, eps=1e-05, momentum=0.1, affine=True, track_running_stats=True)\n      (2): ReLU6(inplace=True)\n    )\n    (2): Conv2d(192, 32, kernel_size=(1, 1), stride=(1, 1), bias=False)\n    (3): BatchNorm2d(32, eps=1e-05, momentum=0.1, affine=True, track_running_stats=True)\n  )\n)",
                "input_shape": [
                    1,
                    32,
                    28,
                    28
                ],
                "output_shape": [
                    1,
                    32,
                    28,
                    28
                ]
            },
            {
                "name": "features.5.conv",
                "type": "Sequential",
                "parameters": 0,
                "trainable_parameters": 0,
                "config": "Sequential(\n  (0): Sequential(\n    (0): Conv2d(32, 192, kernel_size=(1, 1), stride=(1, 1), bias=False)\n    (1): BatchNorm2d(192, eps=1e-05, momentum=0.1, affine=True, track_running_stats=True)\n    (2): ReLU6(inplace=True)\n  )\n  (1): ConvBNReLU(\n    (0): Conv2d(192, 192, kernel_size=(3, 3), stride=(1, 1), padding=(1, 1), groups=192, bias=False)\n    (1): BatchNorm2d(192, eps=1e-05, momentum=0.1, affine=True, track_running_stats=True)\n    (2): ReLU6(inplace=True)\n  )\n  (2): Conv2d(192, 32, kernel_size=(1, 1), stride=(1, 1), bias=False)\n  (3): BatchNorm2d(32, eps=1e-05, momentum=0.1, affine=True, track_running_stats=True)\n)",
                "input_shape": [
                    1,
                    32,
                    28,
                    28
                ],
                "output_shape": [
                    1,
                    32,
                    28,
                    28
                ]
            },
            {
                "name": "features.5.conv.0",
                "type": "Sequential",
                "parameters": 0,
                "trainable_parameters": 0,
                "config": "Sequential(\n  (0): Conv2d(32, 192, kernel_size=(1, 1), stride=(1, 1), bias=False)\n  (1): BatchNorm2d(192, eps=1e-05, momentum=0.1, affine=True, track_running_stats=True)\n  (2): ReLU6(inplace=True)\n)",
                "input_shape": [
                    1,
                    32,
                    28,
                    28
                ],
                "output_shape": [
                    1,
                    192,
                    28,
                    28
                ]
            },
…
                "config": "BatchNorm2d(32, eps=1e-05, momentum=0.1, affine=True, track_running_stats=True)",
                "input_shape": [
                    1,
                    32,
                    28,
                    28
                ],
                "output_shape": [
                    1,
                    32,
                    28,
                    28
                ]
            },
            {
                "name": "features.7",
                "type": "InvertedResidual",
                "parameters": 0,
                "trainable_parameters": 0,
                "config": "InvertedResidual(\n  (conv): Sequential(\n    (0): Sequential(\n      (0): Conv2d(32, 192, kernel_size=(1, 1), stride=(1, 1), bias=False)\n      (1): BatchNorm2d(192, eps=1e-05, momentum=0.1, affine=True, track_running_stats=True)\n      (2): ReLU6(inplace=True)\n    )\n    (1): ConvBNReLU(\n      (0): Conv2d(192, 192, kernel_size=(3, 3), stride=(2, 2), padding=(1, 1), groups=192, bias=False)\n      (1): BatchNorm2d(192, eps=1e-05, momentum=0.1, affine=True, track_running_stats=True)\n      (2): ReLU6(inplace=True)\n    )\n    (2): Conv2d(192, 64, kernel_size=(1, 1), stride=(1, 1), bias=False)\n    (3): BatchNorm2d(64, eps=1e-05, momentum=0.1, affine=True, track_running_stats=True)\n  )\n)",
                "input_shape": [
                    1,
                    32,
                    28,
                    28
                ],
                "output_shape": [
                    1,
                    64,
                    14,
                    14
                ]
            },
            {
                "name": "features.7.conv",
                "type": "Sequential",
                "parameters": 0,
                "trainable_parameters": 0,
                "config": "Sequential(\n  (0): Sequential(\n    (0): Conv2d(32, 192, kernel_size=(1, 1), stride=(1, 1), bias=False)\n    (1): BatchNorm2d(192, eps=1e-05, momentum=0.1, affine=True, track_running_stats=True)\n    (2): ReLU6(inplace=True)\n  )\n  (1): ConvBNReLU(\n    (0): Conv2d(192, 192, kernel_size=(3, 3), stride=(2, 2), padding=(1, 1), groups=192, bias=False)\n    (1): BatchNorm2d(192, eps=1e-05, momentum=0.1, affine=True, track_running_stats=True)\n    (2): ReLU6(inplace=True)\n  )\n  (2): Conv2d(192, 64, kernel_size=(1, 1), stride=(1, 1), bias=False)\n  (3): BatchNorm2d(64, eps=1e-05, momentum=0.1, affine=True, track_running_stats=True)\n)",
                "input_shape": [
                    1,
                    32,
                    28,
                    28
                ],
                "output_shape": [
                    1,
                    64,
                    14,
                    14
                ]
            },
            {
                "name": "features.7.conv.0",
                "type": "Sequential",
                "parameters": 0,
                "trainable_parameters": 0,
                "config": "Sequential(\n  (0): Conv2d(32, 192, kernel_size=(1, 1), stride=(1, 1), bias=False)\n  (1): BatchNorm2d(192, eps=1e-05, momentum=0.1, affine=True, track_running_stats=True)\n  (2): ReLU6(inplace=True)\n)",
                "input_shape": [
                    1,
                    32,
                    28,
                    28
                ],
                "output_shape": [
                    1,
                    192,
                    28,
                    28
                ]
            },
…
                "config": "BatchNorm2d(64, eps=1e-05, momentum=0.1, affine=True, track_running_stats=True)",
                "input_shape": [
                    1,
                    64,
                    14,
                    14
                ],
                "output_shape": [
                    1,
                    64,
                    14,
                    14
                ]
            },
            {
                "name": "features.8",
                "type": "InvertedResidual",
                "parameters": 0,
                "trainable_parameters": 0,
                "config": "InvertedResidual(\n  (conv): Sequential(\n    (0): Sequential(\n      (0): Conv2d(64, 384, kernel_size=(1, 1), stride=(1, 1), bias=False)\n      (1): BatchNorm2d(384, eps=1e-05, momentum=0.1, affine=True, track_running_stats=True)\n      (2): ReLU6(inplace=True)\n    )\n    (1): ConvBNReLU(\n      (0): Conv2d(384, 384, kernel_size=(3, 3), stride=(1, 1), padding=(1, 1), groups=384, bias=False)\n      (1): BatchNorm2d(384, eps=1e-05, momentum=0.1, affine=True, track_running_stats=True)\n      (2): ReLU6(inplace=True)\n    )\n    (2): Conv2d(384, 64, kernel_size=(1, 1), stride=(1, 1), bias=False)\n    (3): BatchNorm2d(64, eps=1e-05, momentum=0.1, affine=True, track_running_stats=True)\n  )\n)",
                "input_shape": [
                    1,
                    64,
                    14,
                    14
                ],
                "output_shape": [
                    1,
                    64,
                    14,
                    14
                ]
            },
            {
                "name": "features.8.conv",
                "type": "Sequential",
                "parameters": 0,
                "trainable_parameters": 0,
                "config": "Sequential(\n  (0): Sequential(\n    (0): Conv2d(64, 384, kernel_size=(1, 1), stride=(1, 1), bias=False)\n    (1): BatchNorm2d(384, eps=1e-05, momentum=0.1, affine=True, track_running_stats=True)\n    (2): ReLU6(inplace=True)\n  )\n  (1): ConvBNReLU(\n    (0): Conv2d(384, 384, kernel_size=(3, 3), stride=(1, 1), padding=(1, 1), groups=384, bias=False)\n    (1): BatchNorm2d(384, eps=1e-05, momentum=0.1, affine=True, track_running_stats=True)\n    (2): ReLU6(inplace=True)\n  )\n  (2): Conv2d(384, 64, kernel_size=(1, 1), stride=(1, 1), bias=False)\n  (3): BatchNorm2d(64, eps=1e-05, momentum=0.1, affine=True, track_running_stats=True)\n)",
                "input_shape": [
                    1,
                    64,
                    14,
                    14
                ],
                "output_shape": [
                    1,
                    64,
                    14,
                    14
                ]
            },
            {
                "name": "features.8.conv.0",
                "type": "Sequential",
                "parameters": 0,
                "trainable_parameters": 0,
                "config": "Sequential(\n  (0): Conv2d(64, 384, kernel_size=(1, 1), stride=(1, 1), bias=False)\n  (1): BatchNorm2d(384, eps=1e-05, momentum=0.1, affine=True, track_running_stats=True)\n  (2): ReLU6(inplace=True)\n)",
                "input_shape": [
                    1,
                    64,
                    14,
                    14
                ],
                "output_shape": [
                    1,
                    384,
                    14,
                    14
                ]
            },
…
                "config": "BatchNorm2d(64, eps=1e-05, momentum=0.1, affine=True, track_running_stats=True)",
                "input_shape": [
                    1,
                    64,
                    14,
                    14
                ],
                "output_shape": [
                    1,
                    64,
                    14,
                    14
                ]
            },
            {
                "name": "features.10",
                "type": "InvertedResidual",
                "parameters": 0,
                "trainable_parameters": 0,
                "config": "InvertedResidual(\n  (conv): Sequential(\n    (0): Sequential(\n      (0): Conv2d(64, 384, kernel_size=(1, 1), stride=(1, 1), bias=False)\n      (1): BatchNorm2d(384, eps=1e-05, momentum=0.1, affine=True, track_running_stats=True)\n      (2): ReLU6(inplace=True)\n    )\n    (1): ConvBNReLU(\n      (0): Conv2d(384, 384, kernel_size=(3, 3), stride=(1, 1), padding=(1, 1), groups=384, bias=False)\n      (1): BatchNorm2d(384, eps=1e-05, momentum=0.1, affine=True, track_running_stats=True)\n      (2): ReLU6(inplace=True)\n    )\n    (2): Conv2d(384, 96, kernel_size=(1, 1), stride=(1, 1), bias=False)\n    (3): BatchNorm2d(96, eps=1e-05, momentum=0.1, affine=True, track_running_stats=True)\n  )\n)",
                "input_shape": [
                    1,
                    64,
                    14,
                    14
                ],
                "output_shape": [
                    1,
                    96,
                    14,
                    14
                ]
            },
            {
                "name": "features.10.conv",
                "type": "Sequential",
                "parameters": 0,
                "trainable_parameters": 0,
                "config": "Sequential(\n  (0): Sequential(\n    (0): Conv2d(64, 384, kernel_size=(1, 1), stride=(1, 1), bias=False)\n    (1): BatchNorm2d(384, eps=1e-05, momentum=0.1, affine=True, track_running_stats=True)\n    (2): ReLU6(inplace=True)\n  )\n  (1): ConvBNReLU(\n    (0): Conv2d(384, 384, kernel_size=(3, 3), stride=(1, 1), padding=(1, 1), groups=384, bias=False)\n    (1): BatchNorm2d(384, eps=1e-05, momentum=0.1, affine=True, track_running_stats=True)\n    (2): ReLU6(inplace=True)\n  )\n  (2): Conv2d(384, 96, kernel_size=(1, 1), stride=(1, 1), bias=False)\n  (3): BatchNorm2d(96, eps=1e-05, momentum=0.1, affine=True, track_running_stats=True)\n)",
                "input_shape": [
                    1,
                    64,
                    14,
                    14
                ],
                "output_shape": [
                    1,
                    96,
                    14,
                    14
                ]
            },
            {
                "name": "features.10.conv.0",
                "type": "Sequential",
                "parameters": 0,
                "trainable_parameters": 0,
                "config": "Sequential(\n  (0): Conv2d(64, 384, kernel_size=(1, 1), stride=(1, 1), bias=False)\n  (1): BatchNorm2d(384, eps=1e-05, momentum=0.1, affine=True, track_running_stats=True)\n  (2): ReLU6(inplace=True)\n)",
                "input_shape": [
                    1,
                    64,
                    14,
                    14
                ],
                "output_shape": [
                    1,
                    384,
                    14,
                    14
                ]
            },
…
                "config": "BatchNorm2d(96, eps=1e-05, momentum=0.1, affine=True, track_running_stats=True)",
                "input_shape": [
                    1,
                    96,
                    14,
                    14
                ],
                "output_shape": [
                    1,
                    96,
                    14,
                    14
                ]
            },
            {
                "name": "features.11",
                "type": "InvertedResidual",
                "parameters": 0,
                "trainable_parameters": 0,
                "config": "InvertedResidual(\n  (conv): Sequential(\n    (0): Sequential(\n      (0): Conv2d(96, 576, kernel_size=(1, 1), stride=(1, 1), bias=False)\n      (1): BatchNorm2d(576, eps=1e-05, momentum=0.1, affine=True, track_running_stats=True)\n      (2): ReLU6(inplace=True)\n    )\n    (1): ConvBNReLU(\n      (0): Conv2d(576, 576, kernel_size=(3, 3), stride=(1, 1), padding=(1, 1), groups=576, bias=False)\n      (1): BatchNorm2d(576, eps=1e-05, momentum=0.1, affine=True, track_running_stats=True)\n      (2): ReLU6(inplace=True)\n    )\n    (2): Conv2d(576, 96, kernel_size=(1, 1), stride=(1, 1), bias=False)\n    (3): BatchNorm2d(96, eps=1e-05, momentum=0.1, affine=True, track_running_stats=True)\n  )\n)",
                "input_shape": [
                    1,
                    96,
                    14,
                    14
                ],
                "output_shape": [
                    1,
                    96,
                    14,
                    14
                ]
            },
            {
                "name": "features.11.conv",
                "type": "Sequential",
                "parameters": 0,
                "trainable_parameters": 0,
                "config": "Sequential(\n  (0): Sequential(\n    (0): Conv2d(96, 576, kernel_size=(1, 1), stride=(1, 1), bias=False)\n    (1): BatchNorm2d(576, eps=1e-05, momentum=0.1, affine=True, track_running_stats=True)\n    (2): ReLU6(inplace=True)\n  )\n  (1): ConvBNReLU(\n    (0): Conv2d(576, 576, kernel_size=(3, 3), stride=(1, 1), padding=(1, 1), groups=576, bias=False)\n    (1): BatchNorm2d(576, eps=1e-05, momentum=0.1, affine=True, track_running_stats=True)\n    (2): ReLU6(inplace=True)\n  )\n  (2): Conv2d(576, 96, kernel_size=(1, 1), stride=(1, 1), bias=False)\n  (3): BatchNorm2d(96, eps=1e-05, momentum=0.1, affine=True, track_running_stats=True)\n)",
                "input_shape": [
                    1,
                    96,
                    14,
                    14
                ],
                "output_shape": [
                    1,
                    96,
                    14,
                    14
                ]
            },
            {
                "name": "features.11.conv.0",
                "type": "Sequential",
                "parameters": 0,
                "trainable_parameters": 0,
                "config": "Sequential(\n  (0): Conv2d(96, 576, kernel_size=(1, 1), stride=(1, 1), bias=False)\n  (1): BatchNorm2d(576, eps=1e-05, momentum=0.1, affine=True, track_running_stats=True)\n  (2): ReLU6(inplace=True)\n)",
                "input_shape": [
                    1,
                    96,
                    14,
                    14
                ],
                "output_shape": [
                    1,
                    576,
                    14,
                    14
                ]
            },
…
