{
    "model_info": {
        "model_name": "EfficientNetB0Scratch",
        "architecture": "EfficientNetB0Scratch(\n  (stem): Sequential(\n    (0): Conv2d(3, 32, kernel_size=(3, 3), stride=(2, 2), padding=(1, 1), bias=False)\n    (1): BatchNorm2d(32, eps=1e-05, momentum=0.1, affine=True, track_running_stats=True)\n    (2): Swish()\n  )\n  (blocks): Sequential(\n    (0): MBConvBlock(\n      (block): Sequential(\n        (0): Conv2d(32, 32, kernel_size=(3, 3), stride=(1, 1), padding=(1, 1), groups=32, bias=False)\n        (1): BatchNorm2d(32, eps=1e-05, momentum=0.1, affine=True, track_running_stats=True)\n        (2): Swish()\n        (3): SqueezeExcitation(\n          (se): Sequential(\n            (0): AdaptiveAvgPool2d(output_size=1)\n            (1): Conv2d(32, 8, kernel_size=(1, 1), stride=(1, 1))\n            (2): Swish()\n            (3): Conv2d(8, 32, kernel_size=(1, 1), stride=(1, 1))\n            (4): Sigmoid()\n          )\n        )\n        (4): Conv2d(32, 16, kernel_size=(1, 1), stride=(1, 1), bias=False)\n        (5): BatchNorm2d(16, eps=1e-05, momentum=0.1, affine=True, track_running_stats=True)\n      )\n      (dropout): Dropout2d(p=0.0, inplace=False)\n    )\n    (1): MBConvBlock(\n      (block): Sequential(\n        (0): Conv2d(16, 96, kernel_size=(1, 1), stride=(1, 1), bias=False)\n        (1): BatchNorm2d(96, eps=1e-05, momentum=0.1, affine=True, track_running_stats=True)\n        (2): Swish()\n        (3): Conv2d(96, 96, kernel_size=(3, 3), stride=(2, 2), padding=(1, 1), groups=96, bias=False)\n        (4): BatchNorm2d(96, eps=1e-05, momentum=0.1, affine=True, track_running_stats=True)\n        (5): Swish()\n        (6): SqueezeExcitation(\n          (se): Sequential(\n            (0): AdaptiveAvgPool2d(output_size=1)\n            (1): Conv2d(96, 4, kernel_size=(1, 1), stride=(1, 1))\n            (2): Swish()\n            (3): Conv2d(4, 96, kernel_size=(1, 1), stride=(1, 1))\n            (4): Sigmoid()\n          )\n        )\n        (7): Conv2d(96, 24, kernel_size=(1, 1), stride=(1, 1), bias=False)\n        (8): BatchNorm2d(24, eps=1e-05, momentum=0.1, affine=True, track_running_stats=True)\n      )\n      (dropout): Dropout2d(p=0.0, inplace=False)\n    )\n    (2): MBConvBlock(\n      (block): Sequential(\n        (0): Conv2d(24, 144, kernel_size=(1, 1), stride=(1, 1), bias=False)\n        (1): BatchNorm2d(144, eps=1e-05, momentum=0.1, affine=True, track_running_stats=True)\n        (2): Swish()\n        (3): Conv2d(144, 144, kernel_size=(3, 3), stride=(1, 1), padding=(1, 1), groups=144, bias=False)\n        (4): BatchNorm2d(144, eps=1e-05, momentum=0.1, affine=True, track_running_stats=True)\n        (5): Swish()\n        (6): SqueezeExcitation(\n          (se): Sequential(\n            (0): AdaptiveAvgPool2d(output_size=1)\n            (1): Conv2d(144, 6, kernel_size=(1, 1), stride=(1, 1))\n            (2): Swish()\n            (3): Conv2d(6, 144, kernel_size=(1, 1), stride=(1, 1))\n            (4): Sigmoid()\n          )\n        )\n        (7): Conv2d(144, 24, kernel_size=(1, 1), stride=(1, 1), bias=False)\n        (8): BatchNorm2d(24, eps=1e-05, momentum=0.1, affine=True, track_running_stats=True)\n      )\n      (dropout): Dropout2d(p=0.0, inplace=False)\n    )\n    (3): MBConvBlock(\n      (block): Sequential(\n        (0): Conv2d(24, 144, kernel_size=(1, 1), stride=(1, 1), bias=False)\n        (1): BatchNorm2d(144, eps=1e-05, momentum=0.1, affine=True, track_running_stats=True)\n        (2): Swish()\n        (3): Conv2d(144, 144, kernel_size=(5, 5), stride=(2, 2), padding=(2, 2), groups=144, bias=False)\n        (4): BatchNorm2d(144, eps=1e-05, momentum=0.1, affine=True, track_running_stats=True)\n        (5): Swish()\n        (6): SqueezeExcitation(\n          (se): Sequential(\n            (0): AdaptiveAvgPool2d(output_size=1)\n            (1): Conv2d(144, 6, kernel_size=(1, 1), stride=(1, 1))\n            (2): Swish()\n            (3): Conv2d(6, 144, kernel_size=(1, 1), stride=(1, 1))\n            (4): Sigmoid()\n          )\n        )\n        (7): Conv2d(144, 40, kernel_size=(1, 1), stride=(1, 1), bias=False)\n        (8): BatchNorm2d(40, eps=1e-05, momentum=0.1, affine=True, track_running_stats=True)\n      )\n      (dropout): Dropout2d(p=0.0, inplace=False)\n    )\n    (4): MBConvBlock(\n      (block): Sequential(\n        (0): Conv2d(40, 240, kernel_size=(1, 1), stride=(1, 1), bias=False)\n        (1): BatchNorm2d(240, eps=1e-05, momentum=0.1, affine=True, track_running_stats=True)\n        (2): Swish()\n        (3): Conv2d(240, 240, kernel_size=(5, 5), stride=(1, 1), padding=(2, 2), groups=240, bias=False)\n        (4): BatchNorm2d(240, eps=1e-05, momentum=0.1, affine=True, track_running_stats=True)\n        (5): Swish()\n        (6): SqueezeExcitation(\n          (se): Sequential(\n            (0): AdaptiveAvgPool2d(output_size=1)\n            (1): Conv2d(240, 10, kernel_size=(1, 1), stride=(1, 1))\n            (2): Swish()\n            (3): Conv2d(10, 240, kernel_size=(1, 1), stride=(1, 1))\n            (4): Sigmoid()\n          )\n        )\n        (7): Conv2d(240, 40, kernel_size=(1, 1), stride=(1, 1), bias=False)\n        (8): BatchNorm2d(40, eps=1e-05, momentum=0.1, affine=True, track_running_stats=True)\n      )\n      (dropout): Dropout2d(p=0.0, inplace=False)\n    )\n    (5): MBConvBlock(\n      (block): Sequential(\n        (0): Conv2d(40, 240, kernel_size=(1, 1), stride=(1, 1), bias=False)\n        (1): BatchNorm2d(240, eps=1e-05, momentum=0.1, affine=True, track_running_stats=True)\n        (2): Swish()\n        (3): Conv2d(240, 240, kernel_size=(3, 3), stride=(2, 2), padding=(1, 1), groups=240, bias=False)\n        (4): BatchNorm2d(240, eps=1e-05, momentum=0.1, affine=True, track_running_stats=True)\n        (5): Swish()\n        (6): SqueezeExcitation(\n          (se): Sequential(\n            (0): AdaptiveAvgPool2d(output_size=1)\n            (1): Conv2d(240, 10, kernel_size=(1, 1), stride=(1, 1))\n            (2): Swish()\n            (3): Conv2d(10, 240, kernel_size=(1, 1), stride=(1, 1))\n            (4): Sigmoid()\n          )\n        )\n        (7): Conv2d(240, 80, kernel_size=(1, 1), stride=(1, 1), bias=False)\n        (8): BatchNorm2d(80, eps=1e-05, momentum=0.1, affine=True, track_running_stats=True)\n      )\n      (dropout): Dropout2d(p=0.0, inplace=False)\n    )\n    (6): MBConvBlock(\n      (block): Sequential(\n        (0): Conv2d(80, 480, kernel_size=(1, 1), stride=(1, 1), bias=False)\n        (1): BatchNorm2d(480, eps=1e-05, momentum=0.1, affine=True, track_running_stats=True)\n        (2): Swish()\n        (3): Conv2d(480, 480, kernel_size=(3, 3), stride=(1, 1), padding=(1, 1), groups=480, bias=False)\n        (4): BatchNorm2d(480, eps=1e-05, momentum=0.1, affine=True, track_running_stats=True)\n        (5): Swish()\n        (6): SqueezeExcitation(\n          (se): Sequential(\n            (0): AdaptiveAvgPool2d(output_size=1)\n            (1): Conv2d(480, 20, kernel_size=(1, 1), stride=(1, 1))\n            (2): Swish()\n            (3): Conv2d(20, 480, kernel_size=(1, 1), stride=(1, 1))\n            (4): Sigmoid()\n          )\n        )\n        (7): Conv2d(480, 80, kernel_size=(1, 1), stride=(1, 1), bias=False)\n        (8): BatchNorm2d(80, eps=1e-05, momentum=0.1, affine=True, track_running_stats=True)\n      )\n      (dropout): Dropout2d(p=0.0, inplace=False)\n    )\n    (7): MBConvBlock(\n      (block): Sequential(\n        (0): Conv2d(80, 480, kernel_size=(1, 1), stride=(1, 1), bias=False)\n        (1): BatchNorm2d(480, eps=1e-05, momentum=0.1, affine=True, track_running_stats=True)\n        (2): Swish()\n        (3): Conv2d(480, 480, kernel_size=(3, 3), stride=(1, 1), padding=(1, 1), groups=480, bias=False)\n        (4): BatchNorm2d(480, eps=1e-05, momentum=0.1, affine=True, track_running_stats=True)\n        (5): Swish()\n        (6): SqueezeExcitation(\n          (se): Sequential(\n            (0): AdaptiveAvgPool2d(output_size=1)\n            (1): Conv2d(480, 20, kernel_size=(1, 1), stride=(1, 1))\n            (2): Swish()\n            (3): Conv2d(20, 480, kernel_size=(1, 1), stride=(1, 1))\n            (4): Sigmoid()\n          )\n        )\n        (7): Conv2d(480, 80, kernel_size=(1, 1), stride=(1, 1), bias=False)\n        (8): BatchNorm2d(80, eps=1e-05, momentum=0.1, affine=True, track_running_stats=True)\n      )\n      (dropout): Dropout2d(p=0.0, inplace=False)\n    )\n    (8): MBConvBlock(\n      (block): Sequential(\n        (0): Conv2d(80, 480, kernel_size=(1, 1), stride=(1, 1), bias=False)\n        (1): BatchNorm2d(480, eps=1e-05, momentum=0.1, affine=True, track_running_stats=True)\n        (2): Swish()\n        (3): Conv2d(480, 480, kernel_size=(5, 5), stride=(1, 1), padding=(2, 2), groups=480, bias=False)\n        (4): BatchNorm2d(480, eps=1e-05, momentum=0.1, affine=True, track_running_stats=True)\n        (5): Swish()\n        (6): SqueezeExcitation(\n          (se): Sequential(\n            (0): AdaptiveAvgPool2d(output_size=1)\n            (1): Conv2d(480, 20, kernel_size=(1, 1), stride=(1, 1))\n            (2): Swish()\n            (3): Conv2d(20, 480, kernel_size=(1, 1), stride=(1, 1))\n            (4): Sigmoid()\n          )\n        )\n        (7): Conv2d(480, 112, kernel_size=(1, 1), stride=(1, 1), bias=False)\n        (8): BatchNorm2d(112, eps=1e-05, momentum=0.1, affine=True, track_running_stats=True)\n      )\n      (dropout): Dropout2d(p=0.0, inplace=False)\n    )\n    (9): MBConvBlock(\n      (block): Sequential(\n        (0): Conv2d(112, 672, kernel_size=(1, 1), stride=(1, 1), bias=False)\n        (1): BatchNorm2d(672, eps=1e-05, momentum=0.1, affine=True, track_running_stats=True)\n        (2): Swish()\n        (3): Conv2d(672, 672, kernel_size=(5, 5), stride=(1, 1), padding=(2, 2), groups=672, bias=False)\n        (4): BatchNorm2d(672, eps=1e-05, momentum=0.1, affine=True, track_running_stats=True)\n        (5): Swish()\n        (6): SqueezeExcitation(\n          (se): Sequential(\n            (0): AdaptiveAvgPool2d(output_size=1)\n            (1): Conv2d(672, 28, kernel_size=(1, 1), stride=(1, 1))\n            (2): Swish()\n            (3): Conv2d(28, 672, kernel_size=(1, 1), stride=(1, 1))\n            (4): Sigmoid()\n          )\n        )\n        (7): Conv2d(672, 112, kernel_size=(1, 1), stride=(1, 1), bias=False)\n        (8): BatchNorm2d(112, eps=1e-05, momentum=0.1, affine=True, track_running_stats=True)\n      )\n      (dropout): Dropout2d(p=0.0, inplace=False)\n    )\n    (10): MBConvBlock(\n      (block): Sequential(\n        (0): Conv2d(112, 672, kernel_size=(1, 1), stride=(1, 1), bias=False)\n        (1): BatchNorm2d(672, eps=1e-05, momentum=0.1, affine=True, track_running_stats=True)\n        (2): Swish()\n        (3): Conv2d(672, 672, kernel_size=(5, 5), stride=(2, 2), padding=(2, 2), groups=672, bias=False)\n        (4): BatchNorm2d(672, eps=1e-05, momentum=0.1, affine=True, track_running_stats=True)\n        (5): Swish()\n        (6): SqueezeExcitation(\n          (se): Sequential(\n            (0): AdaptiveAvgPool2d(output_size=1)\n            (1): Conv2d(672, 28, kernel_size=(1, 1), stride=(1, 1))\n            (2): Swish()\n            (3): Conv2d(28, 672, kernel_size=(1, 1), stride=(1, 1))\n            (4): Sigmoid()\n          )\n        )\n        (7): Conv2d(672, 192, kernel_size=(1, 1), stride=(1, 1), bias=False)\n        (8): BatchNorm2d(192, eps=1e-05, momentum=0.1, affine=True, track_running_stats=True)\n      )\n      (dropout): Dropout2d(p=0.0, inplace=False)\n    )\n    (11): MBConvBlock(\n      (block): Sequential(\n        (0): Conv2d(192, 1152, kernel_size=(1, 1), stride=(1, 1), bias=False)\n        (1): BatchNorm2d(1152, eps=1e-05, momentum=0.1, affine=True, track_running_stats=True)\n        (2): Swish()\n        (3): Conv2d(1152, 1152, kernel_size=(5, 5), stride=(1, 1), padding=(2, 2), groups=1152, bias=False)\n        (4): BatchNorm2d(1152, eps=1e-05, momentum=0.1, affine=True, track_running_stats=True)\n        (5): Swish()\n        (6): SqueezeExcitation(\n          (se): Sequential(\n            (0): AdaptiveAvgPool2d(output_size=1)\n            (1): Conv2d(1152, 48, kernel_size=(1, 1), stride=(1, 1))\n            (2): Swish()\n            (3): Conv2d(48, 1152, kernel_size=(1, 1), stride=(1, 1))\n            (4): Sigmoid()\n          )\n        )\n        (7): Conv2d(1152, 192, kernel_size=(1, 1), stride=(1, 1), bias=False)\n        (8): BatchNorm2d(192, eps=1e-05, momentum=0.1, affine=True, track_running_stats=True)\n      )\n      (dropout): Dropout2d(p=0.0, inplace=False)\n    )\n    (12): MBConvBlock(\n      (block): Sequential(\n        (0): Conv2d(192, 1152, kernel_size=(1, 1), stride=(1, 1), bias=False)\n        (1): BatchNorm2d(1152, eps=1e-05, momentum=0.1, affine=True, track_running_stats=True)\n        (2): Swish()\n        (3): Conv2d(1152, 1152, kernel_size=(5, 5), stride=(1, 1), padding=(2, 2), groups=1152, bias=False)\n        (4): BatchNorm2d(1152, eps=1e-05, momentum=0.1, affine=True, track_running_stats=True)\n        (5): Swish()\n        (6): SqueezeExcitation(\n          (se): Sequential(\n            (0): AdaptiveAvgPool2d(output_size=1)\n            (1): Conv2d(1152, 48, kernel_size=(1, 1), stride=(1, 1))\n            (2): Swish()\n            (3): Conv2d(48, 1152, kernel_size=(1, 1), stride=(1, 1))\n            (4): Sigmoid()\n          )\n        )\n        (7): Conv2d(1152, 192, kernel_size=(1, 1), stride=(1, 1), bias=False)\n        (8): BatchNorm2d(192, eps=1e-05, momentum=0.1, affine=True, track_running_stats=True)\n      )\n      (dropout): Dropout2d(p=0.0, inplace=False)\n    )\n    (13): MBConvBlock(\n      (block): Sequential(\n        (0): Conv2d(192, 1152, kernel_size=(1, 1), stride=(1, 1), bias=False)\n        (1): BatchNorm2d(1152, eps=1e-05, momentum=0.1, affine=True, track_running_stats=True)\n        (2): Swish()\n        (3): Conv2d(1152, 1152, kernel_size=(3, 3), stride=(1, 1), padding=(1, 1), groups=1152, bias=False)\n        (4): BatchNorm2d(1152, eps=1e-05, momentum=0.1, affine=True, track_running_stats=True)\n        (5): Swish()\n        (6): SqueezeExcitation(\n          (se): Sequential(\n            (0): AdaptiveAvgPool2d(output_size=1)\n            (1): Conv2d(1152, 48, kernel_size=(1, 1), stride=(1, 1))\n            (2): Swish()\n            (3): Conv2d(48, 1152, kernel_size=(1, 1), stride=(1, 1))\n            (4): Sigmoid()\n          )\n        )\n        (7): Conv2d(1152, 320, kernel_size=(1, 1), stride=(1, 1), bias=False)\n        (8): BatchNorm2d(320, eps=1e-05, momentum=0.1, affine=True, track_running_stats=True)\n      )\n      (dropout): Dropout2d(p=0.0, inplace=False)\n    )\n  )\n  (head): Sequential(\n    (0): Conv2d(320, 1280, kernel_size=(1, 1), stride=(1, 1), bias=False)\n    (1): BatchNorm2d(1280, eps=1e-05, momentum=0.1, affine=True, track_running_stats=True)\n    (2): Swish()\n  )\n  (pool): AdaptiveAvgPool2d(output_size=1)\n  (classifier): Sequential(\n    (0): Dropout(p=0.5, inplace=False)\n    (1): Linear(in_features=1280, out_features=4, bias=True)\n  )\n)",
        "architecture_image": "results/EfficientNet\\architecture.svg",
        "architecture_image_format": "svg",
        "total_parameters": 3216148,
        "trainable_parameters": 3216148,
        "input_size": [
            1,
            3,
            224,
            224
        ],
        "layers": [
            {
                "name": "stem",
                "type": "Sequential",
                "parameters": 0,
                "trainable_parameters": 0,
                "config": "Sequential(\n  (0): Conv2d(3, 32, kernel_size=(3, 3), stride=(2, 2), padding=(1, 1), bias=False)\n  (1): BatchNorm2d(32, eps=1e-05, momentum=0.1, affine=True, track_running_stats=True)\n  (2): Swish()\n)",
                "input_shape": [
                    1,
                    3,
                    224,
                    224
                ],
                "output_shape": [
                    1,
                    32,
                    112,
                    112
                ]
            },
            {
…
                "config": "Swish()",
                "input_shape": [
                    1,
                    32,
                    112,
                    112
                ],
                "output_shape": [
                    1,
                    32,
                    112,
                    112
                ]
            },
            {
                "name": "blocks",
                "type": "Sequential",
                "parameters": 0,
                "trainable_parameters": 0,
                "config": "Sequential(\n  (0): MBConvBlock(\n    (block): Sequential(\n      (0): Conv2d(32, 32, kernel_size=(3, 3), stride=(1, 1), padding=(1, 1), groups=32, bias=False)\n      (1): BatchNorm2d(32, eps=1e-05, momentum=0.1, affine=True, track_running_stats=True)\n      (2): Swish()\n      (3): SqueezeExcitation(\n        (se): Sequential(\n          (0): AdaptiveAvgPool2d(output_size=1)\n          (1): Conv2d(32, 8, kernel_size=(1, 1), stride=(1, 1))\n          (2): Swish()\n          (3): Conv2d(8, 32, kernel_size=(1, 1), stride=(1, 1))\n          (4): Sigmoid()\n        )\n      )\n      (4): Conv2d(32, 16, kernel_size=(1, 1), stride=(1, 1), bias=False)\n      (5): BatchNorm2d(16, eps=1e-05, momentum=0.1, affine=True, track_running_stats=True)\n    )\n    (dropout): Dropout2d(p=0.0, inplace=False)\n  )\n  (1): MBConvBlock(\n    (block): Sequential(\n      (0): Conv2d(16, 96, kernel_size=(1, 1), stride=(1, 1), bias=False)\n      (1): BatchNorm2d(96, eps=1e-05, momentum=0.1, affine=True, track_running_stats=True)\n      (2): Swish()\n      (3): Conv2d(96, 96, kernel_size=(3, 3), stride=(2, 2), padding=(1, 1), groups=96, bias=False)\n      (4): BatchNorm2d(96, eps=1e-05, momentum=0.1, affine=True, track_running_stats=True)\n      (5): Swish()\n      (6): SqueezeExcitation(\n        (se): Sequential(\n          (0): AdaptiveAvgPool2d(output_size=1)\n          (1): Conv2d(96, 4, kernel_size=(1, 1), stride=(1, 1))\n          (2): Swish()\n          (3): Conv2d(4, 96, kernel_size=(1, 1), stride=(1, 1))\n          (4): Sigmoid()\n        )\n      )\n      (7): Conv2d(96, 24, kernel_size=(1, 1), stride=(1, 1), bias=False)\n      (8): BatchNorm2d(24, eps=1e-05, momentum=0.1, affine=True, track_running_stats=True)\n    )\n    (dropout): Dropout2d(p=0.0, inplace=False)\n  )\n  (2): MBConvBlock(\n    (block): Sequential(\n      (0): Conv2d(24, 144, kernel_size=(1, 1), stride=(1, 1), bias=False)\n      (1): BatchNorm2d(144, eps=1e-05, momentum=0.1, affine=True, track_running_stats=True)\n      (2): Swish()\n      (3): Conv2d(144, 144, kernel_size=(3, 3), stride=(1, 1), padding=(1, 1), groups=144, bias=False)\n      (4): BatchNorm2d(144, eps=1e-05, momentum=0.1, affine=True, track_running_stats=True)\n      (5): Swish()\n      (6): SqueezeExcitation(\n        (se): Sequential(\n          (0): AdaptiveAvgPool2d(output_size=1)\n          (1): Conv2d(144, 6, kernel_size=(1, 1), stride=(1, 1))\n          (2): Swish()\n          (3): Conv2d(6, 144, kernel_size=(1, 1), stride=(1, 1))\n          (4): Sigmoid()\n        )\n      )\n      (7): Conv2d(144, 24, kernel_size=(1, 1), stride=(1, 1), bias=False)\n      (8): BatchNorm2d(24, eps=1e-05, momentum=0.1, affine=True, track_running_stats=True)\n    )\n    (dropout): Dropout2d(p=0.0, inplace=False)\n  )\n  (3): MBConvBlock(\n    (block): Sequential(\n      (0): Conv2d(24, 144, kernel_size=(1, 1), stride=(1, 1), bias=False)\n      (1): BatchNorm2d(144, eps=1e-05, momentum=0.1, affine=True, track_running_stats=True)\n      (2): Swish()\n      (3): Conv2d(144, 144, kernel_size=(5, 5), stride=(2, 2), padding=(2, 2), groups=144, bias=False)\n      (4): BatchNorm2d(144, eps=1e-05, momentum=0.1, affine=True, track_running_stats=True)\n      (5): Swish()\n      (6): SqueezeExcitation(\n        (se): Sequential(\n          (0): AdaptiveAvgPool2d(output_size=1)\n          (1): Conv2d(144, 6, kernel_size=(1, 1), stride=(1, 1))\n          (2): Swish()\n          (3): Conv2d(6, 144, kernel_size=(1, 1), stride=(1, 1))\n          (4): Sigmoid()\n        )\n      )\n      (7): Conv2d(144, 40, kernel_size=(1, 1), stride=(1, 1), bias=False)\n      (8): BatchNorm2d(40, eps=1e-05, momentum=0.1, affine=True, track_running_stats=True)\n    )\n    (dropout): Dropout2d(p=0.0, inplace=False)\n  )\n  (4): MBConvBlock(\n    (block): Sequential(\n      (0): Conv2d(40, 240, kernel_size=(1, 1), stride=(1, 1), bias=False)\n      (1): BatchNorm2d(240, eps=1e-05, momentum=0.1, affine=True, track_running_stats=True)\n      (2): Swish()\n      (3): Conv2d(240, 240, kernel_size=(5, 5), stride=(1, 1), padding=(2, 2), groups=240, bias=False)\n      (4): BatchNorm2d(240, eps=1e-05, momentum=0.1, affine=True, track_running_stats=True)\n      (5): Swish()\n      (6): SqueezeExcitation(\n        (se): Sequential(\n          (0): AdaptiveAvgPool2d(output_size=1)\n          (1): Conv2d(240, 10, kernel_size=(1, 1), stride=(1, 1))\n          (2): Swish()\n          (3): Conv2d(10, 240, kernel_size=(1, 1), stride=(1, 1))\n          (4): Sigmoid()\n        )\n      )\n      (7): Conv2d(240, 40, kernel_size=(1, 1), stride=(1, 1), bias=False)\n      (8): BatchNorm2d(40, eps=1e-05, momentum=0.1, affine=True, track_running_stats=True)\n    )\n    (dropout): Dropout2d(p=0.0, inplace=False)\n  )\n  (5): MBConvBlock(\n    (block): Sequential(\n      (0): Conv2d(40, 240, kernel_size=(1, 1), stride=(1, 1), bias=False)\n      (1): BatchNorm2d(240, eps=1e-05, momentum=0.1, affine=True, track_running_stats=True)\n      (2): Swish()\n      (3): Conv2d(240, 240, kernel_size=(3, 3), stride=(2, 2), padding=(1, 1), groups=240, bias=False)\n      (4): BatchNorm2d(240, eps=1e-05, momentum=0.1, affine=True, track_running_stats=True)\n      (5): Swish()\n      (6): SqueezeExcitation(\n        (se): Sequential(\n          (0): AdaptiveAvgPool2d(output_size=1)\n          (1): Conv2d(240, 10, kernel_size=(1, 1), stride=(1, 1))\n          (2): Swish()\n          (3): Conv2d(10, 240, kernel_size=(1, 1), stride=(1, 1))\n          (4): Sigmoid()\n        )\n      )\n      (7): Conv2d(240, 80, kernel_size=(1, 1), stride=(1, 1), bias=False)\n      (8): BatchNorm2d(80, eps=1e-05, momentum=0.1, affine=True, track_running_stats=True)\n    )\n    (dropout): Dropout2d(p=0.0, inplace=False)\n  )\n  (6): MBConvBlock(\n    (block): Sequential(\n      (0): Conv2d(80, 480, kernel_size=(1, 1), stride=(1, 1), bias=False)\n      (1): BatchNorm2d(480, eps=1e-05, momentum=0.1, affine=True, track_running_stats=True)\n      (2): Swish()\n      (3): Conv2d(480, 480, kernel_size=(3, 3), stride=(1, 1), padding=(1, 1), groups=480, bias=False)\n      (4): BatchNorm2d(480, eps=1e-05, momentum=0.1, affine=True, track_running_stats=True)\n      (5): Swish()\n      (6): SqueezeExcitation(\n        (se): Sequential(\n          (0): AdaptiveAvgPool2d(output_size=1)\n          (1): Conv2d(480, 20, kernel_size=(1, 1), stride=(1, 1))\n          (2): Swish()\n          (3): Conv2d(20, 480, kernel_size=(1, 1), stride=(1, 1))\n          (4): Sigmoid()\n        )\n      )\n      (7): Conv2d(480, 80, kernel_size=(1, 1), stride=(1, 1), bias=False)\n      (8): BatchNorm2d(80, eps=1e-05, momentum=0.1, affine=True, track_running_stats=True)\n    )\n    (dropout): Dropout2d(p=0.0, inplace=False)\n  )\n  (7): MBConvBlock(\n    (block): Sequential(\n      (0): Conv2d(80, 480, kernel_size=(1, 1), stride=(1, 1), bias=False)\n      (1): BatchNorm2d(480, eps=1e-05, momentum=0.1, affine=True, track_running_stats=True)\n      (2): Swish()\n      (3): Conv2d(480, 480, kernel_size=(3, 3), stride=(1, 1), padding=(1, 1), groups=480, bias=False)\n      (4): BatchNorm2d(480, eps=1e-05, momentum=0.1, affine=True, track_running_stats=True)\n      (5): Swish()\n      (6): SqueezeExcitation(\n        (se): Sequential(\n          (0): AdaptiveAvgPool2d(output_size=1)\n          (1): Conv2d(480, 20, kernel_size=(1, 1), stride=(1, 1))\n          (2): Swish()\n          (3): Conv2d(20, 480, kernel_size=(1, 1), stride=(1, 1))\n          (4): Sigmoid()\n        )\n      )\n      (7): Conv2d(480, 80, kernel_size=(1, 1), stride=(1, 1), bias=False)\n      (8): BatchNorm2d(80, eps=1e-05, momentum=0.1, affine=True, track_running_stats=True)\n    )\n    (dropout): Dropout2d(p=0.0, inplace=False)\n  )\n  (8): MBConvBlock(\n    (block): Sequential(\n      (0): Conv2d(80, 480, kernel_size=(1, 1), stride=(1, 1), bias=False)\n      (1): BatchNorm2d(480, eps=1e-05, momentum=0.1, affine=True, track_running_stats=True)\n      (2): Swish()\n      (3): Conv2d(480, 480, kernel_size=(5, 5), stride=(1, 1), padding=(2, 2), groups=480, bias=False)\n      (4): BatchNorm2d(480, eps=1e-05, momentum=0.1, affine=True, track_running_stats=True)\n      (5): Swish()\n      (6): SqueezeExcitation(\n        (se): Sequential(\n          (0): AdaptiveAvgPool2d(output_size=1)\n          (1): Conv2d(480, 20, kernel_size=(1, 1), stride=(1, 1))\n          (2): Swish()\n          (3): Conv2d(20, 480, kernel_size=(1, 1), stride=(1, 1))\n          (4): Sigmoid()\n        )\n      )\n      (7): Conv2d(480, 112, kernel_size=(1, 1), stride=(1, 1), bias=False)\n      (8): BatchNorm2d(112, eps=1e-05, momentum=0.1, affine=True, track_running_stats=True)\n    )\n    (dropout): Dropout2d(p=0.0, inplace=False)\n  )\n  (9): MBConvBlock(\n    (block): Sequential(\n      (0): Conv2d(112, 672, kernel_size=(1, 1), stride=(1, 1), bias=False)\n      (1): BatchNorm2d(672, eps=1e-05, momentum=0.1, affine=True, track_running_stats=True)\n      (2): Swish()\n      (3): Conv2d(672, 672, kernel_size=(5, 5), stride=(1, 1), padding=(2, 2), groups=672, bias=False)\n      (4): BatchNorm2d(672, eps=1e-05, momentum=0.1, affine=True, track_running_stats=True)\n      (5): Swish()\n      (6): SqueezeExcitation(\n        (se): Sequential(\n          (0): AdaptiveAvgPool2d(output_size=1)\n          (1): Conv2d(672, 28, kernel_size=(1, 1), stride=(1, 1))\n          (2): Swish()\n          (3): Conv2d(28, 672, kernel_size=(1, 1), stride=(1, 1))\n          (4): Sigmoid()\n        )\n      )\n      (7): Conv2d(672, 112, kernel_size=(1, 1), stride=(1, 1), bias=False)\n      (8): BatchNorm2d(112, eps=1e-05, momentum=0.1, affine=True, track_running_stats=True)\n    )\n    (dropout): Dropout2d(p=0.0, inplace=False)\n  )\n  (10): MBConvBlock(\n    (block): Sequential(\n      (0): Conv2d(112, 672, kernel_size=(1, 1), stride=(1, 1), bias=False)\n      (1): BatchNorm2d(672, eps=1e-05, momentum=0.1, affine=True, track_running_stats=True)\n      (2): Swish()\n      (3): Conv2d(672, 672, kernel_size=(5, 5), stride=(2, 2), padding=(2, 2), groups=672, bias=False)\n      (4): BatchNorm2d(672, eps=1e-05, momentum=0.1, affine=True, track_running_stats=True)\n      (5): Swish()\n      (6): SqueezeExcitation(\n        (se): Sequential(\n          (0): AdaptiveAvgPool2d(output_size=1)\n          (1): Conv2d(672, 28, kernel_size=(1, 1), stride=(1, 1))\n          (2): Swish()\n          (3): Conv2d(28, 672, kernel_size=(1, 1), stride=(1, 1))\n          (4): Sigmoid()\n        )\n      )\n      (7): Conv2d(672, 192, kernel_size=(1, 1), stride=(1, 1), bias=False)\n      (8): BatchNorm2d(192, eps=1e-05, momentum=0.1, affine=True, track_running_stats=True)\n    )\n    (dropout): Dropout2d(p=0.0, inplace=False)\n  )\n  (11): MBConvBlock(\n    (block): Sequential(\n      (0): Conv2d(192, 1152, kernel_size=(1, 1), stride=(1, 1), bias=False)\n      (1): BatchNorm2d(1152, eps=1e-05, momentum=0.1, affine=True, track_running_stats=True)\n      (2): Swish()\n      (3): Conv2d(1152, 1152, kernel_size=(5, 5), stride=(1, 1), padding=(2, 2), groups=1152, bias=False)\n      (4): BatchNorm2d(1152, eps=1e-05, momentum=0.1, affine=True, track_running_stats=True)\n      (5): Swish()\n      (6): SqueezeExcitation(\n        (se): Sequential(\n          (0): AdaptiveAvgPool2d(output_size=1)\n          (1): Conv2d(1152, 48, kernel_size=(1, 1), stride=(1, 1))\n          (2): Swish()\n          (3): Conv2d(48, 1152, kernel_size=(1, 1), stride=(1, 1))\n          (4): Sigmoid()\n        )\n      )\n      (7): Conv2d(1152, 192, kernel_size=(1, 1), stride=(1, 1), bias=False)\n      (8): BatchNorm2d(192, eps=1e-05, momentum=0.1, affine=True, track_running_stats=True)\n    )\n    (dropout): Dropout2d(p=0.0, inplace=False)\n  )\n  (12): MBConvBlock(\n    (block): Sequential(\n      (0): Conv2d(192, 1152, kernel_size=(1, 1), stride=(1, 1), bias=False)\n      (1): BatchNorm2d(1152, eps=1e-05, momentum=0.1, affine=True, track_running_stats=True)\n      (2): Swish()\n      (3): Conv2d(1152, 1152, kernel_size=(5, 5), stride=(1, 1), padding=(2, 2), groups=1152, bias=False)\n      (4): BatchNorm2d(1152, eps=1e-05, momentum=0.1, affine=True, track_running_stats=True)\n      (5): Swish()\n      (6): SqueezeExcitation(\n        (se): Sequential(\n          (0): AdaptiveAvgPool2d(output_size=1)\n          (1): Conv2d(1152, 48, kernel_size=(1, 1), stride=(1, 1))\n          (2): Swish()\n          (3): Conv2d(48, 1152, kernel_size=(1, 1), stride=(1, 1))\n          (4): Sigmoid()\n        )\n      )\n      (7): Conv2d(1152, 192, kernel_size=(1, 1), stride=(1, 1), bias=False)\n      (8): BatchNorm2d(192, eps=1e-05, momentum=0.1, affine=True, track_running_stats=True)\n    )\n    (dropout): Dropout2d(p=0.0, inplace=False)\n  )\n  (13): MBConvBlock(\n    (block): Sequential(\n      (0): Conv2d(192, 1152, kernel_size=(1, 1), stride=(1, 1), bias=False)\n      (1): BatchNorm2d(1152, eps=1e-05, momentum=0.1, affine=True, track_running_stats=True)\n      (2): Swish()\n      (3): Conv2d(1152, 1152, kernel_size=(3, 3), stride=(1, 1), padding=(1, 1), groups=1152, bias=False)\n      (4): BatchNorm2d(1152, eps=1e-05, momentum=0.1, affine=True, track_running_stats=True)\n      (5): Swish()\n      (6): SqueezeExcitation(\n        (se): Sequential(\n          (0): AdaptiveAvgPool2d(output_size=1)\n          (1): Conv2d(1152, 48, kernel_size=(1, 1), stride=(1, 1))\n          (2): Swish()\n          (3): Conv2d(48, 1152, kernel_size=(1, 1), stride=(1, 1))\n          (4): Sigmoid()\n        )\n      )\n      (7): Conv2d(1152, 320, kernel_size=(1, 1), stride=(1, 1), bias=False)\n      (8): BatchNorm2d(320, eps=1e-05, momentum=0.1, affine=True, track_running_stats=True)\n    )\n    (dropout): Dropout2d(p=0.0, inplace=False)\n  )\n)",
                "input_shape": [
                    1,
                    32,
                    112,
                    112
                ],
                "output_shape": [
                    1,
                    320,
                    7,
                    7
                ]
            },
            {
                "name": "blocks.0",
                "type": "MBConvBlock",
                "parameters": 0,
                "trainable_parameters": 0,
                "config": "MBConvBlock(\n  (block): Sequential(\n    (0): Conv2d(32, 32, kernel_size=(3, 3), stride=(1, 1), padding=(1, 1), groups=32, bias=False)\n    (1): BatchNorm2d(32, eps=1e-05, momentum=0.1, affine=True, track_running_stats=True)\n    (2): Swish()\n    (3): SqueezeExcitation(\n      (se): Sequential(\n        (0): AdaptiveAvgPool2d(output_size=1)\n        (1): Conv2d(32, 8, kernel_size=(1, 1), stride=(1, 1))\n        (2): Swish()\n        (3): Conv2d(8, 32, kernel_size=(1, 1), stride=(1, 1))\n        (4): Sigmoid()\n      )\n    )\n    (4): Conv2d(32, 16, kernel_size=(1, 1), stride=(1, 1), bias=False)\n    (5): BatchNorm2d(16, eps=1e-05, momentum=0.1, affine=True, track_running_stats=True)\n  )\n  (dropout): Dropout2d(p=0.0, inplace=False)\n)",
                "input_shape": [
                    1,
                    32,
                    112,
                    112
                ],
                "output_shape": [
                    1,
                    16,
                    112,
                    112
                ]
            },
            {
                "name": "blocks.0.block",
                "type": "Sequential",
                "parameters": 0,
                "trainable_parameters": 0,
                "config": "Sequential(\n  (0): Conv2d(32, 32, kernel_size=(3, 3), stride=(1, 1), padding=(1, 1), groups=32, bias=False)\n  (1): BatchNorm2d(32, eps=1e-05, momentum=0.1, affine=True, track_running_stats=True)\n  (2): Swish()\n  (3): SqueezeExcitation(\n    (se): Sequential(\n      (0): AdaptiveAvgPool2d(output_size=1)\n      (1): Conv2d(32, 8, kernel_size=(1, 1), stride=(1, 1))\n      (2): Swish()\n      (3): Conv2d(8, 32, kernel_size=(1, 1), stride=(1, 1))\n      (4): Sigmoid()\n    )\n  )\n  (4): Conv2d(32, 16, kernel_size=(1, 1), stride=(1, 1), bias=False)\n  (5): BatchNorm2d(16, eps=1e-05, momentum=0.1, affine=True, track_running_stats=True)\n)",
                "input_shape": [
                    1,
                    32,
                    112,
                    112
                ],
                "output_shape": [
                    1,
                    16,
                    112,
                    112
                ]
            },
            {
                "name": "blocks.0.block.0",
…
                    112
                ]
            },
            {
                "name": "blocks.0.dropout",
                "type": "Dropout2d",
                "parameters": 0,
                "trainable_parameters": 0,
                "config": "Dropout2d(p=0.0, inplace=False)",
                "input_shape": null,
                "output_shape": null
            },
            {
                "name": "blocks.1",
                "type": "MBConvBlock",
                "parameters": 0,
                "trainable_parameters": 0,
                "config": "MBConvBlock(\n  (block): Sequential(\n    (0): Conv2d(16, 96, kernel_size=(1, 1), stride=(1, 1), bias=False)\n    (1): BatchNorm2d(96, eps=1e-05, momentum=0.1, affine=True, track_running_stats=True)\n    (2): Swish()\n    (3): Conv2d(96, 96, kernel_size=(3, 3), stride=(2, 2), padding=(1, 1), groups=96, bias=False)\n    (4): BatchNorm2d(96, eps=1e-05, momentum=0.1, affine=True, track_running_stats=True)\n    (5): Swish()\n    (6): SqueezeExcitation(\n      (se): Sequential(\n        (0): AdaptiveAvgPool2d(output_size=1)\n        (1): Conv2d(96, 4, kernel_size=(1, 1), stride=(1, 1))\n        (2): Swish()\n        (3): Conv2d(4, 96, kernel_size=(1, 1), stride=(1, 1))\n        (4): Sigmoid()\n      )\n    )\n    (7): Conv2d(96, 24, kernel_size=(1, 1), stride=(1, 1), bias=False)\n    (8): BatchNorm2d(24, eps=1e-05, momentum=0.1, affine=True, track_running_stats=True)\n  )\n  (dropout): Dropout2d(p=0.0, inplace=False)\n)",
                "input_shape": [
                    1,
                    16,
                    112,
                    112
                ],
                "output_shape": [
                    1,
                    24,
                    56,
                    56
                ]
            },
            {
                "name": "blocks.1.block",
                "type": "Sequential",
                "parameters": 0,
                "trainable_parameters": 0,
                "config": "Sequential(\n  (0): Conv2d(16, 96, kernel_size=(1, 1), stride=(1, 1), bias=False)\n  (1): BatchNorm2d(96, eps=1e-05, momentum=0.1, affine=True, track_running_stats=True)\n  (2): Swish()\n  (3): Conv2d(96, 96, kernel_size=(3, 3), stride=(2, 2), padding=(1, 1), groups=96, bias=False)\n  (4): BatchNorm2d(96, eps=1e-05, momentum=0.1, affine=True, track_running_stats=True)\n  (5): Swish()\n  (6): SqueezeExcitation(\n    (se): Sequential(\n      (0): AdaptiveAvgPool2d(output_size=1)\n      (1): Conv2d(96, 4, kernel_size=(1, 1), stride=(1, 1))\n      (2): Swish()\n      (3): Conv2d(4, 96, kernel_size=(1, 1), stride=(1, 1))\n      (4): Sigmoid()\n    )\n  )\n  (7): Conv2d(96, 24, kernel_size=(1, 1), stride=(1, 1), bias=False)\n  (8): BatchNorm2d(24, eps=1e-05, momentum=0.1, affine=True, track_running_stats=True)\n)",
                "input_shape": [
                    1,
                    16,
                    112,
                    112
                ],
                "output_shape": [
                    1,
                    24,
                    56,
                    56
                ]
            },
            {
                "name": "blocks.1.block.0",
…
                    56
                ]
            },
            {
                "name": "blocks.1.dropout",
                "type": "Dropout2d",
                "parameters": 0,
                "trainable_parameters": 0,
                "config": "Dropout2d(p=0.0, inplace=False)",
                "input_shape": null,
                "output_shape": null
            },
            {
                "name": "blocks.2",
                "type": "MBConvBlock",
                "parameters": 0,
                "trainable_parameters": 0,
                "config": "MBConvBlock(\n  (block): Sequential(\n    (0): Conv2d(24, 144, kernel_size=(1, 1), stride=(1, 1), bias=False)\n    (1): BatchNorm2d(144, eps=1e-05, momentum=0.1, affine=True, track_running_stats=True)\n    (2): Swish()\n    (3): Conv2d(144, 144, kernel_size=(3, 3), stride=(1, 1), padding=(1, 1), groups=144, bias=False)\n    (4): BatchNorm2d(144, eps=1e-05, momentum=0.1, affine=True, track_running_stats=True)\n    (5): Swish()\n    (6): SqueezeExcitation(\n      (se): Sequential(\n        (0): AdaptiveAvgPool2d(output_size=1)\n        (1): Conv2d(144, 6, kernel_size=(1, 1), stride=(1, 1))\n        (2): Swish()\n        (3): Conv2d(6, 144, kernel_size=(1, 1), stride=(1, 1))\n        (4): Sigmoid()\n      )\n    )\n    (7): Conv2d(144, 24, kernel_size=(1, 1), stride=(1, 1), bias=False)\n    (8): BatchNorm2d(24, eps=1e-05, momentum=0.1, affine=True, track_running_stats=True)\n  )\n  (dropout): Dropout2d(p=0.0, inplace=False)\n)",
                "input_shape": [
                    1,
                    24,
                    56,
                    56
                ],
                "output_shape": [
                    1,
                    24,
                    56,
                    56
                ]
            },
            {
                "name": "blocks.2.block",
                "type": "Sequential",
                "parameters": 0,
                "trainable_parameters": 0,
                "config": "Sequential(\n  (0): Conv2d(24, 144, kernel_size=(1, 1), stride=(1, 1), bias=False)\n  (1): BatchNorm2d(144, eps=1e-05, momentum=0.1, affine=True, track_running_stats=True)\n  (2): Swish()\n  (3): Conv2d(144, 144, kernel_size=(3, 3), stride=(1, 1), padding=(1, 1), groups=144, bias=False)\n  (4): BatchNorm2d(144, eps=1e-05, momentum=0.1, affine=True, track_running_stats=True)\n  (5): Swish()\n  (6): SqueezeExcitation(\n    (se): Sequential(\n      (0): AdaptiveAvgPool2d(output_size=1)\n      (1): Conv2d(144, 6, kernel_size=(1, 1), stride=(1, 1))\n      (2): Swish()\n      (3): Conv2d(6, 144, kernel_size=(1, 1), stride=(1, 1))\n      (4): Sigmoid()\n    )\n  )\n  (7): Conv2d(144, 24, kernel_size=(1, 1), stride=(1, 1), bias=False)\n  (8): BatchNorm2d(24, eps=1e-05, momentum=0.1, affine=True, track_running_stats=True)\n)",
                "input_shape": [
                    1,
                    24,
                    56,
                    56
                ],
                "output_shape": [
                    1,
                    24,
                    56,
                    56
                ]
            },
            {
                "name": "blocks.2.block.0",
…
                "config": "Dropout2d(p=0.0, inplace=False)",
                "input_shape": [
                    1,
                    24,
                    56,
                    56
                ],
                "output_shape": [
                    1,
                    24,
                    56,
                    56
                ]
            },
            {
                "name": "blocks.3",
                "type": "MBConvBlock",
                "parameters": 0,
                "trainable_parameters": 0,
                "config": "MBConvBlock(\n  (block): Sequential(\n    (0): Conv2d(24, 144, kernel_size=(1, 1), stride=(1, 1), bias=False)\n    (1): BatchNorm2d(144, eps=1e-05, momentum=0.1, affine=True, track_running_stats=True)\n    (2): Swish()\n    (3): Conv2d(144, 144, kernel_size=(5, 5), stride=(2, 2), padding=(2, 2), groups=144, bias=False)\n    (4): BatchNorm2d(144, eps=1e-05, momentum=0.1, affine=True, track_running_stats=True)\n    (5): Swish()\n    (6): SqueezeExcitation(\n      (se): Sequential(\n        (0): AdaptiveAvgPool2d(output_size=1)\n        (1): Conv2d(144, 6, kernel_size=(1, 1), stride=(1, 1))\n        (2): Swish()\n        (3): Conv2d(6, 144, kernel_size=(1, 1), stride=(1, 1))\n        (4): Sigmoid()\n      )\n    )\n    (7): Conv2d(144, 40, kernel_size=(1, 1), stride=(1, 1), bias=False)\n    (8): BatchNorm2d(40, eps=1e-05, momentum=0.1, affine=True, track_running_stats=True)\n  )\n  (dropout): Dropout2d(p=0.0, inplace=False)\n)",
                "input_shape": [
                    1,
                    24,
                    56,
                    56
                ],
                "output_shape": [
                    1,
                    40,
                    28,
                    28
                ]
            },
            {
                "name": "blocks.3.block",
                "type": "Sequential",
                "parameters": 0,
                "trainable_parameters": 0,
                "config": "Sequential(\n  (0): Conv2d(24, 144, kernel_size=(1, 1), stride=(1, 1), bias=False)\n  (1): BatchNorm2d(144, eps=1e-05, momentum=0.1, affine=True, track_running_stats=True)\n  (2): Swish()\n  (3): Conv2d(144, 144, kernel_size=(5, 5), stride=(2, 2), padding=(2, 2), groups=144, bias=False)\n  (4): BatchNorm2d(144, eps=1e-05, momentum=0.1, affine=True, track_running_stats=True)\n  (5): Swish()\n  (6): SqueezeExcitation(\n    (se): Sequential(\n      (0): AdaptiveAvgPool2d(output_size=1)\n      (1): Conv2d(144, 6, kernel_size=(1, 1), stride=(1, 1))\n      (2): Swish()\n      (3): Conv2d(6, 144, kernel_size=(1, 1), stride=(1, 1))\n      (4): Sigmoid()\n    )\n  )\n  (7): Conv2d(144, 40, kernel_size=(1, 1), stride=(1, 1), bias=False)\n  (8): BatchNorm2d(40, eps=1e-05, momentum=0.1, affine=True, track_running_stats=True)\n)",
                "input_shape": [
                    1,
                    24,
                    56,
                    56
                ],
                "output_shape": [
                    1,
                    40,
                    28,
                    28
                ]
            },
            {
                "name": "blocks.3.block.0",
…
                    28
                ]
            },
            {
                "name": "blocks.3.dropout",
                "type": "Dropout2d",
                "parameters": 0,
                "trainable_parameters": 0,
                "config": "Dropout2d(p=0.0, inplace=False)",
                "input_shape": null,
                "output_shape": null
            },
            {
                "name": "blocks.4",
                "type": "MBConvBlock",
                "parameters": 0,
                "trainable_parameters": 0,
                "config": "MBConvBlock(\n  (block): Sequential(\n    (0): Conv2d(40, 240, kernel_size=(1, 1), stride=(1, 1), bias=False)\n    (1): BatchNorm2d(240, eps=1e-05, momentum=0.1, affine=True, track_running_stats=True)\n    (2): Swish()\n    (3): Conv2d(240, 240, kernel_size=(5, 5), stride=(1, 1), padding=(2, 2), groups=240, bias=False)\n    (4): BatchNorm2d(240, eps=1e-05, momentum=0.1, affine=True, track_running_stats=True)\n    (5): Swish()\n    (6): SqueezeExcitation(\n      (se): Sequential(\n        (0): AdaptiveAvgPool2d(output_size=1)\n        (1): Conv2d(240, 10, kernel_size=(1, 1), stride=(1, 1))\n        (2): Swish()\n        (3): Conv2d(10, 240, kernel_size=(1, 1), stride=(1, 1))\n        (4): Sigmoid()\n      )\n    )\n    (7): Conv2d(240, 40, kernel_size=(1, 1), stride=(1, 1), bias=False)\n    (8): BatchNorm2d(40, eps=1e-05, momentum=0.1, affine=True, track_running_stats=True)\n  )\n  (dropout): Dropout2d(p=0.0, inplace=False)\n)",
                "input_shape": [
                    1,
                    40,
                    28,
                    28
                ],
                "output_shape": [
                    1,
                    40,
                    28,
                    28
                ]
            },
            {
                "name": "blocks.4.block",
                "type": "Sequential",
                "parameters": 0,
                "trainable_parameters": 0,
                "config": "Sequential(\n  (0): Conv2d(40, 240, kernel_size=(1, 1), stride=(1, 1), bias=False)\n  (1): BatchNorm2d(240, eps=1e-05, momentum=0.1, affine=True, track_running_stats=True)\n  (2): Swish()\n  (3): Conv2d(240, 240, kernel_size=(5, 5), stride=(1, 1), padding=(2, 2), groups=240, bias=False)\n  (4): BatchNorm2d(240, eps=1e-05, momentum=0.1, affine=True, track_running_stats=True)\n  (5): Swish()\n  (6): SqueezeExcitation(\n    (se): Sequential(\n      (0): AdaptiveAvgPool2d(output_size=1)\n      (1): Conv2d(240, 10, kernel_size=(1, 1), stride=(1, 1))\n      (2): Swish()\n      (3): Conv2d(10, 240, kernel_size=(1, 1), stride=(1, 1))\n      (4): Sigmoid()\n    )\n  )\n  (7): Conv2d(240, 40, kernel_size=(1, 1), stride=(1, 1), bias=False)\n  (8): BatchNorm2d(40, eps=1e-05, momentum=0.1, affine=True, track_running_stats=True)\n)",
                "input_shape": [
                    1,
                    40,
                    28,
                    28
                ],
                "output_shape": [
                    1,
                    40,
                    28,
                    28
                ]
            },
            {
                "name": "blocks.4.block.0",
…
                "config": "Dropout2d(p=0.0, inplace=False)",
                "input_shape": [
                    1,
                    40,
                    28,
                    28
                ],
                "output_shape": [
                    1,
                    40,
                    28,
                    28
                ]
            },
            {
                "name": "blocks.5",
                "type": "MBConvBlock",
                "parameters": 0,
                "trainable_parameters": 0,
                "config": "MBConvBlock(\n  (block): Sequential(\n    (0): Conv2d(40, 240, kernel_size=(1, 1), stride=(1, 1), bias=False)\n    (1): BatchNorm2d(240, eps=1e-05, momentum=0.1, affine=True, track_running_stats=True)\n    (2): Swish()\n    (3): Conv2d(240, 240, kernel_size=(3, 3), stride=(2, 2), padding=(1, 1), groups=240, bias=False)\n    (4): BatchNorm2d(240, eps=1e-05, momentum=0.1, affine=True, track_running_stats=True)\n    (5): Swish()\n    (6): SqueezeExcitation(\n      (se): Sequential(\n        (0): AdaptiveAvgPool2d(output_size=1)\n        (1): Conv2d(240, 10, kernel_size=(1, 1), stride=(1, 1))\n        (2): Swish()\n        (3): Conv2d(10, 240, kernel_size=(1, 1), stride=(1, 1))\n        (4): Sigmoid()\n      )\n    )\n    (7): Conv2d(240, 80, kernel_size=(1, 1), stride=(1, 1), bias=False)\n    (8): BatchNorm2d(80, eps=1e-05, momentum=0.1, affine=True, track_running_stats=True)\n  )\n  (dropout): Dropout2d(p=0.0, inplace=False)\n)",
                "input_shape": [
                    1,
                    40,
                    28,
                    28
                ],
                "output_shape": [
                    1,
                    80,
                    14,
                    14
                ]
            },
            {
                "name": "blocks.5.block",
                "type": "Sequential",
                "parameters": 0,
                "trainable_parameters": 0,
                "config": "Sequential(\n  (0): Conv2d(40, 240, kernel_size=(1, 1), stride=(1, 1), bias=False)\n  (1): BatchNorm2d(240, eps=1e-05, momentum=0.1, affine=True, track_running_stats=True)\n  (2): Swish()\n  (3): Conv2d(240, 240, kernel_size=(3, 3), stride=(2, 2), padding=(1, 1), groups=240, bias=False)\n  (4): BatchNorm2d(240, eps=1e-05, momentum=0.1, affine=True, track_running_stats=True)\n  (5): Swish()\n  (6): SqueezeExcitation(\n    (se): Sequential(\n      (0): AdaptiveAvgPool2d(output_size=1)\n      (1): Conv2d(240, 10, kernel_size=(1, 1), stride=(1, 1))\n      (2): Swish()\n      (3): Conv2d(10, 240, kernel_size=(1, 1), stride=(1, 1))\n      (4): Sigmoid()\n    )\n  )\n  (7): Conv2d(240, 80, kernel_size=(1, 1), stride=(1, 1), bias=False)\n  (8): BatchNorm2d(80, eps=1e-05, momentum=0.1, affine=True, track_running_stats=True)\n)",
                "input_shape": [
                    1,
                    40,
                    28,
                    28
                ],
                "output_shape": [
                    1,
                    80,
                    14,
                    14
                ]
            },
            {
                "name": "blocks.5.block.0",
…
                    14
                ]
            },
            {
                "name": "blocks.5.dropout",
                "type": "Dropout2d",
                "parameters": 0,
                "trainable_parameters": 0,
                "config": "Dropout2d(p=0.0, inplace=False)",
                "input_shape": null,
                "output_shape": null
            },
            {
                "name": "blocks.6",
                "type": "MBConvBlock",
                "parameters": 0,
                "trainable_parameters": 0,
                "config": "MBConvBlock(\n  (block): Sequential(\n    (0): Conv2d(80, 480, kernel_size=(1, 1), stride=(1, 1), bias=False)\n    (1): BatchNorm2d(480, eps=1e-05, momentum=0.1, affine=True, track_running_stats=True)\n    (2): Swish()\n    (3): Conv2d(480, 480, kernel_size=(3, 3), stride=(1, 1), padding=(1, 1), groups=480, bias=False)\n    (4): BatchNorm2d(480, eps=1e-05, momentum=0.1, affine=True, track_running_stats=True)\n    (5): Swish()\n    (6): SqueezeExcitation(\n      (se): Sequential(\n        (0): AdaptiveAvgPool2d(output_size=1)\n        (1): Conv2d(480, 20, kernel_size=(1, 1), stride=(1, 1))\n        (2): Swish()\n        (3): Conv2d(20, 480, kernel_size=(1, 1), stride=(1, 1))\n        (4): Sigmoid()\n      )\n    )\n    (7): Conv2d(480, 80, kernel_size=(1, 1), stride=(1, 1), bias=False)\n    (8): BatchNorm2d(80, eps=1e-05, momentum=0.1, affine=True, track_running_stats=True)\n  )\n  (dropout): Dropout2d(p=0.0, inplace=False)\n)",
                "input_shape": [
                    1,
                    80,
                    14,
                    14
                ],
                "output_shape": [
                    1,
                    80,
                    14,
                    14
                ]
            },
            {
                "name": "blocks.6.block",
                "type": "Sequential",
                "parameters": 0,
                "trainable_parameters": 0,
                "config": "Sequential(\n  (0): Conv2d(80, 480, kernel_size=(1, 1), stride=(1, 1), bias=False)\n  (1): BatchNorm2d(480, eps=1e-05, momentum=0.1, affine=True, track_running_stats=True)\n  (2): Swish()\n  (3): Conv2d(480, 480, kernel_size=(3, 3), stride=(1, 1), padding=(1, 1), groups=480, bias=False)\n  (4): BatchNorm2d(480, eps=1e-05, momentum=0.1, affine=True, track_running_stats=True)\n  (5): Swish()\n  (6): SqueezeExcitation(\n    (se): Sequential(\n      (0): AdaptiveAvgPool2d(output_size=1)\n      (1): Conv2d(480, 20, kernel_size=(1, 1), stride=(1, 1))\n      (2): Swish()\n      (3): Conv2d(20, 480, kernel_size=(1, 1), stride=(1, 1))\n      (4): Sigmoid()\n    )\n  )\n  (7): Conv2d(480, 80, kernel_size=(1, 1), stride=(1, 1), bias=False)\n  (8): BatchNorm2d(80, eps=1e-05, momentum=0.1, affine=True, track_running_stats=True)\n)",
                "input_shape": [
                    1,
                    80,
                    14,
                    14
                ],
                "output_shape": [
                    1,
                    80,
                    14,
                    14
                ]
            },
            {
                "name": "blocks.6.block.0",
…
                "config": "Dropout2d(p=0.0, inplace=False)",
                "input_shape": [
                    1,
                    80,
                    14,
                    14
                ],
                "output_shape": [
                    1,
                    80,
                    14,
                    14
                ]
            },
            {
                "name": "blocks.8",
                "type": "MBConvBlock",
                "parameters": 0,
                "trainable_parameters": 0,
                "config": "MBConvBlock(\n  (block): Sequential(\n    (0): Conv2d(80, 480, kernel_size=(1, 1), stride=(1, 1), bias=False)\n    (1): BatchNorm2d(480, eps=1e-05, momentum=0.1, affine=True, track_running_stats=True)\n    (2): Swish()\n    (3): Conv2d(480, 480, kernel_size=(5, 5), stride=(1, 1), padding=(2, 2), groups=480, bias=False)\n    (4): BatchNorm2d(480, eps=1e-05, momentum=0.1, affine=True, track_running_stats=True)\n    (5): Swish()\n    (6): SqueezeExcitation(\n      (se): Sequential(\n        (0): AdaptiveAvgPool2d(output_size=1)\n        (1): Conv2d(480, 20, kernel_size=(1, 1), stride=(1, 1))\n        (2): Swish()\n        (3): Conv2d(20, 480, kernel_size=(1, 1), stride=(1, 1))\n        (4): Sigmoid()\n      )\n    )\n    (7): Conv2d(480, 112, kernel_size=(1, 1), stride=(1, 1), bias=False)\n    (8): BatchNorm2d(112, eps=1e-05, momentum=0.1, affine=True, track_running_stats=True)\n  )\n  (dropout): Dropout2d(p=0.0, inplace=False)\n)",
                "input_shape": [
                    1,
                    80,
                    14,
                    14
                ],
                "output_shape": [
                    1,
                    112,
                    14,
                    14
                ]
            },
            {
                "name": "blocks.8.block",
                "type": "Sequential",
                "parameters": 0,
                "trainable_parameters": 0,
                "config": "Sequential(\n  (0): Conv2d(80, 480, kernel_size=(1, 1), stride=(1, 1), bias=False)\n  (1): BatchNorm2d(480, eps=1e-05, momentum=0.1, affine=True, track_running_stats=True)\n  (2): Swish()\n  (3): Conv2d(480, 480, kernel_size=(5, 5), stride=(1, 1), padding=(2, 2), groups=480, bias=False)\n  (4): BatchNorm2d(480, eps=1e-05, momentum=0.1, affine=True, track_running_stats=True)\n  (5): Swish()\n  (6): SqueezeExcitation(\n    (se): Sequential(\n      (0): AdaptiveAvgPool2d(output_size=1)\n      (1): Conv2d(480, 20, kernel_size=(1, 1), stride=(1, 1))\n      (2): Swish()\n      (3): Conv2d(20, 480, kernel_size=(1, 1), stride=(1, 1))\n      (4): Sigmoid()\n    )\n  )\n  (7): Conv2d(480, 112, kernel_size=(1, 1), stride=(1, 1), bias=False)\n  (8): BatchNorm2d(112, eps=1e-05, momentum=0.1, affine=True, track_running_stats=True)\n)",
                "input_shape": [
                    1,
                    80,
                    14,
                    14
                ],
                "output_shape": [
                    1,
                    112,
                    14,
                    14
                ]
            },
            {
                "name": "blocks.8.block.0",
…
                    14
                ]
            },
            {
                "name": "blocks.8.dropout",
                "type": "Dropout2d",
                "parameters": 0,
                "trainable_parameters": 0,
                "config": "Dropout2d(p=0.0, inplace=False)",
                "input_shape": null,
                "output_shape": null
            },
            {
                "name": "blocks.9",
                "type": "MBConvBlock",
                "parameters": 0,
                "trainable_parameters": 0,
                "config": "MBConvBlock(\n  (block): Sequential(\n    (0): Conv2d(112, 672, kernel_size=(1, 1), stride=(1, 1), bias=False)\n    (1): BatchNorm2d(672, eps=1e-05, momentum=0.1, affine=True, track_running_stats=True)\n    (2): Swish()\n    (3): Conv2d(672, 672, kernel_size=(5, 5), stride=(1, 1), padding=(2, 2), groups=672, bias=False)\n    (4): BatchNorm2d(672, eps=1e-05, momentum=0.1, affine=True, track_running_stats=True)\n    (5): Swish()\n    (6): SqueezeExcitation(\n      (se): Sequential(\n        (0): AdaptiveAvgPool2d(output_size=1)\n        (1): Conv2d(672, 28, kernel_size=(1, 1), stride=(1, 1))\n        (2): Swish()\n        (3): Conv2d(28, 672, kernel_size=(1, 1), stride=(1, 1))\n        (4): Sigmoid()\n      )\n    )\n    (7): Conv2d(672, 112, kernel_size=(1, 1), stride=(1, 1), bias=False)\n    (8): BatchNorm2d(112, eps=1e-05, momentum=0.1, affine=True, track_running_stats=True)\n  )\n  (dropout): Dropout2d(p=0.0, inplace=False)\n)",
                "input_shape": [
                    1,
                    112,
                    14,
                    14
                ],
                "output_shape": [
                    1,
                    112,
                    14,
                    14
                ]
            },
            {
                "name": "blocks.9.block",
                "type": "Sequential",
                "parameters": 0,
                "trainable_parameters": 0,
                "config": "Sequential(\n  (0): Conv2d(112, 672, kernel_size=(1, 1), stride=(1, 1), bias=False)\n  (1): BatchNorm2d(672, eps=1e-05, momentum=0.1, affine=True, track_running_stats=True)\n  (2): Swish()\n  (3): Conv2d(672, 672, kernel_size=(5, 5), stride=(1, 1), padding=(2, 2), groups=672, bias=False)\n  (4): BatchNorm2d(672, eps=1e-05, momentum=0.1, affine=True, track_running_stats=True)\n  (5): Swish()\n  (6): SqueezeExcitation(\n    (se): Sequential(\n      (0): AdaptiveAvgPool2d(output_size=1)\n      (1): Conv2d(672, 28, kernel_size=(1, 1), stride=(1, 1))\n      (2): Swish()\n      (3): Conv2d(28, 672, kernel_size=(1, 1), stride=(1, 1))\n      (4): Sigmoid()\n    )\n  )\n  (7): Conv2d(672, 112, kernel_size=(1, 1), stride=(1, 1), bias=False)\n  (8): BatchNorm2d(112, eps=1e-05, momentum=0.1, affine=True, track_running_stats=True)\n)",
                "input_shape": [
                    1,
                    112,
                    14,
                    14
                ],
                "output_shape": [
                    1,
                    112,
                    14,
                    14
                ]
            },
            {
                "name": "blocks.9.block.0",
…
                "config": "Dropout2d(p=0.0, inplace=False)",
                "input_shape": [
                    1,
                    112,
                    14,
                    14
                ],
                "output_shape": [
                    1,
                    112,
                    14,
                    14
                ]
            },
            {
                "name": "blocks.10",
                "type": "MBConvBlock",
                "parameters": 0,
                "trainable_parameters": 0,
                "config": "MBConvBlock(\n  (block): Sequential(\n    (0): Conv2d(112, 672, kernel_size=(1, 1), stride=(1, 1), bias=False)\n    (1): BatchNorm2d(672, eps=1e-05, momentum=0.1, affine=True, track_running_stats=True)\n    (2): Swish()\n    (3): Conv2d(672, 672, kernel_size=(5, 5), stride=(2, 2), padding=(2, 2), groups=672, bias=False)\n    (4): BatchNorm2d(672, eps=1e-05, momentum=0.1, affine=True, track_running_stats=True)\n    (5): Swish()\n    (6): SqueezeExcitation(\n      (se): Sequential(\n        (0): AdaptiveAvgPool2d(output_size=1)\n        (1): Conv2d(672, 28, kernel_size=(1, 1), stride=(1, 1))\n        (2): Swish()\n        (3): Conv2d(28, 672, kernel_size=(1, 1), stride=(1, 1))\n        (4): Sigmoid()\n      )\n    )\n    (7): Conv2d(672, 192, kernel_size=(1, 1), stride=(1, 1), bias=False)\n    (8): BatchNorm2d(192, eps=1e-05, momentum=0.1, affine=True, track_running_stats=True)\n  )\n  (dropout): Dropout2d(p=0.0, inplace=False)\n)",
                "input_shape": [
                    1,
                    112,
                    14,
                    14
                ],
                "output_shape": [
                    1,
                    192,
                    7,
                    7
                ]
            },
            {
                "name": "blocks.10.block",
                "type": "Sequential",
                "parameters": 0,
                "trainable_parameters": 0,
                "config": "Sequential(\n  (0): Conv2d(112, 672, kernel_size=(1, 1), stride=(1, 1), bias=False)\n  (1): BatchNorm2d(672, eps=1e-05, momentum=0.1, affine=True, track_running_stats=True)\n  (2): Swish()\n  (3): Conv2d(672, 672, kernel_size=(5, 5), stride=(2, 2), padding=(2, 2), groups=672, bias=False)\n  (4): BatchNorm2d(672, eps=1e-05, momentum=0.1, affine=True, track_running_stats=True)\n  (5): Swish()\n  (6): SqueezeExcitation(\n    (se): Sequential(\n      (0): AdaptiveAvgPool2d(output_size=1)\n      (1): Conv2d(672, 28, kernel_size=(1, 1), stride=(1, 1))\n      (2): Swish()\n      (3): Conv2d(28, 672, kernel_size=(1, 1), stride=(1, 1))\n      (4): Sigmoid()\n    )\n  )\n  (7): Conv2d(672, 192, kernel_size=(1, 1), stride=(1, 1), bias=False)\n  (8): BatchNorm2d(192, eps=1e-05, momentum=0.1, affine=True, track_running_stats=True)\n)",
                "input_shape": [
                    1,
                    112,
                    14,
                    14
                ],
                "output_shape": [
                    1,
                    192,
                    7,
                    7
                ]
            },
            {
                "name": "blocks.10.block.0",
…
                    7
                ]
            },
            {
                "name": "blocks.10.dropout",
                "type": "Dropout2d",
                "parameters": 0,
                "trainable_parameters": 0,
                "config": "Dropout2d(p=0.0, inplace=False)",
                "input_shape": null,
                "output_shape": null
            },
            {
                "name": "blocks.11",
                "type": "MBConvBlock",
                "parameters": 0,
                "trainable_parameters": 0,
                "config": "MBConvBlock(\n  (block): Sequential(\n    (0): Conv2d(192, 1152, kernel_size=(1, 1), stride=(1, 1), bias=False)\n    (1): BatchNorm2d(1152, eps=1e-05, momentum=0.1, affine=True, track_running_stats=True)\n    (2): Swish()\n    (3): Conv2d(1152, 1152, kernel_size=(5, 5), stride=(1, 1), padding=(2, 2), groups=1152, bias=False)\n    (4): BatchNorm2d(1152, eps=1e-05, momentum=0.1, affine=True, track_running_stats=True)\n    (5): Swish()\n    (6): SqueezeExcitation(\n      (se): Sequential(\n        (0): AdaptiveAvgPool2d(output_size=1)\n        (1): Conv2d(1152, 48, kernel_size=(1, 1), stride=(1, 1))\n        (2): Swish()\n        (3): Conv2d(48, 1152, kernel_size=(1, 1), stride=(1, 1))\n        (4): Sigmoid()\n      )\n    )\n    (7): Conv2d(1152, 192, kernel_size=(1, 1), stride=(1, 1), bias=False)\n    (8): BatchNorm2d(192, eps=1e-05, momentum=0.1, affine=True, track_running_stats=True)\n  )\n  (dropout): Dropout2d(p=0.0, inplace=False)\n)",
                "input_shape": [
                    1,
                    192,
                    7,
                    7
                ],
                "output_shape": [
                    1,
                    192,
                    7,
                    7
                ]
            },
            {
                "name": "blocks.11.block",
                "type": "Sequential",
                "parameters": 0,
                "trainable_parameters": 0,
                "config": "Sequential(\n  (0): Conv2d(192, 1152, kernel_size=(1, 1), stride=(1, 1), bias=False)\n  (1): BatchNorm2d(1152, eps=1e-05, momentum=0.1, affine=True, track_running_stats=True)\n  (2): Swish()\n  (3): Conv2d(1152, 1152, kernel_size=(5, 5), stride=(1, 1), padding=(2, 2), groups=1152, bias=False)\n  (4): BatchNorm2d(1152, eps=1e-05, momentum=0.1, affine=True, track_running_stats=True)\n  (5): Swish()\n  (6): SqueezeExcitation(\n    (se): Sequential(\n      (0): AdaptiveAvgPool2d(output_size=1)\n      (1): Conv2d(1152, 48, kernel_size=(1, 1), stride=(1, 1))\n      (2): Swish()\n      (3): Conv2d(48, 1152, kernel_size=(1, 1), stride=(1, 1))\n      (4): Sigmoid()\n    )\n  )\n  (7): Conv2d(1152, 192, kernel_size=(1, 1), stride=(1, 1), bias=False)\n  (8): BatchNorm2d(192, eps=1e-05, momentum=0.1, affine=True, track_running_stats=True)\n)",
                "input_shape": [
                    1,
                    192,
                    7,
                    7
                ],
                "output_shape": [
                    1,
                    192,
                    7,
                    7
                ]
            },
            {
                "name": "blocks.11.block.0",
…
                "config": "Dropout2d(p=0.0, inplace=False)",
                "input_shape": [
                    1,
                    192,
                    7,
                    7
                ],
                "output_shape": [
                    1,
                    192,
                    7,
                    7
                ]
            },
            {
                "name": "blocks.13",
                "type": "MBConvBlock",
                "parameters": 0,
                "trainable_parameters": 0,
                "config": "MBConvBlock(\n  (block): Sequential(\n    (0): Conv2d(192, 1152, kernel_size=(1, 1), stride=(1, 1), bias=False)\n    (1): BatchNorm2d(1152, eps=1e-05, momentum=0.1, affine=True, track_running_stats=True)\n    (2): Swish()\n    (3): Conv2d(1152, 1152, kernel_size=(3, 3), stride=(1, 1), padding=(1, 1), groups=1152, bias=False)\n    (4): BatchNorm2d(1152, eps=1e-05, momentum=0.1, affine=True, track_running_stats=True)\n    (5): Swish()\n    (6): SqueezeExcitation(\n      (se): Sequential(\n        (0): AdaptiveAvgPool2d(output_size=1)\n        (1): Conv2d(1152, 48, kernel_size=(1, 1), stride=(1, 1))\n        (2): Swish()\n        (3): Conv2d(48, 1152, kernel_size=(1, 1), stride=(1, 1))\n        (4): Sigmoid()\n      )\n    )\n    (7): Conv2d(1152, 320, kernel_size=(1, 1), stride=(1, 1), bias=False)\n    (8): BatchNorm2d(320, eps=1e-05, momentum=0.1, affine=True, track_running_stats=True)\n  )\n  (dropout): Dropout2d(p=0.0, inplace=False)\n)",
                "input_shape": [
                    1,
                    192,
                    7,
                    7
                ],
                "output_shape": [
                    1,
                    320,
                    7,
                    7
                ]
            },
            {
                "name": "blocks.13.block",
                "type": "Sequential",
                "parameters": 0,
                "trainable_parameters": 0,
                "config": "Sequential(\n  (0): Conv2d(192, 1152, kernel_size=(1, 1), stride=(1, 1), bias=False)\n  (1): BatchNorm2d(1152, eps=1e-05, momentum=0.1, affine=True, track_running_stats=True)\n  (2): Swish()\n  (3): Conv2d(1152, 1152, kernel_size=(3, 3), stride=(1, 1), padding=(1, 1), groups=1152, bias=False)\n  (4): BatchNorm2d(1152, eps=1e-05, momentum=0.1, affine=True, track_running_stats=True)\n  (5): Swish()\n  (6): SqueezeExcitation(\n    (se): Sequential(\n      (0): AdaptiveAvgPool2d(output_size=1)\n      (1): Conv2d(1152, 48, kernel_size=(1, 1), stride=(1, 1))\n      (2): Swish()\n      (3): Conv2d(48, 1152, kernel_size=(1, 1), stride=(1, 1))\n      (4): Sigmoid()\n    )\n  )\n  (7): Conv2d(1152, 320, kernel_size=(1, 1), stride=(1, 1), bias=False)\n  (8): BatchNorm2d(320, eps=1e-05, momentum=0.1, affine=True, track_running_stats=True)\n)",
                "input_shape": [
                    1,
                    192,
                    7,
                    7
                ],
                "output_shape": [
                    1,
                    320,
                    7,
                    7
                ]
            },
            {
                "name": "blocks.13.block.0",
…
