{
    "model_info": {
        "model_name": "EfficientNetB3",
        "architecture": "EfficientNetB3(\n  (features): Sequential(\n    (0): Conv2dNormActivation(\n      (0): Conv2d(3, 40, kernel_size=(3, 3), stride=(2, 2), padding=(1, 1), bias=False)\n      (1): BatchNorm2d(40, eps=1e-05, momentum=0.1, affine=True, track_running_stats=True)\n      (2): SiLU(inplace=True)\n    )\n    (1): Sequential(\n      (0): MBConv(\n        (block): Sequential(\n          (0): Conv2dNormActivation(\n            (0): Conv2d(40, 40, kernel_size=(3, 3), stride=(1, 1), padding=(1, 1), groups=40, bias=False)\n            (1): BatchNorm2d(40, eps=1e-05, momentum=0.1, affine=True, track_running_stats=True)\n            (2): SiLU(inplace=True)\n          )\n          (1): SqueezeExcitation(\n            (avgpool): AdaptiveAvgPool2d(output_size=1)\n            (fc1): Conv2d(40, 10, kernel_size=(1, 1), stride=(1, 1))\n            (fc2): Conv2d(10, 40, kernel_size=(1, 1), stride=(1, 1))\n            (activation): SiLU(inplace=True)\n            (scale_activation): Sigmoid()\n          )\n          (2): Conv2dNormActivation(\n            (0): Conv2d(40, 24, kernel_size=(1, 1), stride=(1, 1), bias=False)\n            (1): BatchNorm2d(24, eps=1e-05, momentum=0.1, affine=True, track_running_stats=True)\n          )\n        )\n        (stochastic_depth): StochasticDepth(p=0.0, mode=row)\n      )\n      (1): MBConv(\n        (block): Sequential(\n          (0): Conv2dNormActivation(\n            (0): Conv2d(24, 24, kernel_size=(3, 3), stride=(1, 1), padding=(1, 1), groups=24, bias=False)\n            (1): BatchNorm2d(24, eps=1e-05, momentum=0.1, affine=True, track_running_stats=True)\n            (2): SiLU(inplace=True)\n          )\n          (1): SqueezeExcitation(\n            (avgpool): AdaptiveAvgPool2d(output_size=1)\n            (fc1): Conv2d(24, 6, kernel_size=(1, 1), stride=(1, 1))\n            (fc2): Conv2d(6, 24, kernel_size=(1, 1), stride=(1, 1))\n            (activation): SiLU(inplace=True)\n            (scale_activation): Sigmoid()\n          )\n          (2): Conv2dNormActivation(\n            (0): Conv2d(24, 24, kernel_size=(1, 1), stride=(1, 1), bias=False)\n            (1): BatchNorm2d(24, eps=1e-05, momentum=0.1, affine=True, track_running_stats=True)\n          )\n        )\n        (stochastic_depth): StochasticDepth(p=0.007692307692307693, mode=row)\n      )\n    )\n    (2): Sequential(\n      (0): MBConv(\n        (block): Sequential(\n          (0): Conv2dNormActivation(\n            (0): Conv2d(24, 144, kernel_size=(1, 1), stride=(1, 1), bias=False)\n            (1): BatchNorm2d(144, eps=1e-05, momentum=0.1, affine=True, track_running_stats=True)\n            (2): SiLU(inplace=True)\n          )\n          (1): Conv2dNormActivation(\n            (0): Conv2d(144, 144, kernel_size=(3, 3), stride=(2, 2), padding=(1, 1), groups=144, bias=False)\n            (1): BatchNorm2d(144, eps=1e-05, momentum=0.1, affine=True, track_running_stats=True)\n            (2): SiLU(inplace=True)\n          )\n          (2): SqueezeExcitation(\n            (avgpool): AdaptiveAvgPool2d(output_size=1)\n            (fc1): Conv2d(144, 6, kernel_size=(1, 1), stride=(1, 1))\n            (fc2): Conv2d(6, 144, kernel_size=(1, 1), stride=(1, 1))\n            (activation): SiLU(inplace=True)\n            (scale_activation): Sigmoid()\n          )\n          (3): Conv2dNormActivation(\n            (0): Conv2d(144, 32, kernel_size=(1, 1), stride=(1, 1), bias=False)\n            (1): BatchNorm2d(32, eps=1e-05, momentum=0.1, affine=True, track_running_stats=True)\n          )\n        )\n        (stochastic_depth): StochasticDepth(p=0.015384615384615385, mode=row)\n      )\n      (1): MBConv(\n        (block): Sequential(\n          (0): Conv2dNormActivation(\n            (0): Conv2d(32, 192, kernel_size=(1, 1), stride=(1, 1), bias=False)\n            (1): BatchNorm2d(192, eps=1e-05, momentum=0.1, affine=True, track_running_stats=True)\n            (2): SiLU(inplace=True)\n          )\n          (1): Conv2dNormActivation(\n            (0): Conv2d(192, 192, kernel_size=(3, 3), stride=(1, 1), padding=(1, 1), groups=192, bias=False)\n            (1): BatchNorm2d(192, eps=1e-05, momentum=0.1, affine=True, track_running_stats=True)\n            (2): SiLU(inplace=True)\n          )\n          (2): SqueezeExcitation(\n            (avgpool): AdaptiveAvgPool2d(output_size=1)\n            (fc1): Conv2d(192, 8, kernel_size=(1, 1), stride=(1, 1))\n            (fc2): Conv2d(8, 192, kernel_size=(1, 1), stride=(1, 1))\n            (activation): SiLU(inplace=True)\n            (scale_activation): Sigmoid()\n          )\n          (3): Conv2dNormActivation(\n            (0): Conv2d(192, 32, kernel_size=(1, 1), stride=(1, 1), bias=False)\n            (1): BatchNorm2d(32, eps=1e-05, momentum=0.1, affine=True, track_running_stats=True)\n          )\n        )\n        (stochastic_depth): StochasticDepth(p=0.02307692307692308, mode=row)\n      )\n      (2): MBConv(\n        (block): Sequential(\n          (0): Conv2dNormActivation(\n            (0): Conv2d(32, 192, kernel_size=(1, 1), stride=(1, 1), bias=False)\n            (1): BatchNorm2d(192, eps=1e-05, momentum=0.1, affine=True, track_running_stats=True)\n            (2): SiLU(inplace=True)\n          )\n          (1): Conv2dNormActivation(\n            (0): Conv2d(192, 192, kernel_size=(3, 3), stride=(1, 1), padding=(1, 1), groups=192, bias=False)\n            (1): BatchNorm2d(192, eps=1e-05, momentum=0.1, affine=True, track_running_stats=True)\n            (2): SiLU(inplace=True)\n          )\n          (2): SqueezeExcitation(\n            (avgpool): AdaptiveAvgPool2d(output_size=1)\n            (fc1): Conv2d(192, 8, kernel_size=(1, 1), stride=(1, 1))\n            (fc2): Conv2d(8, 192, kernel_size=(1, 1), stride=(1, 1))\n            (activation): SiLU(inplace=True)\n            (scale_activation): Sigmoid()\n          )\n          (3): Conv2dNormActivation(\n            (0): Conv2d(192, 32, kernel_size=(1, 1), stride=(1, 1), bias=False)\n            (1): BatchNorm2d(32, eps=1e-05, momentum=0.1, affine=True, track_running_stats=True)\n          )\n        )\n        (stochastic_depth): StochasticDepth(p=0.03076923076923077, mode=row)\n      )\n    )\n    (3): Sequential(\n      (0): MBConv(\n        (block): Sequential(\n          (0): Conv2dNormActivation(\n            (0): Conv2d(32, 192, kernel_size=(1, 1), stride=(1, 1), bias=False)\n            (1): BatchNorm2d(192, eps=1e-05, momentum=0.1, affine=True, track_running_stats=True)\n            (2): SiLU(inplace=True)\n          )\n          (1): Conv2dNormActivation(\n            (0): Conv2d(192, 192, kernel_size=(5, 5), stride=(2, 2), padding=(2, 2), groups=192, bias=False)\n            (1): BatchNorm2d(192, eps=1e-05, momentum=0.1, affine=True, track_running_stats=True)\n            (2): SiLU(inplace=True)\n          )\n          (2): SqueezeExcitation(\n            (avgpool): AdaptiveAvgPool2d(output_size=1)\n            (fc1): Conv2d(192, 8, kernel_size=(1, 1), stride=(1, 1))\n            (fc2): Conv2d(8, 192, kernel_size=(1, 1), stride=(1, 1))\n            (activation): SiLU(inplace=True)\n            (scale_activation): Sigmoid()\n          )\n          (3): Conv2dNormActivation(\n            (0): Conv2d(192, 48, kernel_size=(1, 1), stride=(1, 1), bias=False)\n            (1): BatchNorm2d(48, eps=1e-05, momentum=0.1, affine=True, track_running_stats=True)\n          )\n        )\n        (stochastic_depth): StochasticDepth(p=0.038461538461538464, mode=row)\n      )\n      (1): MBConv(\n        (block): Sequential(\n          (0): Conv2dNormActivation(\n            (0): Conv2d(48, 288, kernel_size=(1, 1), stride=(1, 1), bias=False)\n            (1): BatchNorm2d(288, eps=1e-05, momentum=0.1, affine=True, track_running_stats=True)\n            (2): SiLU(inplace=True)\n          )\n          (1): Conv2dNormActivation(\n            (0): Conv2d(288, 288, kernel_size=(5, 5), stride=(1, 1), padding=(2, 2), groups=288, bias=False)\n            (1): BatchNorm2d(288, eps=1e-05, momentum=0.1, affine=True, track_running_stats=True)\n            (2): SiLU(inplace=True)\n          )\n          (2): SqueezeExcitation(\n            (avgpool): AdaptiveAvgPool2d(output_size=1)\n            (fc1): Conv2d(288, 12, kernel_size=(1, 1), stride=(1, 1))\n            (fc2): Conv2d(12, 288, kernel_size=(1, 1), stride=(1, 1))\n            (activation): SiLU(inplace=True)\n            (scale_activation): Sigmoid()\n          )\n          (3): Conv2dNormActivation(\n            (0): Conv2d(288, 48, kernel_size=(1, 1), stride=(1, 1), bias=False)\n            (1): BatchNorm2d(48, eps=1e-05, momentum=0.1, affine=True, track_running_stats=True)\n          )\n        )\n        (stochastic_depth): StochasticDepth(p=0.04615384615384616, mode=row)\n      )\n      (2): MBConv(\n        (block): Sequential(\n          (0): Conv2dNormActivation(\n            (0): Conv2d(48, 288, kernel_size=(1, 1), stride=(1, 1), bias=False)\n            (1): BatchNorm2d(288, eps=1e-05, momentum=0.1, affine=True, track_running_stats=True)\n            (2): SiLU(inplace=True)\n          )\n          (1): Conv2dNormActivation(\n            (0): Conv2d(288, 288, kernel_size=(5, 5), stride=(1, 1), padding=(2, 2), groups=288, bias=False)\n            (1): BatchNorm2d(288, eps=1e-05, momentum=0.1, affine=True, track_running_stats=True)\n            (2): SiLU(inplace=True)\n          )\n          (2): SqueezeExcitation(\n            (avgpool): AdaptiveAvgPool2d(output_size=1)\n            (fc1): Conv2d(288, 12, kernel_size=(1, 1), stride=(1, 1))\n            (fc2): Conv2d(12, 288, kernel_size=(1, 1), stride=(1, 1))\n            (activation): SiLU(inplace=True)\n            (scale_activation): Sigmoid()\n          )\n          (3): Conv2dNormActivation(\n            (0): Conv2d(288, 48, kernel_size=(1, 1), stride=(1, 1), bias=False)\n            (1): BatchNorm2d(48, eps=1e-05, momentum=0.1, affine=True, track_running_stats=True)\n          )\n        )\n        (stochastic_depth): StochasticDepth(p=0.05384615384615385, mode=row)\n      )\n    )\n    (4): Sequential(\n      (0): MBConv(\n        (block): Sequential(\n          (0): Conv2dNormActivation(\n            (0): Conv2d(48, 288, kernel_size=(1, 1), stride=(1, 1), bias=False)\n            (1): BatchNorm2d(288, eps=1e-05, momentum=0.1, affine=True, track_running_stats=True)\n            (2): SiLU(inplace=True)\n          )\n          (1): Conv2dNormActivation(\n            (0): Conv2d(288, 288, kernel_size=(3, 3), stride=(2, 2), padding=(1, 1), groups=288, bias=False)\n            (1): BatchNorm2d(288, eps=1e-05, momentum=0.1, affine=True, track_running_stats=True)\n            (2): SiLU(inplace=True)\n          )\n          (2): SqueezeExcitation(\n            (avgpool): AdaptiveAvgPool2d(output_size=1)\n            (fc1): Conv2d(288, 12, kernel_size=(1, 1), stride=(1, 1))\n            (fc2): Conv2d(12, 288, kernel_size=(1, 1), stride=(1, 1))\n            (activation): SiLU(inplace=True)\n            (scale_activation): Sigmoid()\n          )\n          (3): Conv2dNormActivation(\n            (0): Conv2d(288, 96, kernel_size=(1, 1), stride=(1, 1), bias=False)\n            (1): BatchNorm2d(96, eps=1e-05, momentum=0.1, affine=True, track_running_stats=True)\n          )\n        )\n        (stochastic_depth): StochasticDepth(p=0.06153846153846154, mode=row)\n      )\n      (1): MBConv(\n        (block): Sequential(\n          (0): Conv2dNormActivation(\n            (0): Conv2d(96, 576, kernel_size=(1, 1), stride=(1, 1), bias=False)\n            (1): BatchNorm2d(576, eps=1e-05, momentum=0.1, affine=True, track_running_stats=True)\n            (2): SiLU(inplace=True)\n          )\n          (1): Conv2dNormActivation(\n            (0): Conv2d(576, 576, kernel_size=(3, 3), stride=(1, 1), padding=(1, 1), groups=576, bias=False)\n            (1): BatchNorm2d(576, eps=1e-05, momentum=0.1, affine=True, track_running_stats=True)\n            (2): SiLU(inplace=True)\n          )\n          (2): SqueezeExcitation(\n            (avgpool): AdaptiveAvgPool2d(output_size=1)\n            (fc1): Conv2d(576, 24, kernel_size=(1, 1), stride=(1, 1))\n            (fc2): Conv2d(24, 576, kernel_size=(1, 1), stride=(1, 1))\n            (activation): SiLU(inplace=True)\n            (scale_activation): Sigmoid()\n          )\n          (3): Conv2dNormActivation(\n            (0): Conv2d(576, 96, kernel_size=(1, 1), stride=(1, 1), bias=False)\n            (1): BatchNorm2d(96, eps=1e-05, momentum=0.1, affine=True, track_running_stats=True)\n          )\n        )\n        (stochastic_depth): StochasticDepth(p=0.06923076923076923, mode=row)\n      )\n      (2): MBConv(\n        (block): Sequential(\n          (0): Conv2dNormActivation(\n            (0): Conv2d(96, 576, kernel_size=(1, 1), stride=(1, 1), bias=False)\n            (1): BatchNorm2d(576, eps=1e-05, momentum=0.1, affine=True, track_running_stats=True)\n            (2): SiLU(inplace=True)\n          )\n          (1): Conv2dNormActivation(\n            (0): Conv2d(576, 576, kernel_size=(3, 3), stride=(1, 1), padding=(1, 1), groups=576, bias=False)\n            (1): BatchNorm2d(576, eps=1e-05, momentum=0.1, affine=True, track_running_stats=True)\n            (2): SiLU(inplace=True)\n          )\n          (2): SqueezeExcitation(\n            (avgpool): AdaptiveAvgPool2d(output_size=1)\n            (fc1): Conv2d(576, 24, kernel_size=(1, 1), stride=(1, 1))\n            (fc2): Conv2d(24, 576, kernel_size=(1, 1), stride=(1, 1))\n            (activation): SiLU(inplace=True)\n            (scale_activation): Sigmoid()\n          )\n          (3): Conv2dNormActivation(\n            (0): Conv2d(576, 96, kernel_size=(1, 1), stride=(1, 1), bias=False)\n            (1): BatchNorm2d(96, eps=1e-05, momentum=0.1, affine=True, track_running_stats=True)\n          )\n        )\n        (stochastic_depth): StochasticDepth(p=0.07692307692307693, mode=row)\n      )\n      (3): MBConv(\n        (block): Sequential(\n          (0): Conv2dNormActivation(\n            (0): Conv2d(96, 576, kernel_size=(1, 1), stride=(1, 1), bias=False)\n            (1): BatchNorm2d(576, eps=1e-05, momentum=0.1, affine=True, track_running_stats=True)\n            (2): SiLU(inplace=True)\n          )\n          (1): Conv2dNormActivation(\n            (0): Conv2d(576, 576, kernel_size=(3, 3), stride=(1, 1), padding=(1, 1), groups=576, bias=False)\n            (1): BatchNorm2d(576, eps=1e-05, momentum=0.1, affine=True, track_running_stats=True)\n            (2): SiLU(inplace=True)\n          )\n          (2): SqueezeExcitation(\n            (avgpool): AdaptiveAvgPool2d(output_size=1)\n            (fc1): Conv2d(576, 24, kernel_size=(1, 1), stride=(1, 1))\n            (fc2): Conv2d(24, 576, kernel_size=(1, 1), stride=(1, 1))\n            (activation): SiLU(inplace=True)\n            (scale_activation): Sigmoid()\n          )\n          (3): Conv2dNormActivation(\n            (0): Conv2d(576, 96, kernel_size=(1, 1), stride=(1, 1), bias=False)\n            (1): BatchNorm2d(96, eps=1e-05, momentum=0.1, affine=True, track_running_stats=True)\n          )\n        )\n        (stochastic_depth): StochasticDepth(p=0.08461538461538462, mode=row)\n      )\n      (4): MBConv(\n        (block): Sequential(\n          (0): Conv2dNormActivation(\n            (0): Conv2d(96, 576, kernel_size=(1, 1), stride=(1, 1), bias=False)\n            (1): BatchNorm2d(576, eps=1e-05, momentum=0.1, affine=True, track_running_stats=True)\n            (2): SiLU(inplace=True)\n          )\n          (1): Conv2dNormActivation(\n            (0): Conv2d(576, 576, kernel_size=(3, 3), stride=(1, 1), padding=(1, 1), groups=576, bias=False)\n            (1): BatchNorm2d(576, eps=1e-05, momentum=0.1, affine=True, track_running_stats=True)\n            (2): SiLU(inplace=True)\n          )\n          (2): SqueezeExcitation(\n            (avgpool): AdaptiveAvgPool2d(output_size=1)\n            (fc1): Conv2d(576, 24, kernel_size=(1, 1), stride=(1, 1))\n            (fc2): Conv2d(24, 576, kernel_size=(1, 1), stride=(1, 1))\n            (activation): SiLU(inplace=True)\n            (scale_activation): Sigmoid()\n          )\n          (3): Conv2dNormActivation(\n            (0): Conv2d(576, 96, kernel_size=(1, 1), stride=(1, 1), bias=False)\n            (1): BatchNorm2d(96, eps=1e-05, momentum=0.1, affine=True, track_running_stats=True)\n          )\n        )\n        (stochastic_depth): StochasticDepth(p=0.09230769230769233, mode=row)\n      )\n    )\n    (5): Sequential(\n      (0): MBConv(\n        (block): Sequential(\n          (0): Conv2dNormActivation(\n            (0): Conv2d(96, 576, kernel_size=(1, 1), stride=(1, 1), bias=False)\n            (1): BatchNorm2d(576, eps=1e-05, momentum=0.1, affine=True, track_running_stats=True)\n            (2): SiLU(inplace=True)\n          )\n          (1): Conv2dNormActivation(\n            (0): Conv2d(576, 576, kernel_size=(5, 5), stride=(1, 1), padding=(2, 2), groups=576, bias=False)\n            (1): BatchNorm2d(576, eps=1e-05, momentum=0.1, affine=True, track_running_stats=True)\n            (2): SiLU(inplace=True)\n          )\n          (2): SqueezeExcitation(\n            (avgpool): AdaptiveAvgPool2d(output_size=1)\n            (fc1): Conv2d(576, 24, kernel_size=(1, 1), stride=(1, 1))\n            (fc2): Conv2d(24, 576, kernel_size=(1, 1), stride=(1, 1))\n            (activation): SiLU(inplace=True)\n            (scale_activation): Sigmoid()\n          )\n          (3): Conv2dNormActivation(\n            (0): Conv2d(576, 136, kernel_size=(1, 1), stride=(1, 1), bias=False)\n            (1): BatchNorm2d(136, eps=1e-05, momentum=0.1, affine=True, track_running_stats=True)\n          )\n        )\n        (stochastic_depth): StochasticDepth(p=0.1, mode=row)\n      )\n      (1): MBConv(\n        (block): Sequential(\n          (0): Conv2dNormActivation(\n            (0): Conv2d(136, 816, kernel_size=(1, 1), stride=(1, 1), bias=False)\n            (1): BatchNorm2d(816, eps=1e-05, momentum=0.1, affine=True, track_running_stats=True)\n            (2): SiLU(inplace=True)\n          )\n          (1): Conv2dNormActivation(\n            (0): Conv2d(816, 816, kernel_size=(5, 5), stride=(1, 1), padding=(2, 2), groups=816, bias=False)\n            (1): BatchNorm2d(816, eps=1e-05, momentum=0.1, affine=True, track_running_stats=True)\n            (2): SiLU(inplace=True)\n          )\n          (2): SqueezeExcitation(\n            (avgpool): AdaptiveAvgPool2d(output_size=1)\n            (fc1): Conv2d(816, 34, kernel_size=(1, 1), stride=(1, 1))\n            (fc2): Conv2d(34, 816, kernel_size=(1, 1), stride=(1, 1))\n            (activation): SiLU(inplace=True)\n            (scale_activation): Sigmoid()\n          )\n          (3): Conv2dNormActivation(\n            (0): Conv2d(816, 136, kernel_size=(1, 1), stride=(1, 1), bias=False)\n            (1): BatchNorm2d(136, eps=1e-05, momentum=0.1, affine=True, track_running_stats=True)\n          )\n        )\n        (stochastic_depth): StochasticDepth(p=0.1076923076923077, mode=row)\n      )\n      (2): MBConv(\n        (block): Sequential(\n          (0): Conv2dNormActivation(\n            (0): Conv2d(136, 816, kernel_size=(1, 1), stride=(1, 1), bias=False)\n            (1): BatchNorm2d(816, eps=1e-05, momentum=0.1, affine=True, track_running_stats=True)\n            (2): SiLU(inplace=True)\n          )\n          (1): Conv2dNormActivation(\n            (0): Conv2d(816, 816, kernel_size=(5, 5), stride=(1, 1), padding=(2, 2), groups=816, bias=False)\n            (1): BatchNorm2d(816, eps=1e-05, momentum=0.1, affine=True, track_running_stats=True)\n            (2): SiLU(inplace=True)\n          )\n          (2): SqueezeExcitation(\n            (avgpool): AdaptiveAvgPool2d(output_size=1)\n            (fc1): Conv2d(816, 34, kernel_size=(1, 1), stride=(1, 1))\n            (fc2): Conv2d(34, 816, kernel_size=(1, 1), stride=(1, 1))\n            (activation): SiLU(inplace=True)\n            (scale_activation): Sigmoid()\n          )\n          (3): Conv2dNormActivation(\n            (0): Conv2d(816, 136, kernel_size=(1, 1), stride=(1, 1), bias=False)\n            (1): BatchNorm2d(136, eps=1e-05, momentum=0.1, affine=True, track_running_stats=True)\n          )\n        )\n        (stochastic_depth): StochasticDepth(p=0.11538461538461539, mode=row)\n      )\n      (3): MBConv(\n        (block): Sequential(\n          (0): Conv2dNormActivation(\n            (0): Conv2d(136, 816, kernel_size=(1, 1), stride=(1, 1), bias=False)\n            (1): BatchNorm2d(816, eps=1e-05, momentum=0.1, affine=True, track_running_stats=True)\n            (2): SiLU(inplace=True)\n          )\n          (1): Conv2dNormActivation(\n            (0): Conv2d(816, 816, kernel_size=(5, 5), stride=(1, 1), padding=(2, 2), groups=816, bias=False)\n            (1): BatchNorm2d(816, eps=1e-05, momentum=0.1, affine=True, track_running_stats=True)\n            (2): SiLU(inplace=True)\n          )\n          (2): SqueezeExcitation(\n            (avgpool): AdaptiveAvgPool2d(output_size=1)\n            (fc1): Conv2d(816, 34, kernel_size=(1, 1), stride=(1, 1))\n            (fc2): Conv2d(34, 816, kernel_size=(1, 1), stride=(1, 1))\n            (activation): SiLU(inplace=True)\n            (scale_activation): Sigmoid()\n          )\n          (3): Conv2dNormActivation(\n            (0): Conv2d(816, 136, kernel_size=(1, 1), stride=(1, 1), bias=False)\n            (1): BatchNorm2d(136, eps=1e-05, momentum=0.1, affine=True, track_running_stats=True)\n          )\n        )\n        (stochastic_depth): StochasticDepth(p=0.12307692307692308, mode=row)\n      )\n      (4): MBConv(\n        (block): Sequential(\n          (0): Conv2dNormActivation(\n            (0): Conv2d(136, 816, kernel_size=(1, 1), stride=(1, 1), bias=False)\n            (1): BatchNorm2d(816, eps=1e-05, momentum=0.1, affine=True, track_running_stats=True)\n            (2): SiLU(inplace=True)\n          )\n          (1): Conv2dNormActivation(\n            (0): Conv2d(816, 816, kernel_size=(5, 5), stride=(1, 1), padding=(2, 2), groups=816, bias=False)\n            (1): BatchNorm2d(816, eps=1e-05, momentum=0.1, affine=True, track_running_stats=True)\n            (2): SiLU(inplace=True)\n          )\n          (2): SqueezeExcitation(\n            (avgpool): AdaptiveAvgPool2d(output_size=1)\n            (fc1): Conv2d(816, 34, kernel_size=(1, 1), stride=(1, 1))\n            (fc2): Conv2d(34, 816, kernel_size=(1, 1), stride=(1, 1))\n            (activation): SiLU(inplace=True)\n            (scale_activation): Sigmoid()\n          )\n          (3): Conv2dNormActivation(\n            (0): Conv2d(816, 136, kernel_size=(1, 1), stride=(1, 1), bias=False)\n            (1): BatchNorm2d(136, eps=1e-05, momentum=0.1, affine=True, track_running_stats=True)\n          )\n        )\n        (stochastic_depth): StochasticDepth(p=0.13076923076923078, mode=row)\n      )\n    )\n    (6): Sequential(\n      (0): MBConv(\n        (block): Sequential(\n          (0): Conv2dNormActivation(\n            (0): Conv2d(136, 816, kernel_size=(1, 1), stride=(1, 1), bias=False)\n            (1): BatchNorm2d(816, eps=1e-05, momentum=0.1, affine=True, track_running_stats=True)\n            (2): SiLU(inplace=True)\n          )\n          (1): Conv2dNormActivation(\n            (0): Conv2d(816, 816, kernel_size=(5, 5), stride=(2, 2), padding=(2, 2), groups=816, bias=False)\n            (1): BatchNorm2d(816, eps=1e-05, momentum=0.1, affine=True, track_running_stats=True)\n            (2): SiLU(inplace=True)\n          )\n          (2): SqueezeExcitation(\n            (avgpool): AdaptiveAvgPool2d(output_size=1)\n            (fc1): Conv2d(816, 34, kernel_size=(1, 1), stride=(1, 1))\n            (fc2): Conv2d(34, 816, kernel_size=(1, 1), stride=(1, 1))\n            (activation): SiLU(inplace=True)\n            (scale_activation): Sigmoid()\n          )\n          (3): Conv2dNormActivation(\n            (0): Conv2d(816, 232, kernel_size=(1, 1), stride=(1, 1), bias=False)\n            (1): BatchNorm2d(232, eps=1e-05, momentum=0.1, affine=True, track_running_stats=True)\n          )\n        )\n        (stochastic_depth): StochasticDepth(p=0.13846153846153847, mode=row)\n      )\n      (1): MBConv(\n        (block): Sequential(\n          (0): Conv2dNormActivation(\n            (0): Conv2d(232, 1392, kernel_size=(1, 1), stride=(1, 1), bias=False)\n            (1): BatchNorm2d(1392, eps=1e-05, momentum=0.1, affine=True, track_running_stats=True)\n            (2): SiLU(inplace=True)\n          )\n          (1): Conv2dNormActivation(\n            (0): Conv2d(1392, 1392, kernel_size=(5, 5), stride=(1, 1), padding=(2, 2), groups=1392, bias=False)\n            (1): BatchNorm2d(1392, eps=1e-05, momentum=0.1, affine=True, track_running_stats=True)\n            (2): SiLU(inplace=True)\n          )\n          (2): SqueezeExcitation(\n            (avgpool): AdaptiveAvgPool2d(output_size=1)\n            (fc1): Conv2d(1392, 58, kernel_size=(1, 1), stride=(1, 1))\n            (fc2): Conv2d(58, 1392, kernel_size=(1, 1), stride=(1, 1))\n            (activation): SiLU(inplace=True)\n            (scale_activation): Sigmoid()\n          )\n          (3): Conv2dNormActivation(\n            (0): Conv2d(1392, 232, kernel_size=(1, 1), stride=(1, 1), bias=False)\n            (1): BatchNorm2d(232, eps=1e-05, momentum=0.1, affine=True, track_running_stats=True)\n          )\n        )\n        (stochastic_depth): StochasticDepth(p=0.14615384615384616, mode=row)\n      )\n      (2): MBConv(\n        (block): Sequential(\n          (0): Conv2dNormActivation(\n            (0): Conv2d(232, 1392, kernel_size=(1, 1), stride=(1, 1), bias=False)\n            (1): BatchNorm2d(1392, eps=1e-05, momentum=0.1, affine=True, track_running_stats=True)\n            (2): SiLU(inplace=True)\n          )\n          (1): Conv2dNormActivation(\n            (0): Conv2d(1392, 1392, kernel_size=(5, 5), stride=(1, 1), padding=(2, 2), groups=1392, bias=False)\n            (1): BatchNorm2d(1392, eps=1e-05, momentum=0.1, affine=True, track_running_stats=True)\n            (2): SiLU(inplace=True)\n          )\n          (2): SqueezeExcitation(\n            (avgpool): AdaptiveAvgPool2d(output_size=1)\n            (fc1): Conv2d(1392, 58, kernel_size=(1, 1), stride=(1, 1))\n            (fc2): Conv2d(58, 1392, kernel_size=(1, 1), stride=(1, 1))\n            (activation): SiLU(inplace=True)\n            (scale_activation): Sigmoid()\n          )\n          (3): Conv2dNormActivation(\n            (0): Conv2d(1392, 232, kernel_size=(1, 1), stride=(1, 1), bias=False)\n            (1): BatchNorm2d(232, eps=1e-05, momentum=0.1, affine=True, track_running_stats=True)\n          )\n        )\n        (stochastic_depth): StochasticDepth(p=0.15384615384615385, mode=row)\n      )\n      (3): MBConv(\n        (block): Sequential(\n          (0): Conv2dNormActivation(\n            (0): Conv2d(232, 1392, kernel_size=(1, 1), stride=(1, 1), bias=False)\n            (1): BatchNorm2d(1392, eps=1e-05, momentum=0.1, affine=True, track_running_stats=True)\n            (2): SiLU(inplace=True)\n          )\n          (1): Conv2dNormActivation(\n            (0): Conv2d(1392, 1392, kernel_size=(5, 5), stride=(1, 1), padding=(2, 2), groups=1392, bias=False)\n            (1): BatchNorm2d(1392, eps=1e-05, momentum=0.1, affine=True, track_running_stats=True)\n            (2): SiLU(inplace=True)\n          )\n          (2): SqueezeExcitation(\n            (avgpool): AdaptiveAvgPool2d(output_size=1)\n            (fc1): Conv2d(1392, 58, kernel_size=(1, 1), stride=(1, 1))\n            (fc2): Conv2d(58, 1392, kernel_size=(1, 1), stride=(1, 1))\n            (activation): SiLU(inplace=True)\n            (scale_activation): Sigmoid()\n          )\n          (3): Conv2dNormActivation(\n            (0): Conv2d(1392, 232, kernel_size=(1, 1), stride=(1, 1), bias=False)\n            (1): BatchNorm2d(232, eps=1e-05, momentum=0.1, affine=True, track_running_stats=True)\n          )\n        )\n        (stochastic_depth): StochasticDepth(p=0.16153846153846155, mode=row)\n      )\n      (4): MBConv(\n        (block): Sequential(\n          (0): Conv2dNormActivation(\n            (0): Conv2d(232, 1392, kernel_size=(1, 1), stride=(1, 1), bias=False)\n            (1): BatchNorm2d(1392, eps=1e-05, momentum=0.1, affine=True, track_running_stats=True)\n            (2): SiLU(inplace=True)\n          )\n          (1): Conv2dNormActivation(\n            (0): Conv2d(1392, 1392, kernel_size=(5, 5), stride=(1, 1), padding=(2, 2), groups=1392, bias=False)\n            (1): BatchNorm2d(1392, eps=1e-05, momentum=0.1, affine=True, track_running_stats=True)\n            (2): SiLU(inplace=True)\n          )\n          (2): SqueezeExcitation(\n            (avgpool): AdaptiveAvgPool2d(output_size=1)\n            (fc1): Conv2d(1392, 58, kernel_size=(1, 1), stride=(1, 1))\n            (fc2): Conv2d(58, 1392, kernel_size=(1, 1), stride=(1, 1))\n            (activation): SiLU(inplace=True)\n            (scale_activation): Sigmoid()\n          )\n          (3): Conv2dNormActivation(\n            (0): Conv2d(1392, 232, kernel_size=(1, 1), stride=(1, 1), bias=False)\n            (1): BatchNorm2d(232, eps=1e-05, momentum=0.1, affine=True, track_running_stats=True)\n          )\n        )\n        (stochastic_depth): StochasticDepth(p=0.16923076923076924, mode=row)\n      )\n      (5): MBConv(\n        (block): Sequential(\n          (0): Conv2dNormActivation(\n            (0): Conv2d(232, 1392, kernel_size=(1, 1), stride=(1, 1), bias=False)\n            (1): BatchNorm2d(1392, eps=1e-05, momentum=0.1, affine=True, track_running_stats=True)\n            (2): SiLU(inplace=True)\n          )\n          (1): Conv2dNormActivation(\n            (0): Conv2d(1392, 1392, kernel_size=(5, 5), stride=(1, 1), padding=(2, 2), groups=1392, bias=False)\n            (1): BatchNorm2d(1392, eps=1e-05, momentum=0.1, affine=True, track_running_stats=True)\n            (2): SiLU(inplace=True)\n          )\n          (2): SqueezeExcitation(\n            (avgpool): AdaptiveAvgPool2d(output_size=1)\n            (fc1): Conv2d(1392, 58, kernel_size=(1, 1), stride=(1, 1))\n            (fc2): Conv2d(58, 1392, kernel_size=(1, 1), stride=(1, 1))\n            (activation): SiLU(inplace=True)\n            (scale_activation): Sigmoid()\n          )\n          (3): Conv2dNormActivation(\n            (0): Conv2d(1392, 232, kernel_size=(1, 1), stride=(1, 1), bias=False)\n            (1): BatchNorm2d(232, eps=1e-05, momentum=0.1, affine=True, track_running_stats=True)\n          )\n        )\n        (stochastic_depth): StochasticDepth(p=0.17692307692307693, mode=row)\n      )\n    )\n    (7): Sequential(\n      (0): MBConv(\n        (block): Sequential(\n          (0): Conv2dNormActivation(\n            (0): Conv2d(232, 1392, kernel_size=(1, 1), stride=(1, 1), bias=False)\n            (1): BatchNorm2d(1392, eps=1e-05, momentum=0.1, affine=True, track_running_stats=True)\n            (2): SiLU(inplace=True)\n          )\n          (1): Conv2dNormActivation(\n            (0): Conv2d(1392, 1392, kernel_size=(3, 3), stride=(1, 1), padding=(1, 1), groups=1392, bias=False)\n            (1): BatchNorm2d(1392, eps=1e-05, momentum=0.1, affine=True, track_running_stats=True)\n            (2): SiLU(inplace=True)\n          )\n          (2): SqueezeExcitation(\n            (avgpool): AdaptiveAvgPool2d(output_size=1)\n            (fc1): Conv2d(1392, 58, kernel_size=(1, 1), stride=(1, 1))\n            (fc2): Conv2d(58, 1392, kernel_size=(1, 1), stride=(1, 1))\n            (activation): SiLU(inplace=True)\n            (scale_activation): Sigmoid()\n          )\n          (3): Conv2dNormActivation(\n            (0): Conv2d(1392, 384, kernel_size=(1, 1), stride=(1, 1), bias=False)\n            (1): BatchNorm2d(384, eps=1e-05, momentum=0.1, affine=True, track_running_stats=True)\n          )\n        )\n        (stochastic_depth): StochasticDepth(p=0.18461538461538465, mode=row)\n      )\n      (1): MBConv(\n        (block): Sequential(\n          (0): Conv2dNormActivation(\n            (0): Conv2d(384, 2304, kernel_size=(1, 1), stride=(1, 1), bias=False)\n            (1): BatchNorm2d(2304, eps=1e-05, momentum=0.1, affine=True, track_running_stats=True)\n            (2): SiLU(inplace=True)\n          )\n          (1): Conv2dNormActivation(\n            (0): Conv2d(2304, 2304, kernel_size=(3, 3), stride=(1, 1), padding=(1, 1), groups=2304, bias=False)\n            (1): BatchNorm2d(2304, eps=1e-05, momentum=0.1, affine=True, track_running_stats=True)\n            (2): SiLU(inplace=True)\n          )\n          (2): SqueezeExcitation(\n            (avgpool): AdaptiveAvgPool2d(output_size=1)\n            (fc1): Conv2d(2304, 96, kernel_size=(1, 1), stride=(1, 1))\n            (fc2): Conv2d(96, 2304, kernel_size=(1, 1), stride=(1, 1))\n            (activation): SiLU(inplace=True)\n            (scale_activation): Sigmoid()\n          )\n          (3): Conv2dNormActivation(\n            (0): Conv2d(2304, 384, kernel_size=(1, 1), stride=(1, 1), bias=False)\n            (1): BatchNorm2d(384, eps=1e-05, momentum=0.1, affine=True, track_running_stats=True)\n          )\n        )\n        (stochastic_depth): StochasticDepth(p=0.19230769230769232, mode=row)\n      )\n    )\n    (8): Conv2dNormActivation(\n      (0): Conv2d(384, 1536, kernel_size=(1, 1), stride=(1, 1), bias=False)\n      (1): BatchNorm2d(1536, eps=1e-05, momentum=0.1, affine=True, track_running_stats=True)\n      (2): SiLU(inplace=True)\n    )\n  )\n  (avgpool): AdaptiveAvgPool2d(output_size=1)\n  (classifier): Sequential(\n    (0): Dropout(p=0.3, inplace=True)\n    (1): Linear(in_features=1536, out_features=4, bias=True)\n  )\n)",
        "architecture_image": "results/efcnetb3\\architecture.svg",
        "architecture_image_format": "svg",
        "total_parameters": 10702380,
        "trainable_parameters": 10702380,
        "input_size": [
            1,
            3,
            300,
            300
        ],
        "layers": [
            {
                "name": "features",
                "type": "Sequential",
                "parameters": 0,
                "trainable_parameters": 0,
                "config": "Sequential(\n  (0): Conv2dNormActivation(\n    (0): Conv2d(3, 40, kernel_size=(3, 3), stride=(2, 2), padding=(1, 1), bias=False)\n    (1): BatchNorm2d(40, eps=1e-05, momentum=0.1, affine=True, track_running_stats=True)\n    (2): SiLU(inplace=True)\n  )\n  (1): Sequential(\n    (0): MBConv(\n      (block): Sequential(\n        (0): Conv2dNormActivation(\n          (0): Conv2d(40, 40, kernel_size=(3, 3), stride=(1, 1), padding=(1, 1), groups=40, bias=False)\n          (1): BatchNorm2d(40, eps=1e-05, momentum=0.1, affine=True, track_running_stats=True)\n          (2): SiLU(inplace=True)\n        )\n        (1): SqueezeExcitation(\n          (avgpool): AdaptiveAvgPool2d(output_size=1)\n          (fc1): Conv2d(40, 10, kernel_size=(1, 1), stride=(1, 1))\n          (fc2): Conv2d(10, 40, kernel_size=(1, 1), stride=(1, 1))\n          (activation): SiLU(inplace=True)\n          (scale_activation): Sigmoid()\n        )\n        (2): Conv2dNormActivation(\n          (0): Conv2d(40, 24, kernel_size=(1, 1), stride=(1, 1), bias=False)\n          (1): BatchNorm2d(24, eps=1e-05, momentum=0.1, affine=True, track_running_stats=True)\n        )\n      )\n      (stochastic_depth): StochasticDepth(p=0.0, mode=row)\n    )\n    (1): MBConv(\n      (block): Sequential(\n        (0): Conv2dNormActivation(\n          (0): Conv2d(24, 24, kernel_size=(3, 3), stride=(1, 1), padding=(1, 1), groups=24, bias=False)\n          (1): BatchNorm2d(24, eps=1e-05, momentum=0.1, affine=True, track_running_stats=True)\n          (2): SiLU(inplace=True)\n        )\n        (1): SqueezeExcitation(\n          (avgpool): AdaptiveAvgPool2d(output_size=1)\n          (fc1): Conv2d(24, 6, kernel_size=(1, 1), stride=(1, 1))\n          (fc2): Conv2d(6, 24, kernel_size=(1, 1), stride=(1, 1))\n          (activation): SiLU(inplace=True)\n          (scale_activation): Sigmoid()\n        )\n        (2): Conv2dNormActivation(\n          (0): Conv2d(24, 24, kernel_size=(1, 1), stride=(1, 1), bias=False)\n          (1): BatchNorm2d(24, eps=1e-05, momentum=0.1, affine=True, track_running_stats=True)\n        )\n      )\n      (stochastic_depth): StochasticDepth(p=0.007692307692307693, mode=row)\n    )\n  )\n  (2): Sequential(\n    (0): MBConv(\n      (block): Sequential(\n        (0): Conv2dNormActivation(\n          (0): Conv2d(24, 144, kernel_size=(1, 1), stride=(1, 1), bias=False)\n          (1): BatchNorm2d(144, eps=1e-05, momentum=0.1, affine=True, track_running_stats=True)\n          (2): SiLU(inplace=True)\n        )\n        (1): Conv2dNormActivation(\n          (0): Conv2d(144, 144, kernel_size=(3, 3), stride=(2, 2), padding=(1, 1), groups=144, bias=False)\n          (1): BatchNorm2d(144, eps=1e-05, momentum=0.1, affine=True, track_running_stats=True)\n          (2): SiLU(inplace=True)\n        )\n        (2): SqueezeExcitation(\n          (avgpool): AdaptiveAvgPool2d(output_size=1)\n          (fc1): Conv2d(144, 6, kernel_size=(1, 1), stride=(1, 1))\n          (fc2): Conv2d(6, 144, kernel_size=(1, 1), stride=(1, 1))\n          (activation): SiLU(inplace=True)\n          (scale_activation): Sigmoid()\n        )\n        (3): Conv2dNormActivation(\n          (0): Conv2d(144, 32, kernel_size=(1, 1), stride=(1, 1), bias=False)\n          (1): BatchNorm2d(32, eps=1e-05, momentum=0.1, affine=True, track_running_stats=True)\n        )\n      )\n      (stochastic_depth): StochasticDepth(p=0.015384615384615385, mode=row)\n    )\n    (1): MBConv(\n      (block): Sequential(\n        (0): Conv2dNormActivation(\n          (0): Conv2d(32, 192, kernel_size=(1, 1), stride=(1, 1), bias=False)\n          (1): BatchNorm2d(192, eps=1e-05, momentum=0.1, affine=True, track_running_stats=True)\n          (2): SiLU(inplace=True)\n        )\n        (1): Conv2dNormActivation(\n          (0): Conv2d(192, 192, kernel_size=(3, 3), stride=(1, 1), padding=(1, 1), groups=192, bias=False)\n          (1): BatchNorm2d(192, eps=1e-05, momentum=0.1, affine=True, track_running_stats=True)\n          (2): SiLU(inplace=True)\n        )\n        (2): SqueezeExcitation(\n          (avgpool): AdaptiveAvgPool2d(output_size=1)\n          (fc1): Conv2d(192, 8, kernel_size=(1, 1), stride=(1, 1))\n          (fc2): Conv2d(8, 192, kernel_size=(1, 1), stride=(1, 1))\n          (activation): SiLU(inplace=True)\n          (scale_activation): Sigmoid()\n        )\n        (3): Conv2dNormActivation(\n          (0): Conv2d(192, 32, kernel_size=(1, 1), stride=(1, 1), bias=False)\n          (1): BatchNorm2d(32, eps=1e-05, momentum=0.1, affine=True, track_running_stats=True)\n        )\n      )\n      (stochastic_depth): StochasticDepth(p=0.02307692307692308, mode=row)\n    )\n    (2): MBConv(\n      (block): Sequential(\n        (0): Conv2dNormActivation(\n          (0): Conv2d(32, 192, kernel_size=(1, 1), stride=(1, 1), bias=False)\n          (1): BatchNorm2d(192, eps=1e-05, momentum=0.1, affine=True, track_running_stats=True)\n          (2): SiLU(inplace=True)\n        )\n        (1): Conv2dNormActivation(\n          (0): Conv2d(192, 192, kernel_size=(3, 3), stride=(1, 1), padding=(1, 1), groups=192, bias=False)\n          (1): BatchNorm2d(192, eps=1e-05, momentum=0.1, affine=True, track_running_stats=True)\n          (2): SiLU(inplace=True)\n        )\n        (2): SqueezeExcitation(\n          (avgpool): AdaptiveAvgPool2d(output_size=1)\n          (fc1): Conv2d(192, 8, kernel_size=(1, 1), stride=(1, 1))\n          (fc2): Conv2d(8, 192, kernel_size=(1, 1), stride=(1, 1))\n          (activation): SiLU(inplace=True)\n          (scale_activation): Sigmoid()\n        )\n        (3): Conv2dNormActivation(\n          (0): Conv2d(192, 32, kernel_size=(1, 1), stride=(1, 1), bias=False)\n          (1): BatchNorm2d(32, eps=1e-05, momentum=0.1, affine=True, track_running_stats=True)\n        )\n      )\n      (stochastic_depth): StochasticDepth(p=0.03076923076923077, mode=row)\n    )\n  )\n  (3): Sequential(\n    (0): MBConv(\n      (block): Sequential(\n        (0): Conv2dNormActivation(\n          (0): Conv2d(32, 192, kernel_size=(1, 1), stride=(1, 1), bias=False)\n          (1): BatchNorm2d(192, eps=1e-05, momentum=0.1, affine=True, track_running_stats=True)\n          (2): SiLU(inplace=True)\n        )\n        (1): Conv2dNormActivation(\n          (0): Conv2d(192, 192, kernel_size=(5, 5), stride=(2, 2), padding=(2, 2), groups=192, bias=False)\n          (1): BatchNorm2d(192, eps=1e-05, momentum=0.1, affine=True, track_running_stats=True)\n          (2): SiLU(inplace=True)\n        )\n        (2): SqueezeExcitation(\n          (avgpool): AdaptiveAvgPool2d(output_size=1)\n          (fc1): Conv2d(192, 8, kernel_size=(1, 1), stride=(1, 1))\n          (fc2): Conv2d(8, 192, kernel_size=(1, 1), stride=(1, 1))\n          (activation): SiLU(inplace=True)\n          (scale_activation): Sigmoid()\n        )\n        (3): Conv2dNormActivation(\n          (0): Conv2d(192, 48, kernel_size=(1, 1), stride=(1, 1), bias=False)\n          (1): BatchNorm2d(48, eps=1e-05, momentum=0.1, affine=True, track_running_stats=True)\n        )\n      )\n      (stochastic_depth): StochasticDepth(p=0.038461538461538464, mode=row)\n    )\n    (1): MBConv(\n      (block): Sequential(\n        (0): Conv2dNormActivation(\n          (0): Conv2d(48, 288, kernel_size=(1, 1), stride=(1, 1), bias=False)\n          (1): BatchNorm2d(288, eps=1e-05, momentum=0.1, affine=True, track_running_stats=True)\n          (2): SiLU(inplace=True)\n        )\n        (1): Conv2dNormActivation(\n          (0): Conv2d(288, 288, kernel_size=(5, 5), stride=(1, 1), padding=(2, 2), groups=288, bias=False)\n          (1): BatchNorm2d(288, eps=1e-05, momentum=0.1, affine=True, track_running_stats=True)\n          (2): SiLU(inplace=True)\n        )\n        (2): SqueezeExcitation(\n          (avgpool): AdaptiveAvgPool2d(output_size=1)\n          (fc1): Conv2d(288, 12, kernel_size=(1, 1), stride=(1, 1))\n          (fc2): Conv2d(12, 288, kernel_size=(1, 1), stride=(1, 1))\n          (activation): SiLU(inplace=True)\n          (scale_activation): Sigmoid()\n        )\n        (3): Conv2dNormActivation(\n          (0): Conv2d(288, 48, kernel_size=(1, 1), stride=(1, 1), bias=False)\n          (1): BatchNorm2d(48, eps=1e-05, momentum=0.1, affine=True, track_running_stats=True)\n        )\n      )\n      (stochastic_depth): StochasticDepth(p=0.04615384615384616, mode=row)\n    )\n    (2): MBConv(\n      (block): Sequential(\n        (0): Conv2dNormActivation(\n          (0): Conv2d(48, 288, kernel_size=(1, 1), stride=(1, 1), bias=False)\n          (1): BatchNorm2d(288, eps=1e-05, momentum=0.1, affine=True, track_running_stats=True)\n          (2): SiLU(inplace=True)\n        )\n        (1): Conv2dNormActivation(\n          (0): Conv2d(288, 288, kernel_size=(5, 5), stride=(1, 1), padding=(2, 2), groups=288, bias=False)\n          (1): BatchNorm2d(288, eps=1e-05, momentum=0.1, affine=True, track_running_stats=True)\n          (2): SiLU(inplace=True)\n        )\n        (2): SqueezeExcitation(\n          (avgpool): AdaptiveAvgPool2d(output_size=1)\n          (fc1): Conv2d(288, 12, kernel_size=(1, 1), stride=(1, 1))\n          (fc2): Conv2d(12, 288, kernel_size=(1, 1), stride=(1, 1))\n          (activation): SiLU(inplace=True)\n          (scale_activation): Sigmoid()\n        )\n        (3): Conv2dNormActivation(\n          (0): Conv2d(288, 48, kernel_size=(1, 1), stride=(1, 1), bias=False)\n          (1): BatchNorm2d(48, eps=1e-05, momentum=0.1, affine=True, track_running_stats=True)\n        )\n      )\n      (stochastic_depth): StochasticDepth(p=0.05384615384615385, mode=row)\n    )\n  )\n  (4): Sequential(\n    (0): MBConv(\n      (block): Sequential(\n        (0): Conv2dNormActivation(\n          (0): Conv2d(48, 288, kernel_size=(1, 1), stride=(1, 1), bias=False)\n          (1): BatchNorm2d(288, eps=1e-05, momentum=0.1, affine=True, track_running_stats=True)\n          (2): SiLU(inplace=True)\n        )\n        (1): Conv2dNormActivation(\n          (0): Conv2d(288, 288, kernel_size=(3, 3), stride=(2, 2), padding=(1, 1), groups=288, bias=False)\n          (1): BatchNorm2d(288, eps=1e-05, momentum=0.1, affine=True, track_running_stats=True)\n          (2): SiLU(inplace=True)\n        )\n        (2): SqueezeExcitation(\n          (avgpool): AdaptiveAvgPool2d(output_size=1)\n          (fc1): Conv2d(288, 12, kernel_size=(1, 1), stride=(1, 1))\n          (fc2): Conv2d(12, 288, kernel_size=(1, 1), stride=(1, 1))\n          (activation): SiLU(inplace=True)\n          (scale_activation): Sigmoid()\n        )\n        (3): Conv2dNormActivation(\n          (0): Conv2d(288, 96, kernel_size=(1, 1), stride=(1, 1), bias=False)\n          (1): BatchNorm2d(96, eps=1e-05, momentum=0.1, affine=True, track_running_stats=True)\n        )\n      )\n      (stochastic_depth): StochasticDepth(p=0.06153846153846154, mode=row)\n    )\n    (1): MBConv(\n      (block): Sequential(\n        (0): Conv2dNormActivation(\n          (0): Conv2d(96, 576, kernel_size=(1, 1), stride=(1, 1), bias=False)\n          (1): BatchNorm2d(576, eps=1e-05, momentum=0.1, affine=True, track_running_stats=True)\n          (2): SiLU(inplace=True)\n        )\n        (1): Conv2dNormActivation(\n          (0): Conv2d(576, 576, kernel_size=(3, 3), stride=(1, 1), padding=(1, 1), groups=576, bias=False)\n          (1): BatchNorm2d(576, eps=1e-05, momentum=0.1, affine=True, track_running_stats=True)\n          (2): SiLU(inplace=True)\n        )\n        (2): SqueezeExcitation(\n          (avgpool): AdaptiveAvgPool2d(output_size=1)\n          (fc1): Conv2d(576, 24, kernel_size=(1, 1), stride=(1, 1))\n          (fc2): Conv2d(24, 576, kernel_size=(1, 1), stride=(1, 1))\n          (activation): SiLU(inplace=True)\n          (scale_activation): Sigmoid()\n        )\n        (3): Conv2dNormActivation(\n          (0): Conv2d(576, 96, kernel_size=(1, 1), stride=(1, 1), bias=False)\n          (1): BatchNorm2d(96, eps=1e-05, momentum=0.1, affine=True, track_running_stats=True)\n        )\n      )\n      (stochastic_depth): StochasticDepth(p=0.06923076923076923, mode=row)\n    )\n    (2): MBConv(\n      (block): Sequential(\n        (0): Conv2dNormActivation(\n          (0): Conv2d(96, 576, kernel_size=(1, 1), stride=(1, 1), bias=False)\n          (1): BatchNorm2d(576, eps=1e-05, momentum=0.1, affine=True, track_running_stats=True)\n          (2): SiLU(inplace=True)\n        )\n        (1): Conv2dNormActivation(\n          (0): Conv2d(576, 576, kernel_size=(3, 3), stride=(1, 1), padding=(1, 1), groups=576, bias=False)\n          (1): BatchNorm2d(576, eps=1e-05, momentum=0.1, affine=True, track_running_stats=True)\n          (2): SiLU(inplace=True)\n        )\n        (2): SqueezeExcitation(\n          (avgpool): AdaptiveAvgPool2d(output_size=1)\n          (fc1): Conv2d(576, 24, kernel_size=(1, 1), stride=(1, 1))\n          (fc2): Conv2d(24, 576, kernel_size=(1, 1), stride=(1, 1))\n          (activation): SiLU(inplace=True)\n          (scale_activation): Sigmoid()\n        )\n        (3): Conv2dNormActivation(\n          (0): Conv2d(576, 96, kernel_size=(1, 1), stride=(1, 1), bias=False)\n          (1): BatchNorm2d(96, eps=1e-05, momentum=0.1, affine=True, track_running_stats=True)\n        )\n      )\n      (stochastic_depth): StochasticDepth(p=0.07692307692307693, mode=row)\n    )\n    (3): MBConv(\n      (block): Sequential(\n        (0): Conv2dNormActivation(\n          (0): Conv2d(96, 576, kernel_size=(1, 1), stride=(1, 1), bias=False)\n          (1): BatchNorm2d(576, eps=1e-05, momentum=0.1, affine=True, track_running_stats=True)\n          (2): SiLU(inplace=True)\n        )\n        (1): Conv2dNormActivation(\n          (0): Conv2d(576, 576, kernel_size=(3, 3), stride=(1, 1), padding=(1, 1), groups=576, bias=False)\n          (1): BatchNorm2d(576, eps=1e-05, momentum=0.1, affine=True, track_running_stats=True)\n          (2): SiLU(inplace=True)\n        )\n        (2): SqueezeExcitation(\n          (avgpool): AdaptiveAvgPool2d(output_size=1)\n          (fc1): Conv2d(576, 24, kernel_size=(1, 1), stride=(1, 1))\n          (fc2): Conv2d(24, 576, kernel_size=(1, 1), stride=(1, 1))\n          (activation): SiLU(inplace=True)\n          (scale_activation): Sigmoid()\n        )\n        (3): Conv2dNormActivation(\n          (0): Conv2d(576, 96, kernel_size=(1, 1), stride=(1, 1), bias=False)\n          (1): BatchNorm2d(96, eps=1e-05, momentum=0.1, affine=True, track_running_stats=True)\n        )\n      )\n      (stochastic_depth): StochasticDepth(p=0.08461538461538462, mode=row)\n    )\n    (4): MBConv(\n      (block): Sequential(\n        (0): Conv2dNormActivation(\n          (0): Conv2d(96, 576, kernel_size=(1, 1), stride=(1, 1), bias=False)\n          (1): BatchNorm2d(576, eps=1e-05, momentum=0.1, affine=True, track_running_stats=True)\n          (2): SiLU(inplace=True)\n        )\n        (1): Conv2dNormActivation(\n          (0): Conv2d(576, 576, kernel_size=(3, 3), stride=(1, 1), padding=(1, 1), groups=576, bias=False)\n          (1): BatchNorm2d(576, eps=1e-05, momentum=0.1, affine=True, track_running_stats=True)\n          (2): SiLU(inplace=True)\n        )\n        (2): SqueezeExcitation(\n          (avgpool): AdaptiveAvgPool2d(output_size=1)\n          (fc1): Conv2d(576, 24, kernel_size=(1, 1), stride=(1, 1))\n          (fc2): Conv2d(24, 576, kernel_size=(1, 1), stride=(1, 1))\n          (activation): SiLU(inplace=True)\n          (scale_activation): Sigmoid()\n        )\n        (3): Conv2dNormActivation(\n          (0): Conv2d(576, 96, kernel_size=(1, 1), stride=(1, 1), bias=False)\n          (1): BatchNorm2d(96, eps=1e-05, momentum=0.1, affine=True, track_running_stats=True)\n        )\n      )\n      (stochastic_depth): StochasticDepth(p=0.09230769230769233, mode=row)\n    )\n  )\n  (5): Sequential(\n    (0): MBConv(\n      (block): Sequential(\n        (0): Conv2dNormActivation(\n          (0): Conv2d(96, 576, kernel_size=(1, 1), stride=(1, 1), bias=False)\n          (1): BatchNorm2d(576, eps=1e-05, momentum=0.1, affine=True, track_running_stats=True)\n          (2): SiLU(inplace=True)\n        )\n        (1): Conv2dNormActivation(\n          (0): Conv2d(576, 576, kernel_size=(5, 5), stride=(1, 1), padding=(2, 2), groups=576, bias=False)\n          (1): BatchNorm2d(576, eps=1e-05, momentum=0.1, affine=True, track_running_stats=True)\n          (2): SiLU(inplace=True)\n        )\n        (2): SqueezeExcitation(\n          (avgpool): AdaptiveAvgPool2d(output_size=1)\n          (fc1): Conv2d(576, 24, kernel_size=(1, 1), stride=(1, 1))\n          (fc2): Conv2d(24, 576, kernel_size=(1, 1), stride=(1, 1))\n          (activation): SiLU(inplace=True)\n          (scale_activation): Sigmoid()\n        )\n        (3): Conv2dNormActivation(\n          (0): Conv2d(576, 136, kernel_size=(1, 1), stride=(1, 1), bias=False)\n          (1): BatchNorm2d(136, eps=1e-05, momentum=0.1, affine=True, track_running_stats=True)\n        )\n      )\n      (stochastic_depth): StochasticDepth(p=0.1, mode=row)\n    )\n    (1): MBConv(\n      (block): Sequential(\n        (0): Conv2dNormActivation(\n          (0): Conv2d(136, 816, kernel_size=(1, 1), stride=(1, 1), bias=False)\n          (1): BatchNorm2d(816, eps=1e-05, momentum=0.1, affine=True, track_running_stats=True)\n          (2): SiLU(inplace=True)\n        )\n        (1): Conv2dNormActivation(\n          (0): Conv2d(816, 816, kernel_size=(5, 5), stride=(1, 1), padding=(2, 2), groups=816, bias=False)\n          (1): BatchNorm2d(816, eps=1e-05, momentum=0.1, affine=True, track_running_stats=True)\n          (2): SiLU(inplace=True)\n        )\n        (2): SqueezeExcitation(\n          (avgpool): AdaptiveAvgPool2d(output_size=1)\n          (fc1): Conv2d(816, 34, kernel_size=(1, 1), stride=(1, 1))\n          (fc2): Conv2d(34, 816, kernel_size=(1, 1), stride=(1, 1))\n          (activation): SiLU(inplace=True)\n          (scale_activation): Sigmoid()\n        )\n        (3): Conv2dNormActivation(\n          (0): Conv2d(816, 136, kernel_size=(1, 1), stride=(1, 1), bias=False)\n          (1): BatchNorm2d(136, eps=1e-05, momentum=0.1, affine=True, track_running_stats=True)\n        )\n      )\n      (stochastic_depth): StochasticDepth(p=0.1076923076923077, mode=row)\n    )\n    (2): MBConv(\n      (block): Sequential(\n        (0): Conv2dNormActivation(\n          (0): Conv2d(136, 816, kernel_size=(1, 1), stride=(1, 1), bias=False)\n          (1): BatchNorm2d(816, eps=1e-05, momentum=0.1, affine=True, track_running_stats=True)\n          (2): SiLU(inplace=True)\n        )\n        (1): Conv2dNormActivation(\n          (0): Conv2d(816, 816, kernel_size=(5, 5), stride=(1, 1), padding=(2, 2), groups=816, bias=False)\n          (1): BatchNorm2d(816, eps=1e-05, momentum=0.1, affine=True, track_running_stats=True)\n          (2): SiLU(inplace=True)\n        )\n        (2): SqueezeExcitation(\n          (avgpool): AdaptiveAvgPool2d(output_size=1)\n          (fc1): Conv2d(816, 34, kernel_size=(1, 1), stride=(1, 1))\n          (fc2): Conv2d(34, 816, kernel_size=(1, 1), stride=(1, 1))\n          (activation): SiLU(inplace=True)\n          (scale_activation): Sigmoid()\n        )\n        (3): Conv2dNormActivation(\n          (0): Conv2d(816, 136, kernel_size=(1, 1), stride=(1, 1), bias=False)\n          (1): BatchNorm2d(136, eps=1e-05, momentum=0.1, affine=True, track_running_stats=True)\n        )\n      )\n      (stochastic_depth): StochasticDepth(p=0.11538461538461539, mode=row)\n    )\n    (3): MBConv(\n      (block): Sequential(\n        (0): Conv2dNormActivation(\n          (0): Conv2d(136, 816, kernel_size=(1, 1), stride=(1, 1), bias=False)\n          (1): BatchNorm2d(816, eps=1e-05, momentum=0.1, affine=True, track_running_stats=True)\n          (2): SiLU(inplace=True)\n        )\n        (1): Conv2dNormActivation(\n          (0): Conv2d(816, 816, kernel_size=(5, 5), stride=(1, 1), padding=(2, 2), groups=816, bias=False)\n          (1): BatchNorm2d(816, eps=1e-05, momentum=0.1, affine=True, track_running_stats=True)\n          (2): SiLU(inplace=True)\n        )\n        (2): SqueezeExcitation(\n          (avgpool): AdaptiveAvgPool2d(output_size=1)\n          (fc1): Conv2d(816, 34, kernel_size=(1, 1), stride=(1, 1))\n          (fc2): Conv2d(34, 816, kernel_size=(1, 1), stride=(1, 1))\n          (activation): SiLU(inplace=True)\n          (scale_activation): Sigmoid()\n        )\n        (3): Conv2dNormActivation(\n          (0): Conv2d(816, 136, kernel_size=(1, 1), stride=(1, 1), bias=False)\n          (1): BatchNorm2d(136, eps=1e-05, momentum=0.1, affine=True, track_running_stats=True)\n        )\n      )\n      (stochastic_depth): StochasticDepth(p=0.12307692307692308, mode=row)\n    )\n    (4): MBConv(\n      (block): Sequential(\n        (0): Conv2dNormActivation(\n          (0): Conv2d(136, 816, kernel_size=(1, 1), stride=(1, 1), bias=False)\n          (1): BatchNorm2d(816, eps=1e-05, momentum=0.1, affine=True, track_running_stats=True)\n          (2): SiLU(inplace=True)\n        )\n        (1): Conv2dNormActivation(\n          (0): Conv2d(816, 816, kernel_size=(5, 5), stride=(1, 1), padding=(2, 2), groups=816, bias=False)\n          (1): BatchNorm2d(816, eps=1e-05, momentum=0.1, affine=True, track_running_stats=True)\n          (2): SiLU(inplace=True)\n        )\n        (2): SqueezeExcitation(\n          (avgpool): AdaptiveAvgPool2d(output_size=1)\n          (fc1): Conv2d(816, 34, kernel_size=(1, 1), stride=(1, 1))\n          (fc2): Conv2d(34, 816, kernel_size=(1, 1), stride=(1, 1))\n          (activation): SiLU(inplace=True)\n          (scale_activation): Sigmoid()\n        )\n        (3): Conv2dNormActivation(\n          (0): Conv2d(816, 136, kernel_size=(1, 1), stride=(1, 1), bias=False)\n          (1): BatchNorm2d(136, eps=1e-05, momentum=0.1, affine=True, track_running_stats=True)\n        )\n      )\n      (stochastic_depth): StochasticDepth(p=0.13076923076923078, mode=row)\n    )\n  )\n  (6): Sequential(\n    (0): MBConv(\n      (block): Sequential(\n        (0): Conv2dNormActivation(\n          (0): Conv2d(136, 816, kernel_size=(1, 1), stride=(1, 1), bias=False)\n          (1): BatchNorm2d(816, eps=1e-05, momentum=0.1, affine=True, track_running_stats=True)\n          (2): SiLU(inplace=True)\n        )\n        (1): Conv2dNormActivation(\n          (0): Conv2d(816, 816, kernel_size=(5, 5), stride=(2, 2), padding=(2, 2), groups=816, bias=False)\n          (1): BatchNorm2d(816, eps=1e-05, momentum=0.1, affine=True, track_running_stats=True)\n          (2): SiLU(inplace=True)\n        )\n        (2): SqueezeExcitation(\n          (avgpool): AdaptiveAvgPool2d(output_size=1)\n          (fc1): Conv2d(816, 34, kernel_size=(1, 1), stride=(1, 1))\n          (fc2): Conv2d(34, 816, kernel_size=(1, 1), stride=(1, 1))\n          (activation): SiLU(inplace=True)\n          (scale_activation): Sigmoid()\n        )\n        (3): Conv2dNormActivation(\n          (0): Conv2d(816, 232, kernel_size=(1, 1), stride=(1, 1), bias=False)\n          (1): BatchNorm2d(232, eps=1e-05, momentum=0.1, affine=True, track_running_stats=True)\n        )\n      )\n      (stochastic_depth): StochasticDepth(p=0.13846153846153847, mode=row)\n    )\n    (1): MBConv(\n      (block): Sequential(\n        (0): Conv2dNormActivation(\n          (0): Conv2d(232, 1392, kernel_size=(1, 1), stride=(1, 1), bias=False)\n          (1): BatchNorm2d(1392, eps=1e-05, momentum=0.1, affine=True, track_running_stats=True)\n          (2): SiLU(inplace=True)\n        )\n        (1): Conv2dNormActivation(\n          (0): Conv2d(1392, 1392, kernel_size=(5, 5), stride=(1, 1), padding=(2, 2), groups=1392, bias=False)\n          (1): BatchNorm2d(1392, eps=1e-05, momentum=0.1, affine=True, track_running_stats=True)\n          (2): SiLU(inplace=True)\n        )\n        (2): SqueezeExcitation(\n          (avgpool): AdaptiveAvgPool2d(output_size=1)\n          (fc1): Conv2d(1392, 58, kernel_size=(1, 1), stride=(1, 1))\n          (fc2): Conv2d(58, 1392, kernel_size=(1, 1), stride=(1, 1))\n          (activation): SiLU(inplace=True)\n          (scale_activation): Sigmoid()\n        )\n        (3): Conv2dNormActivation(\n          (0): Conv2d(1392, 232, kernel_size=(1, 1), stride=(1, 1), bias=False)\n          (1): BatchNorm2d(232, eps=1e-05, momentum=0.1, affine=True, track_running_stats=True)\n        )\n      )\n      (stochastic_depth): StochasticDepth(p=0.14615384615384616, mode=row)\n    )\n    (2): MBConv(\n      (block): Sequential(\n        (0): Conv2dNormActivation(\n          (0): Conv2d(232, 1392, kernel_size=(1, 1), stride=(1, 1), bias=False)\n          (1): BatchNorm2d(1392, eps=1e-05, momentum=0.1, affine=True, track_running_stats=True)\n          (2): SiLU(inplace=True)\n        )\n        (1): Conv2dNormActivation(\n          (0): Conv2d(1392, 1392, kernel_size=(5, 5), stride=(1, 1), padding=(2, 2), groups=1392, bias=False)\n          (1): BatchNorm2d(1392, eps=1e-05, momentum=0.1, affine=True, track_running_stats=True)\n          (2): SiLU(inplace=True)\n        )\n        (2): SqueezeExcitation(\n          (avgpool): AdaptiveAvgPool2d(output_size=1)\n          (fc1): Conv2d(1392, 58, kernel_size=(1, 1), stride=(1, 1))\n          (fc2): Conv2d(58, 1392, kernel_size=(1, 1), stride=(1, 1))\n          (activation): SiLU(inplace=True)\n          (scale_activation): Sigmoid()\n        )\n        (3): Conv2dNormActivation(\n          (0): Conv2d(1392, 232, kernel_size=(1, 1), stride=(1, 1), bias=False)\n          (1): BatchNorm2d(232, eps=1e-05, momentum=0.1, affine=True, track_running_stats=True)\n        )\n      )\n      (stochastic_depth): StochasticDepth(p=0.15384615384615385, mode=row)\n    )\n    (3): MBConv(\n      (block): Sequential(\n        (0): Conv2dNormActivation(\n          (0): Conv2d(232, 1392, kernel_size=(1, 1), stride=(1, 1), bias=False)\n          (1): BatchNorm2d(1392, eps=1e-05, momentum=0.1, affine=True, track_running_stats=True)\n          (2): SiLU(inplace=True)\n        )\n        (1): Conv2dNormActivation(\n          (0): Conv2d(1392, 1392, kernel_size=(5, 5), stride=(1, 1), padding=(2, 2), groups=1392, bias=False)\n          (1): BatchNorm2d(1392, eps=1e-05, momentum=0.1, affine=True, track_running_stats=True)\n          (2): SiLU(inplace=True)\n        )\n        (2): SqueezeExcitation(\n          (avgpool): AdaptiveAvgPool2d(output_size=1)\n          (fc1): Conv2d(1392, 58, kernel_size=(1, 1), stride=(1, 1))\n          (fc2): Conv2d(58, 1392, kernel_size=(1, 1), stride=(1, 1))\n          (activation): SiLU(inplace=True)\n          (scale_activation): Sigmoid()\n        )\n        (3): Conv2dNormActivation(\n          (0): Conv2d(1392, 232, kernel_size=(1, 1), stride=(1, 1), bias=False)\n          (1): BatchNorm2d(232, eps=1e-05, momentum=0.1, affine=True, track_running_stats=True)\n        )\n      )\n      (stochastic_depth): StochasticDepth(p=0.16153846153846155, mode=row)\n    )\n    (4): MBConv(\n      (block): Sequential(\n        (0): Conv2dNormActivation(\n          (0): Conv2d(232, 1392, kernel_size=(1, 1), stride=(1, 1), bias=False)\n          (1): BatchNorm2d(1392, eps=1e-05, momentum=0.1, affine=True, track_running_stats=True)\n          (2): SiLU(inplace=True)\n        )\n        (1): Conv2dNormActivation(\n          (0): Conv2d(1392, 1392, kernel_size=(5, 5), stride=(1, 1), padding=(2, 2), groups=1392, bias=False)\n          (1): BatchNorm2d(1392, eps=1e-05, momentum=0.1, affine=True, track_running_stats=True)\n          (2): SiLU(inplace=True)\n        )\n        (2): SqueezeExcitation(\n          (avgpool): AdaptiveAvgPool2d(output_size=1)\n          (fc1): Conv2d(1392, 58, kernel_size=(1, 1), stride=(1, 1))\n          (fc2): Conv2d(58, 1392, kernel_size=(1, 1), stride=(1, 1))\n          (activation): SiLU(inplace=True)\n          (scale_activation): Sigmoid()\n        )\n        (3): Conv2dNormActivation(\n          (0): Conv2d(1392, 232, kernel_size=(1, 1), stride=(1, 1), bias=False)\n          (1): BatchNorm2d(232, eps=1e-05, momentum=0.1, affine=True, track_running_stats=True)\n        )\n      )\n      (stochastic_depth): StochasticDepth(p=0.16923076923076924, mode=row)\n    )\n    (5): MBConv(\n      (block): Sequential(\n        (0): Conv2dNormActivation(\n          (0): Conv2d(232, 1392, kernel_size=(1, 1), stride=(1, 1), bias=False)\n          (1): BatchNorm2d(1392, eps=1e-05, momentum=0.1, affine=True, track_running_stats=True)\n          (2): SiLU(inplace=True)\n        )\n        (1): Conv2dNormActivation(\n          (0): Conv2d(1392, 1392, kernel_size=(5, 5), stride=(1, 1), padding=(2, 2), groups=1392, bias=False)\n          (1): BatchNorm2d(1392, eps=1e-05, momentum=0.1, affine=True, track_running_stats=True)\n          (2): SiLU(inplace=True)\n        )\n        (2): SqueezeExcitation(\n          (avgpool): AdaptiveAvgPool2d(output_size=1)\n          (fc1): Conv2d(1392, 58, kernel_size=(1, 1), stride=(1, 1))\n          (fc2): Conv2d(58, 1392, kernel_size=(1, 1), stride=(1, 1))\n          (activation): SiLU(inplace=True)\n          (scale_activation): Sigmoid()\n        )\n        (3): Conv2dNormActivation(\n          (0): Conv2d(1392, 232, kernel_size=(1, 1), stride=(1, 1), bias=False)\n          (1): BatchNorm2d(232, eps=1e-05, momentum=0.1, affine=True, track_running_stats=True)\n        )\n      )\n      (stochastic_depth): StochasticDepth(p=0.17692307692307693, mode=row)\n    )\n  )\n  (7): Sequential(\n    (0): MBConv(\n      (block): Sequential(\n        (0): Conv2dNormActivation(\n          (0): Conv2d(232, 1392, kernel_size=(1, 1), stride=(1, 1), bias=False)\n          (1): BatchNorm2d(1392, eps=1e-05, momentum=0.1, affine=True, track_running_stats=True)\n          (2): SiLU(inplace=True)\n        )\n        (1): Conv2dNormActivation(\n          (0): Conv2d(1392, 1392, kernel_size=(3, 3), stride=(1, 1), padding=(1, 1), groups=1392, bias=False)\n          (1): BatchNorm2d(1392, eps=1e-05, momentum=0.1, affine=True, track_running_stats=True)\n          (2): SiLU(inplace=True)\n        )\n        (2): SqueezeExcitation(\n          (avgpool): AdaptiveAvgPool2d(output_size=1)\n          (fc1): Conv2d(1392, 58, kernel_size=(1, 1), stride=(1, 1))\n          (fc2): Conv2d(58, 1392, kernel_size=(1, 1), stride=(1, 1))\n          (activation): SiLU(inplace=True)\n          (scale_activation): Sigmoid()\n        )\n        (3): Conv2dNormActivation(\n          (0): Conv2d(1392, 384, kernel_size=(1, 1), stride=(1, 1), bias=False)\n          (1): BatchNorm2d(384, eps=1e-05, momentum=0.1, affine=True, track_running_stats=True)\n        )\n      )\n      (stochastic_depth): StochasticDepth(p=0.18461538461538465, mode=row)\n    )\n    (1): MBConv(\n      (block): Sequential(\n        (0): Conv2dNormActivation(\n          (0): Conv2d(384, 2304, kernel_size=(1, 1), stride=(1, 1), bias=False)\n          (1): BatchNorm2d(2304, eps=1e-05, momentum=0.1, affine=True, track_running_stats=True)\n          (2): SiLU(inplace=True)\n        )\n        (1): Conv2dNormActivation(\n          (0): Conv2d(2304, 2304, kernel_size=(3, 3), stride=(1, 1), padding=(1, 1), groups=2304, bias=False)\n          (1): BatchNorm2d(2304, eps=1e-05, momentum=0.1, affine=True, track_running_stats=True)\n          (2): SiLU(inplace=True)\n        )\n        (2): SqueezeExcitation(\n          (avgpool): AdaptiveAvgPool2d(output_size=1)\n          (fc1): Conv2d(2304, 96, kernel_size=(1, 1), stride=(1, 1))\n          (fc2): Conv2d(96, 2304, kernel_size=(1, 1), stride=(1, 1))\n          (activation): SiLU(inplace=True)\n          (scale_activation): Sigmoid()\n        )\n        (3): Conv2dNormActivation(\n          (0): Conv2d(2304, 384, kernel_size=(1, 1), stride=(1, 1), bias=False)\n          (1): BatchNorm2d(384, eps=1e-05, momentum=0.1, affine=True, track_running_stats=True)\n        )\n      )\n      (stochastic_depth): StochasticDepth(p=0.19230769230769232, mode=row)\n    )\n  )\n  (8): Conv2dNormActivation(\n    (0): Conv2d(384, 1536, kernel_size=(1, 1), stride=(1, 1), bias=False)\n    (1): BatchNorm2d(1536, eps=1e-05, momentum=0.1, affine=True, track_running_stats=True)\n    (2): SiLU(inplace=True)\n  )\n)",
                "input_shape": [
                    1,
                    3,
                    300,
                    300
                ],
                "output_shape": [
                    1,
                    1536,
                    10,
                    10
                ]
            },
            {
                "name": "features.0",
                "type": "Conv2dNormActivation",
                "parameters": 0,
                "trainable_parameters": 0,
                "config": "Conv2dNormActivation(\n  (0): Conv2d(3, 40, kernel_size=(3, 3), stride=(2, 2), padding=(1, 1), bias=False)\n  (1): BatchNorm2d(40, eps=1e-05, momentum=0.1, affine=True, track_running_stats=True)\n  (2): SiLU(inplace=True)\n)",
                "input_shape": [
                    1,
                    3,
                    300,
                    300
                ],
                "output_shape": [
                    1,
                    40,
                    150,
                    150
                ]
            },
…
                "input_shape": [
                    1,
                    40,
                    150,
                    150
                ],
                "output_shape": [
                    1,
                    40,
                    150,
                    150
                ]
            },
            {
                "name": "features.1",
                "type": "Sequential",
                "parameters": 0,
                "trainable_parameters": 0,
                "config": "Sequential(\n  (0): MBConv(\n    (block): Sequential(\n      (0): Conv2dNormActivation(\n        (0): Conv2d(40, 40, kernel_size=(3, 3), stride=(1, 1), padding=(1, 1), groups=40, bias=False)\n        (1): BatchNorm2d(40, eps=1e-05, momentum=0.1, affine=True, track_running_stats=True)\n        (2): SiLU(inplace=True)\n      )\n      (1): SqueezeExcitation(\n        (avgpool): AdaptiveAvgPool2d(output_size=1)\n        (fc1): Conv2d(40, 10, kernel_size=(1, 1), stride=(1, 1))\n        (fc2): Conv2d(10, 40, kernel_size=(1, 1), stride=(1, 1))\n        (activation): SiLU(inplace=True)\n        (scale_activation): Sigmoid()\n      )\n      (2): Conv2dNormActivation(\n        (0): Conv2d(40, 24, kernel_size=(1, 1), stride=(1, 1), bias=False)\n        (1): BatchNorm2d(24, eps=1e-05, momentum=0.1, affine=True, track_running_stats=True)\n      )\n    )\n    (stochastic_depth): StochasticDepth(p=0.0, mode=row)\n  )\n  (1): MBConv(\n    (block): Sequential(\n      (0): Conv2dNormActivation(\n        (0): Conv2d(24, 24, kernel_size=(3, 3), stride=(1, 1), padding=(1, 1), groups=24, bias=False)\n        (1): BatchNorm2d(24, eps=1e-05, momentum=0.1, affine=True, track_running_stats=True)\n        (2): SiLU(inplace=True)\n      )\n      (1): SqueezeExcitation(\n        (avgpool): AdaptiveAvgPool2d(output_size=1)\n        (fc1): Conv2d(24, 6, kernel_size=(1, 1), stride=(1, 1))\n        (fc2): Conv2d(6, 24, kernel_size=(1, 1), stride=(1, 1))\n        (activation): SiLU(inplace=True)\n        (scale_activation): Sigmoid()\n      )\n      (2): Conv2dNormActivation(\n        (0): Conv2d(24, 24, kernel_size=(1, 1), stride=(1, 1), bias=False)\n        (1): BatchNorm2d(24, eps=1e-05, momentum=0.1, affine=True, track_running_stats=True)\n      )\n    )\n    (stochastic_depth): StochasticDepth(p=0.007692307692307693, mode=row)\n  )\n)",
                "input_shape": [
                    1,
                    40,
                    150,
                    150
                ],
                "output_shape": [
                    1,
                    24,
                    150,
                    150
                ]
            },
            {
                "name": "features.1.0",
                "type": "MBConv",
                "parameters": 0,
                "trainable_parameters": 0,
                "config": "MBConv(\n  (block): Sequential(\n    (0): Conv2dNormActivation(\n      (0): Conv2d(40, 40, kernel_size=(3, 3), stride=(1, 1), padding=(1, 1), groups=40, bias=False)\n      (1): BatchNorm2d(40, eps=1e-05, momentum=0.1, affine=True, track_running_stats=True)\n      (2): SiLU(inplace=True)\n    )\n    (1): SqueezeExcitation(\n      (avgpool): AdaptiveAvgPool2d(output_size=1)\n      (fc1): Conv2d(40, 10, kernel_size=(1, 1), stride=(1, 1))\n      (fc2): Conv2d(10, 40, kernel_size=(1, 1), stride=(1, 1))\n      (activation): SiLU(inplace=True)\n      (scale_activation): Sigmoid()\n    )\n    (2): Conv2dNormActivation(\n      (0): Conv2d(40, 24, kernel_size=(1, 1), stride=(1, 1), bias=False)\n      (1): BatchNorm2d(24, eps=1e-05, momentum=0.1, affine=True, track_running_stats=True)\n    )\n  )\n  (stochastic_depth): StochasticDepth(p=0.0, mode=row)\n)",
                "input_shape": [
                    1,
                    40,
                    150,
                    150
                ],
                "output_shape": [
                    1,
                    24,
                    150,
                    150
                ]
            },
            {
                "name": "features.1.0.block",
                "type": "Sequential",
                "parameters": 0,
                "trainable_parameters": 0,
                "config": "Sequential(\n  (0): Conv2dNormActivation(\n    (0): Conv2d(40, 40, kernel_size=(3, 3), stride=(1, 1), padding=(1, 1), groups=40, bias=False)\n    (1): BatchNorm2d(40, eps=1e-05, momentum=0.1, affine=True, track_running_stats=True)\n    (2): SiLU(inplace=True)\n  )\n  (1): SqueezeExcitation(\n    (avgpool): AdaptiveAvgPool2d(output_size=1)\n    (fc1): Conv2d(40, 10, kernel_size=(1, 1), stride=(1, 1))\n    (fc2): Conv2d(10, 40, kernel_size=(1, 1), stride=(1, 1))\n    (activation): SiLU(inplace=True)\n    (scale_activation): Sigmoid()\n  )\n  (2): Conv2dNormActivation(\n    (0): Conv2d(40, 24, kernel_size=(1, 1), stride=(1, 1), bias=False)\n    (1): BatchNorm2d(24, eps=1e-05, momentum=0.1, affine=True, track_running_stats=True)\n  )\n)",
                "input_shape": [
                    1,
                    40,
                    150,
                    150
                ],
                "output_shape": [
                    1,
                    24,
                    150,
                    150
                ]
            },
            {
                "name": "features.1.0.block.0",
                "type": "Conv2dNormActivation",
                "parameters": 0,
                "trainable_parameters": 0,
                "config": "Conv2dNormActivation(\n  (0): Conv2d(40, 40, kernel_size=(3, 3), stride=(1, 1), padding=(1, 1), groups=40, bias=False)\n  (1): BatchNorm2d(40, eps=1e-05, momentum=0.1, affine=True, track_running_stats=True)\n  (2): SiLU(inplace=True)\n)",
                "input_shape": [
                    1,
                    40,
                    150,
                    150
                ],
                "output_shape": [
                    1,
                    40,
                    150,
                    150
                ]
            },
…
            {
                "name": "features.1.0.stochastic_depth",
                "type": "StochasticDepth",
                "parameters": 0,
                "trainable_parameters": 0,
                "config": "StochasticDepth(p=0.0, mode=row)",
                "input_shape": null,
                "output_shape": null
            },
            {
                "name": "features.1.1",
                "type": "MBConv",
                "parameters": 0,
                "trainable_parameters": 0,
                "config": "MBConv(\n  (block): Sequential(\n    (0): Conv2dNormActivation(\n      (0): Conv2d(24, 24, kernel_size=(3, 3), stride=(1, 1), padding=(1, 1), groups=24, bias=False)\n      (1): BatchNorm2d(24, eps=1e-05, momentum=0.1, affine=True, track_running_stats=True)\n      (2): SiLU(inplace=True)\n    )\n    (1): SqueezeExcitation(\n      (avgpool): AdaptiveAvgPool2d(output_size=1)\n      (fc1): Conv2d(24, 6, kernel_size=(1, 1), stride=(1, 1))\n      (fc2): Conv2d(6, 24, kernel_size=(1, 1), stride=(1, 1))\n      (activation): SiLU(inplace=True)\n      (scale_activation): Sigmoid()\n    )\n    (2): Conv2dNormActivation(\n      (0): Conv2d(24, 24, kernel_size=(1, 1), stride=(1, 1), bias=False)\n      (1): BatchNorm2d(24, eps=1e-05, momentum=0.1, affine=True, track_running_stats=True)\n    )\n  )\n  (stochastic_depth): StochasticDepth(p=0.007692307692307693, mode=row)\n)",
                "input_shape": [
                    1,
                    24,
                    150,
                    150
                ],
                "output_shape": [
                    1,
                    24,
                    150,
                    150
                ]
            },
            {
                "name": "features.1.1.block",
                "type": "Sequential",
                "parameters": 0,
                "trainable_parameters": 0,
                "config": "Sequential(\n  (0): Conv2dNormActivation(\n    (0): Conv2d(24, 24, kernel_size=(3, 3), stride=(1, 1), padding=(1, 1), groups=24, bias=False)\n    (1): BatchNorm2d(24, eps=1e-05, momentum=0.1, affine=True, track_running_stats=True)\n    (2): SiLU(inplace=True)\n  )\n  (1): SqueezeExcitation(\n    (avgpool): AdaptiveAvgPool2d(output_size=1)\n    (fc1): Conv2d(24, 6, kernel_size=(1, 1), stride=(1, 1))\n    (fc2): Conv2d(6, 24, kernel_size=(1, 1), stride=(1, 1))\n    (activation): SiLU(inplace=True)\n    (scale_activation): Sigmoid()\n  )\n  (2): Conv2dNormActivation(\n    (0): Conv2d(24, 24, kernel_size=(1, 1), stride=(1, 1), bias=False)\n    (1): BatchNorm2d(24, eps=1e-05, momentum=0.1, affine=True, track_running_stats=True)\n  )\n)",
                "input_shape": [
                    1,
                    24,
                    150,
                    150
                ],
                "output_shape": [
                    1,
                    24,
                    150,
                    150
                ]
            },
            {
                "name": "features.1.1.block.0",
                "type": "Conv2dNormActivation",
                "parameters": 0,
                "trainable_parameters": 0,
                "config": "Conv2dNormActivation(\n  (0): Conv2d(24, 24, kernel_size=(3, 3), stride=(1, 1), padding=(1, 1), groups=24, bias=False)\n  (1): BatchNorm2d(24, eps=1e-05, momentum=0.1, affine=True, track_running_stats=True)\n  (2): SiLU(inplace=True)\n)",
                "input_shape": [
                    1,
                    24,
                    150,
                    150
                ],
                "output_shape": [
                    1,
                    24,
                    150,
                    150
                ]
            },
…
                "input_shape": [
                    1,
                    24,
                    150,
                    150
                ],
                "output_shape": [
                    1,
                    24,
                    150,
                    150
                ]
            },
            {
                "name": "features.2",
                "type": "Sequential",
                "parameters": 0,
                "trainable_parameters": 0,
                "config": "Sequential(\n  (0): MBConv(\n    (block): Sequential(\n      (0): Conv2dNormActivation(\n        (0): Conv2d(24, 144, kernel_size=(1, 1), stride=(1, 1), bias=False)\n        (1): BatchNorm2d(144, eps=1e-05, momentum=0.1, affine=True, track_running_stats=True)\n        (2): SiLU(inplace=True)\n      )\n      (1): Conv2dNormActivation(\n        (0): Conv2d(144, 144, kernel_size=(3, 3), stride=(2, 2), padding=(1, 1), groups=144, bias=False)\n        (1): BatchNorm2d(144, eps=1e-05, momentum=0.1, affine=True, track_running_stats=True)\n        (2): SiLU(inplace=True)\n      )\n      (2): SqueezeExcitation(\n        (avgpool): AdaptiveAvgPool2d(output_size=1)\n        (fc1): Conv2d(144, 6, kernel_size=(1, 1), stride=(1, 1))\n        (fc2): Conv2d(6, 144, kernel_size=(1, 1), stride=(1, 1))\n        (activation): SiLU(inplace=True)\n        (scale_activation): Sigmoid()\n      )\n      (3): Conv2dNormActivation(\n        (0): Conv2d(144, 32, kernel_size=(1, 1), stride=(1, 1), bias=False)\n        (1): BatchNorm2d(32, eps=1e-05, momentum=0.1, affine=True, track_running_stats=True)\n      )\n    )\n    (stochastic_depth): StochasticDepth(p=0.015384615384615385, mode=row)\n  )\n  (1): MBConv(\n    (block): Sequential(\n      (0): Conv2dNormActivation(\n        (0): Conv2d(32, 192, kernel_size=(1, 1), stride=(1, 1), bias=False)\n        (1): BatchNorm2d(192, eps=1e-05, momentum=0.1, affine=True, track_running_stats=True)\n        (2): SiLU(inplace=True)\n      )\n      (1): Conv2dNormActivation(\n        (0): Conv2d(192, 192, kernel_size=(3, 3), stride=(1, 1), padding=(1, 1), groups=192, bias=False)\n        (1): BatchNorm2d(192, eps=1e-05, momentum=0.1, affine=True, track_running_stats=True)\n        (2): SiLU(inplace=True)\n      )\n      (2): SqueezeExcitation(\n        (avgpool): AdaptiveAvgPool2d(output_size=1)\n        (fc1): Conv2d(192, 8, kernel_size=(1, 1), stride=(1, 1))\n        (fc2): Conv2d(8, 192, kernel_size=(1, 1), stride=(1, 1))\n        (activation): SiLU(inplace=True)\n        (scale_activation): Sigmoid()\n      )\n      (3): Conv2dNormActivation(\n        (0): Conv2d(192, 32, kernel_size=(1, 1), stride=(1, 1), bias=False)\n        (1): BatchNorm2d(32, eps=1e-05, momentum=0.1, affine=True, track_running_stats=True)\n      )\n    )\n    (stochastic_depth): StochasticDepth(p=0.02307692307692308, mode=row)\n  )\n  (2): MBConv(\n    (block): Sequential(\n      (0): Conv2dNormActivation(\n        (0): Conv2d(32, 192, kernel_size=(1, 1), stride=(1, 1), bias=False)\n        (1): BatchNorm2d(192, eps=1e-05, momentum=0.1, affine=True, track_running_stats=True)\n        (2): SiLU(inplace=True)\n      )\n      (1): Conv2dNormActivation(\n        (0): Conv2d(192, 192, kernel_size=(3, 3), stride=(1, 1), padding=(1, 1), groups=192, bias=False)\n        (1): BatchNorm2d(192, eps=1e-05, momentum=0.1, affine=True, track_running_stats=True)\n        (2): SiLU(inplace=True)\n      )\n      (2): SqueezeExcitation(\n        (avgpool): AdaptiveAvgPool2d(output_size=1)\n        (fc1): Conv2d(192, 8, kernel_size=(1, 1), stride=(1, 1))\n        (fc2): Conv2d(8, 192, kernel_size=(1, 1), stride=(1, 1))\n        (activation): SiLU(inplace=True)\n        (scale_activation): Sigmoid()\n      )\n      (3): Conv2dNormActivation(\n        (0): Conv2d(192, 32, kernel_size=(1, 1), stride=(1, 1), bias=False)\n        (1): BatchNorm2d(32, eps=1e-05, momentum=0.1, affine=True, track_running_stats=True)\n      )\n    )\n    (stochastic_depth): StochasticDepth(p=0.03076923076923077, mode=row)\n  )\n)",
                "input_shape": [
                    1,
                    24,
                    150,
                    150
                ],
                "output_shape": [
                    1,
                    32,
                    75,
                    75
                ]
            },
            {
                "name": "features.2.0",
                "type": "MBConv",
                "parameters": 0,
                "trainable_parameters": 0,
                "config": "MBConv(\n  (block): Sequential(\n    (0): Conv2dNormActivation(\n      (0): Conv2d(24, 144, kernel_size=(1, 1), stride=(1, 1), bias=False)\n      (1): BatchNorm2d(144, eps=1e-05, momentum=0.1, affine=True, track_running_stats=True)\n      (2): SiLU(inplace=True)\n    )\n    (1): Conv2dNormActivation(\n      (0): Conv2d(144, 144, kernel_size=(3, 3), stride=(2, 2), padding=(1, 1), groups=144, bias=False)\n      (1): BatchNorm2d(144, eps=1e-05, momentum=0.1, affine=True, track_running_stats=True)\n      (2): SiLU(inplace=True)\n    )\n    (2): SqueezeExcitation(\n      (avgpool): AdaptiveAvgPool2d(output_size=1)\n      (fc1): Conv2d(144, 6, kernel_size=(1, 1), stride=(1, 1))\n      (fc2): Conv2d(6, 144, kernel_size=(1, 1), stride=(1, 1))\n      (activation): SiLU(inplace=True)\n      (scale_activation): Sigmoid()\n    )\n    (3): Conv2dNormActivation(\n      (0): Conv2d(144, 32, kernel_size=(1, 1), stride=(1, 1), bias=False)\n      (1): BatchNorm2d(32, eps=1e-05, momentum=0.1, affine=True, track_running_stats=True)\n    )\n  )\n  (stochastic_depth): StochasticDepth(p=0.015384615384615385, mode=row)\n)",
                "input_shape": [
                    1,
                    24,
                    150,
                    150
                ],
                "output_shape": [
                    1,
                    32,
                    75,
                    75
                ]
            },
            {
                "name": "features.2.0.block",
                "type": "Sequential",
                "parameters": 0,
                "trainable_parameters": 0,
                "config": "Sequential(\n  (0): Conv2dNormActivation(\n    (0): Conv2d(24, 144, kernel_size=(1, 1), stride=(1, 1), bias=False)\n    (1): BatchNorm2d(144, eps=1e-05, momentum=0.1, affine=True, track_running_stats=True)\n    (2): SiLU(inplace=True)\n  )\n  (1): Conv2dNormActivation(\n    (0): Conv2d(144, 144, kernel_size=(3, 3), stride=(2, 2), padding=(1, 1), groups=144, bias=False)\n    (1): BatchNorm2d(144, eps=1e-05, momentum=0.1, affine=True, track_running_stats=True)\n    (2): SiLU(inplace=True)\n  )\n  (2): SqueezeExcitation(\n    (avgpool): AdaptiveAvgPool2d(output_size=1)\n    (fc1): Conv2d(144, 6, kernel_size=(1, 1), stride=(1, 1))\n    (fc2): Conv2d(6, 144, kernel_size=(1, 1), stride=(1, 1))\n    (activation): SiLU(inplace=True)\n    (scale_activation): Sigmoid()\n  )\n  (3): Conv2dNormActivation(\n    (0): Conv2d(144, 32, kernel_size=(1, 1), stride=(1, 1), bias=False)\n    (1): BatchNorm2d(32, eps=1e-05, momentum=0.1, affine=True, track_running_stats=True)\n  )\n)",
                "input_shape": [
                    1,
                    24,
                    150,
                    150
                ],
                "output_shape": [
                    1,
                    32,
                    75,
                    75
                ]
            },
            {
                "name": "features.2.0.block.0",
                "type": "Conv2dNormActivation",
                "parameters": 0,
                "trainable_parameters": 0,
                "config": "Conv2dNormActivation(\n  (0): Conv2d(24, 144, kernel_size=(1, 1), stride=(1, 1), bias=False)\n  (1): BatchNorm2d(144, eps=1e-05, momentum=0.1, affine=True, track_running_stats=True)\n  (2): SiLU(inplace=True)\n)",
                "input_shape": [
                    1,
                    24,
                    150,
                    150
                ],
                "output_shape": [
                    1,
                    144,
                    150,
                    150
                ]
            },
…
                "name": "features.2.0.stochastic_depth",
                "type": "StochasticDepth",
                "parameters": 0,
                "trainable_parameters": 0,
                "config": "StochasticDepth(p=0.015384615384615385, mode=row)",
                "input_shape": null,
                "output_shape": null
            },
            {
                "name": "features.2.1",
                "type": "MBConv",
                "parameters": 0,
                "trainable_parameters": 0,
                "config": "MBConv(\n  (block): Sequential(\n    (0): Conv2dNormActivation(\n      (0): Conv2d(32, 192, kernel_size=(1, 1), stride=(1, 1), bias=False)\n      (1): BatchNorm2d(192, eps=1e-05, momentum=0.1, affine=True, track_running_stats=True)\n      (2): SiLU(inplace=True)\n    )\n    (1): Conv2dNormActivation(\n      (0): Conv2d(192, 192, kernel_size=(3, 3), stride=(1, 1), padding=(1, 1), groups=192, bias=False)\n      (1): BatchNorm2d(192, eps=1e-05, momentum=0.1, affine=True, track_running_stats=True)\n      (2): SiLU(inplace=True)\n    )\n    (2): SqueezeExcitation(\n      (avgpool): AdaptiveAvgPool2d(output_size=1)\n      (fc1): Conv2d(192, 8, kernel_size=(1, 1), stride=(1, 1))\n      (fc2): Conv2d(8, 192, kernel_size=(1, 1), stride=(1, 1))\n      (activation): SiLU(inplace=True)\n      (scale_activation): Sigmoid()\n    )\n    (3): Conv2dNormActivation(\n      (0): Conv2d(192, 32, kernel_size=(1, 1), stride=(1, 1), bias=False)\n      (1): BatchNorm2d(32, eps=1e-05, momentum=0.1, affine=True, track_running_stats=True)\n    )\n  )\n  (stochastic_depth): StochasticDepth(p=0.02307692307692308, mode=row)\n)",
                "input_shape": [
                    1,
                    32,
                    75,
                    75
                ],
                "output_shape": [
                    1,
                    32,
                    75,
                    75
                ]
            },
            {
                "name": "features.2.1.block",
                "type": "Sequential",
                "parameters": 0,
                "trainable_parameters": 0,
                "config": "Sequential(\n  (0): Conv2dNormActivation(\n    (0): Conv2d(32, 192, kernel_size=(1, 1), stride=(1, 1), bias=False)\n    (1): BatchNorm2d(192, eps=1e-05, momentum=0.1, affine=True, track_running_stats=True)\n    (2): SiLU(inplace=True)\n  )\n  (1): Conv2dNormActivation(\n    (0): Conv2d(192, 192, kernel_size=(3, 3), stride=(1, 1), padding=(1, 1), groups=192, bias=False)\n    (1): BatchNorm2d(192, eps=1e-05, momentum=0.1, affine=True, track_running_stats=True)\n    (2): SiLU(inplace=True)\n  )\n  (2): SqueezeExcitation(\n    (avgpool): AdaptiveAvgPool2d(output_size=1)\n    (fc1): Conv2d(192, 8, kernel_size=(1, 1), stride=(1, 1))\n    (fc2): Conv2d(8, 192, kernel_size=(1, 1), stride=(1, 1))\n    (activation): SiLU(inplace=True)\n    (scale_activation): Sigmoid()\n  )\n  (3): Conv2dNormActivation(\n    (0): Conv2d(192, 32, kernel_size=(1, 1), stride=(1, 1), bias=False)\n    (1): BatchNorm2d(32, eps=1e-05, momentum=0.1, affine=True, track_running_stats=True)\n  )\n)",
                "input_shape": [
                    1,
                    32,
                    75,
                    75
                ],
                "output_shape": [
                    1,
                    32,
                    75,
                    75
                ]
            },
            {
                "name": "features.2.1.block.0",
                "type": "Conv2dNormActivation",
                "parameters": 0,
                "trainable_parameters": 0,
                "config": "Conv2dNormActivation(\n  (0): Conv2d(32, 192, kernel_size=(1, 1), stride=(1, 1), bias=False)\n  (1): BatchNorm2d(192, eps=1e-05, momentum=0.1, affine=True, track_running_stats=True)\n  (2): SiLU(inplace=True)\n)",
                "input_shape": [
                    1,
                    32,
                    75,
                    75
                ],
                "output_shape": [
                    1,
                    192,
                    75,
                    75
                ]
            },
…
                "config": "StochasticDepth(p=0.03076923076923077, mode=row)",
                "input_shape": [
                    1,
                    32,
                    75,
                    75
                ],
                "output_shape": [
                    1,
                    32,
                    75,
                    75
                ]
            },
            {
                "name": "features.3",
                "type": "Sequential",
                "parameters": 0,
                "trainable_parameters": 0,
                "config": "Sequential(\n  (0): MBConv(\n    (block): Sequential(\n      (0): Conv2dNormActivation(\n        (0): Conv2d(32, 192, kernel_size=(1, 1), stride=(1, 1), bias=False)\n        (1): BatchNorm2d(192, eps=1e-05, momentum=0.1, affine=True, track_running_stats=True)\n        (2): SiLU(inplace=True)\n      )\n      (1): Conv2dNormActivation(\n        (0): Conv2d(192, 192, kernel_size=(5, 5), stride=(2, 2), padding=(2, 2), groups=192, bias=False)\n        (1): BatchNorm2d(192, eps=1e-05, momentum=0.1, affine=True, track_running_stats=True)\n        (2): SiLU(inplace=True)\n      )\n      (2): SqueezeExcitation(\n        (avgpool): AdaptiveAvgPool2d(output_size=1)\n        (fc1): Conv2d(192, 8, kernel_size=(1, 1), stride=(1, 1))\n        (fc2): Conv2d(8, 192, kernel_size=(1, 1), stride=(1, 1))\n        (activation): SiLU(inplace=True)\n        (scale_activation): Sigmoid()\n      )\n      (3): Conv2dNormActivation(\n        (0): Conv2d(192, 48, kernel_size=(1, 1), stride=(1, 1), bias=False)\n        (1): BatchNorm2d(48, eps=1e-05, momentum=0.1, affine=True, track_running_stats=True)\n      )\n    )\n    (stochastic_depth): StochasticDepth(p=0.038461538461538464, mode=row)\n  )\n  (1): MBConv(\n    (block): Sequential(\n      (0): Conv2dNormActivation(\n        (0): Conv2d(48, 288, kernel_size=(1, 1), stride=(1, 1), bias=False)\n        (1): BatchNorm2d(288, eps=1e-05, momentum=0.1, affine=True, track_running_stats=True)\n        (2): SiLU(inplace=True)\n      )\n      (1): Conv2dNormActivation(\n        (0): Conv2d(288, 288, kernel_size=(5, 5), stride=(1, 1), padding=(2, 2), groups=288, bias=False)\n        (1): BatchNorm2d(288, eps=1e-05, momentum=0.1, affine=True, track_running_stats=True)\n        (2): SiLU(inplace=True)\n      )\n      (2): SqueezeExcitation(\n        (avgpool): AdaptiveAvgPool2d(output_size=1)\n        (fc1): Conv2d(288, 12, kernel_size=(1, 1), stride=(1, 1))\n        (fc2): Conv2d(12, 288, kernel_size=(1, 1), stride=(1, 1))\n        (activation): SiLU(inplace=True)\n        (scale_activation): Sigmoid()\n      )\n      (3): Conv2dNormActivation(\n        (0): Conv2d(288, 48, kernel_size=(1, 1), stride=(1, 1), bias=False)\n        (1): BatchNorm2d(48, eps=1e-05, momentum=0.1, affine=True, track_running_stats=True)\n      )\n    )\n    (stochastic_depth): StochasticDepth(p=0.04615384615384616, mode=row)\n  )\n  (2): MBConv(\n    (block): Sequential(\n      (0): Conv2dNormActivation(\n        (0): Conv2d(48, 288, kernel_size=(1, 1), stride=(1, 1), bias=False)\n        (1): BatchNorm2d(288, eps=1e-05, momentum=0.1, affine=True, track_running_stats=True)\n        (2): SiLU(inplace=True)\n      )\n      (1): Conv2dNormActivation(\n        (0): Conv2d(288, 288, kernel_size=(5, 5), stride=(1, 1), padding=(2, 2), groups=288, bias=False)\n        (1): BatchNorm2d(288, eps=1e-05, momentum=0.1, affine=True, track_running_stats=True)\n        (2): SiLU(inplace=True)\n      )\n      (2): SqueezeExcitation(\n        (avgpool): AdaptiveAvgPool2d(output_size=1)\n        (fc1): Conv2d(288, 12, kernel_size=(1, 1), stride=(1, 1))\n        (fc2): Conv2d(12, 288, kernel_size=(1, 1), stride=(1, 1))\n        (activation): SiLU(inplace=True)\n        (scale_activation): Sigmoid()\n      )\n      (3): Conv2dNormActivation(\n        (0): Conv2d(288, 48, kernel_size=(1, 1), stride=(1, 1), bias=False)\n        (1): BatchNorm2d(48, eps=1e-05, momentum=0.1, affine=True, track_running_stats=True)\n      )\n    )\n    (stochastic_depth): StochasticDepth(p=0.05384615384615385, mode=row)\n  )\n)",
                "input_shape": [
                    1,
                    32,
                    75,
                    75
                ],
                "output_shape": [
                    1,
                    48,
                    38,
                    38
                ]
            },
            {
                "name": "features.3.0",
                "type": "MBConv",
                "parameters": 0,
                "trainable_parameters": 0,
                "config": "MBConv(\n  (block): Sequential(\n    (0): Conv2dNormActivation(\n      (0): Conv2d(32, 192, kernel_size=(1, 1), stride=(1, 1), bias=False)\n      (1): BatchNorm2d(192, eps=1e-05, momentum=0.1, affine=True, track_running_stats=True)\n      (2): SiLU(inplace=True)\n    )\n    (1): Conv2dNormActivation(\n      (0): Conv2d(192, 192, kernel_size=(5, 5), stride=(2, 2), padding=(2, 2), groups=192, bias=False)\n      (1): BatchNorm2d(192, eps=1e-05, momentum=0.1, affine=True, track_running_stats=True)\n      (2): SiLU(inplace=True)\n    )\n    (2): SqueezeExcitation(\n      (avgpool): AdaptiveAvgPool2d(output_size=1)\n      (fc1): Conv2d(192, 8, kernel_size=(1, 1), stride=(1, 1))\n      (fc2): Conv2d(8, 192, kernel_size=(1, 1), stride=(1, 1))\n      (activation): SiLU(inplace=True)\n      (scale_activation): Sigmoid()\n    )\n    (3): Conv2dNormActivation(\n      (0): Conv2d(192, 48, kernel_size=(1, 1), stride=(1, 1), bias=False)\n      (1): BatchNorm2d(48, eps=1e-05, momentum=0.1, affine=True, track_running_stats=True)\n    )\n  )\n  (stochastic_depth): StochasticDepth(p=0.038461538461538464, mode=row)\n)",
                "input_shape": [
                    1,
                    32,
                    75,
                    75
                ],
                "output_shape": [
                    1,
                    48,
                    38,
                    38
                ]
            },
            {
                "name": "features.3.0.block",
                "type": "Sequential",
                "parameters": 0,
                "trainable_parameters": 0,
                "config": "Sequential(\n  (0): Conv2dNormActivation(\n    (0): Conv2d(32, 192, kernel_size=(1, 1), stride=(1, 1), bias=False)\n    (1): BatchNorm2d(192, eps=1e-05, momentum=0.1, affine=True, track_running_stats=True)\n    (2): SiLU(inplace=True)\n  )\n  (1): Conv2dNormActivation(\n    (0): Conv2d(192, 192, kernel_size=(5, 5), stride=(2, 2), padding=(2, 2), groups=192, bias=False)\n    (1): BatchNorm2d(192, eps=1e-05, momentum=0.1, affine=True, track_running_stats=True)\n    (2): SiLU(inplace=True)\n  )\n  (2): SqueezeExcitation(\n    (avgpool): AdaptiveAvgPool2d(output_size=1)\n    (fc1): Conv2d(192, 8, kernel_size=(1, 1), stride=(1, 1))\n    (fc2): Conv2d(8, 192, kernel_size=(1, 1), stride=(1, 1))\n    (activation): SiLU(inplace=True)\n    (scale_activation): Sigmoid()\n  )\n  (3): Conv2dNormActivation(\n    (0): Conv2d(192, 48, kernel_size=(1, 1), stride=(1, 1), bias=False)\n    (1): BatchNorm2d(48, eps=1e-05, momentum=0.1, affine=True, track_running_stats=True)\n  )\n)",
                "input_shape": [
                    1,
                    32,
                    75,
                    75
                ],
                "output_shape": [
                    1,
                    48,
                    38,
                    38
                ]
            },
            {
                "name": "features.3.0.block.0",
                "type": "Conv2dNormActivation",
                "parameters": 0,
                "trainable_parameters": 0,
                "config": "Conv2dNormActivation(\n  (0): Conv2d(32, 192, kernel_size=(1, 1), stride=(1, 1), bias=False)\n  (1): BatchNorm2d(192, eps=1e-05, momentum=0.1, affine=True, track_running_stats=True)\n  (2): SiLU(inplace=True)\n)",
                "input_shape": [
                    1,
                    32,
                    75,
                    75
                ],
                "output_shape": [
                    1,
                    192,
                    75,
                    75
                ]
            },
…
                "name": "features.3.0.stochastic_depth",
                "type": "StochasticDepth",
                "parameters": 0,
                "trainable_parameters": 0,
                "config": "StochasticDepth(p=0.038461538461538464, mode=row)",
                "input_shape": null,
                "output_shape": null
            },
            {
                "name": "features.3.1",
                "type": "MBConv",
                "parameters": 0,
                "trainable_parameters": 0,
                "config": "MBConv(\n  (block): Sequential(\n    (0): Conv2dNormActivation(\n      (0): Conv2d(48, 288, kernel_size=(1, 1), stride=(1, 1), bias=False)\n      (1): BatchNorm2d(288, eps=1e-05, momentum=0.1, affine=True, track_running_stats=True)\n      (2): SiLU(inplace=True)\n    )\n    (1): Conv2dNormActivation(\n      (0): Conv2d(288, 288, kernel_size=(5, 5), stride=(1, 1), padding=(2, 2), groups=288, bias=False)\n      (1): BatchNorm2d(288, eps=1e-05, momentum=0.1, affine=True, track_running_stats=True)\n      (2): SiLU(inplace=True)\n    )\n    (2): SqueezeExcitation(\n      (avgpool): AdaptiveAvgPool2d(output_size=1)\n      (fc1): Conv2d(288, 12, kernel_size=(1, 1), stride=(1, 1))\n      (fc2): Conv2d(12, 288, kernel_size=(1, 1), stride=(1, 1))\n      (activation): SiLU(inplace=True)\n      (scale_activation): Sigmoid()\n    )\n    (3): Conv2dNormActivation(\n      (0): Conv2d(288, 48, kernel_size=(1, 1), stride=(1, 1), bias=False)\n      (1): BatchNorm2d(48, eps=1e-05, momentum=0.1, affine=True, track_running_stats=True)\n    )\n  )\n  (stochastic_depth): StochasticDepth(p=0.04615384615384616, mode=row)\n)",
                "input_shape": [
                    1,
                    48,
                    38,
                    38
                ],
                "output_shape": [
                    1,
                    48,
                    38,
                    38
                ]
            },
            {
                "name": "features.3.1.block",
                "type": "Sequential",
                "parameters": 0,
                "trainable_parameters": 0,
                "config": "Sequential(\n  (0): Conv2dNormActivation(\n    (0): Conv2d(48, 288, kernel_size=(1, 1), stride=(1, 1), bias=False)\n    (1): BatchNorm2d(288, eps=1e-05, momentum=0.1, affine=True, track_running_stats=True)\n    (2): SiLU(inplace=True)\n  )\n  (1): Conv2dNormActivation(\n    (0): Conv2d(288, 288, kernel_size=(5, 5), stride=(1, 1), padding=(2, 2), groups=288, bias=False)\n    (1): BatchNorm2d(288, eps=1e-05, momentum=0.1, affine=True, track_running_stats=True)\n    (2): SiLU(inplace=True)\n  )\n  (2): SqueezeExcitation(\n    (avgpool): AdaptiveAvgPool2d(output_size=1)\n    (fc1): Conv2d(288, 12, kernel_size=(1, 1), stride=(1, 1))\n    (fc2): Conv2d(12, 288, kernel_size=(1, 1), stride=(1, 1))\n    (activation): SiLU(inplace=True)\n    (scale_activation): Sigmoid()\n  )\n  (3): Conv2dNormActivation(\n    (0): Conv2d(288, 48, kernel_size=(1, 1), stride=(1, 1), bias=False)\n    (1): BatchNorm2d(48, eps=1e-05, momentum=0.1, affine=True, track_running_stats=True)\n  )\n)",
                "input_shape": [
                    1,
                    48,
                    38,
                    38
                ],
                "output_shape": [
                    1,
                    48,
                    38,
                    38
                ]
            },
            {
                "name": "features.3.1.block.0",
                "type": "Conv2dNormActivation",
                "parameters": 0,
                "trainable_parameters": 0,
                "config": "Conv2dNormActivation(\n  (0): Conv2d(48, 288, kernel_size=(1, 1), stride=(1, 1), bias=False)\n  (1): BatchNorm2d(288, eps=1e-05, momentum=0.1, affine=True, track_running_stats=True)\n  (2): SiLU(inplace=True)\n)",
                "input_shape": [
                    1,
                    48,
                    38,
                    38
                ],
                "output_shape": [
                    1,
                    288,
                    38,
                    38
                ]
            },
…
                "config": "StochasticDepth(p=0.05384615384615385, mode=row)",
                "input_shape": [
                    1,
                    48,
                    38,
                    38
                ],
                "output_shape": [
                    1,
                    48,
                    38,
                    38
                ]
            },
            {
                "name": "features.4",
                "type": "Sequential",
                "parameters": 0,
                "trainable_parameters": 0,
                "config": "Sequential(\n  (0): MBConv(\n    (block): Sequential(\n      (0): Conv2dNormActivation(\n        (0): Conv2d(48, 288, kernel_size=(1, 1), stride=(1, 1), bias=False)\n        (1): BatchNorm2d(288, eps=1e-05, momentum=0.1, affine=True, track_running_stats=True)\n        (2): SiLU(inplace=True)\n      )\n      (1): Conv2dNormActivation(\n        (0): Conv2d(288, 288, kernel_size=(3, 3), stride=(2, 2), padding=(1, 1), groups=288, bias=False)\n        (1): BatchNorm2d(288, eps=1e-05, momentum=0.1, affine=True, track_running_stats=True)\n        (2): SiLU(inplace=True)\n      )\n      (2): SqueezeExcitation(\n        (avgpool): AdaptiveAvgPool2d(output_size=1)\n        (fc1): Conv2d(288, 12, kernel_size=(1, 1), stride=(1, 1))\n        (fc2): Conv2d(12, 288, kernel_size=(1, 1), stride=(1, 1))\n        (activation): SiLU(inplace=True)\n        (scale_activation): Sigmoid()\n      )\n      (3): Conv2dNormActivation(\n        (0): Conv2d(288, 96, kernel_size=(1, 1), stride=(1, 1), bias=False)\n        (1): BatchNorm2d(96, eps=1e-05, momentum=0.1, affine=True, track_running_stats=True)\n      )\n    )\n    (stochastic_depth): StochasticDepth(p=0.06153846153846154, mode=row)\n  )\n  (1): MBConv(\n    (block): Sequential(\n      (0): Conv2dNormActivation(\n        (0): Conv2d(96, 576, kernel_size=(1, 1), stride=(1, 1), bias=False)\n        (1): BatchNorm2d(576, eps=1e-05, momentum=0.1, affine=True, track_running_stats=True)\n        (2): SiLU(inplace=True)\n      )\n      (1): Conv2dNormActivation(\n        (0): Conv2d(576, 576, kernel_size=(3, 3), stride=(1, 1), padding=(1, 1), groups=576, bias=False)\n        (1): BatchNorm2d(576, eps=1e-05, momentum=0.1, affine=True, track_running_stats=True)\n        (2): SiLU(inplace=True)\n      )\n      (2): SqueezeExcitation(\n        (avgpool): AdaptiveAvgPool2d(output_size=1)\n        (fc1): Conv2d(576, 24, kernel_size=(1, 1), stride=(1, 1))\n        (fc2): Conv2d(24, 576, kernel_size=(1, 1), stride=(1, 1))\n        (activation): SiLU(inplace=True)\n        (scale_activation): Sigmoid()\n      )\n      (3): Conv2dNormActivation(\n        (0): Conv2d(576, 96, kernel_size=(1, 1), stride=(1, 1), bias=False)\n        (1): BatchNorm2d(96, eps=1e-05, momentum=0.1, affine=True, track_running_stats=True)\n      )\n    )\n    (stochastic_depth): StochasticDepth(p=0.06923076923076923, mode=row)\n  )\n  (2): MBConv(\n    (block): Sequential(\n      (0): Conv2dNormActivation(\n        (0): Conv2d(96, 576, kernel_size=(1, 1), stride=(1, 1), bias=False)\n        (1): BatchNorm2d(576, eps=1e-05, momentum=0.1, affine=True, track_running_stats=True)\n        (2): SiLU(inplace=True)\n      )\n      (1): Conv2dNormActivation(\n        (0): Conv2d(576, 576, kernel_size=(3, 3), stride=(1, 1), padding=(1, 1), groups=576, bias=False)\n        (1): BatchNorm2d(576, eps=1e-05, momentum=0.1, affine=True, track_running_stats=True)\n        (2): SiLU(inplace=True)\n      )\n      (2): SqueezeExcitation(\n        (avgpool): AdaptiveAvgPool2d(output_size=1)\n        (fc1): Conv2d(576, 24, kernel_size=(1, 1), stride=(1, 1))\n        (fc2): Conv2d(24, 576, kernel_size=(1, 1), stride=(1, 1))\n        (activation): SiLU(inplace=True)\n        (scale_activation): Sigmoid()\n      )\n      (3): Conv2dNormActivation(\n        (0): Conv2d(576, 96, kernel_size=(1, 1), stride=(1, 1), bias=False)\n        (1): BatchNorm2d(96, eps=1e-05, momentum=0.1, affine=True, track_running_stats=True)\n      )\n    )\n    (stochastic_depth): StochasticDepth(p=0.07692307692307693, mode=row)\n  )\n  (3): MBConv(\n    (block): Sequential(\n      (0): Conv2dNormActivation(\n        (0): Conv2d(96, 576, kernel_size=(1, 1), stride=(1, 1), bias=False)\n        (1): BatchNorm2d(576, eps=1e-05, momentum=0.1, affine=True, track_running_stats=True)\n        (2): SiLU(inplace=True)\n      )\n      (1): Conv2dNormActivation(\n        (0): Conv2d(576, 576, kernel_size=(3, 3), stride=(1, 1), padding=(1, 1), groups=576, bias=False)\n        (1): BatchNorm2d(576, eps=1e-05, momentum=0.1, affine=True, track_running_stats=True)\n        (2): SiLU(inplace=True)\n      )\n      (2): SqueezeExcitation(\n        (avgpool): AdaptiveAvgPool2d(output_size=1)\n        (fc1): Conv2d(576, 24, kernel_size=(1, 1), stride=(1, 1))\n        (fc2): Conv2d(24, 576, kernel_size=(1, 1), stride=(1, 1))\n        (activation): SiLU(inplace=True)\n        (scale_activation): Sigmoid()\n      )\n      (3): Conv2dNormActivation(\n        (0): Conv2d(576, 96, kernel_size=(1, 1), stride=(1, 1), bias=False)\n        (1): BatchNorm2d(96, eps=1e-05, momentum=0.1, affine=True, track_running_stats=True)\n      )\n    )\n    (stochastic_depth): StochasticDepth(p=0.08461538461538462, mode=row)\n  )\n  (4): MBConv(\n    (block): Sequential(\n      (0): Conv2dNormActivation(\n        (0): Conv2d(96, 576, kernel_size=(1, 1), stride=(1, 1), bias=False)\n        (1): BatchNorm2d(576, eps=1e-05, momentum=0.1, affine=True, track_running_stats=True)\n        (2): SiLU(inplace=True)\n      )\n      (1): Conv2dNormActivation(\n        (0): Conv2d(576, 576, kernel_size=(3, 3), stride=(1, 1), padding=(1, 1), groups=576, bias=False)\n        (1): BatchNorm2d(576, eps=1e-05, momentum=0.1, affine=True, track_running_stats=True)\n        (2): SiLU(inplace=True)\n      )\n      (2): SqueezeExcitation(\n        (avgpool): AdaptiveAvgPool2d(output_size=1)\n        (fc1): Conv2d(576, 24, kernel_size=(1, 1), stride=(1, 1))\n        (fc2): Conv2d(24, 576, kernel_size=(1, 1), stride=(1, 1))\n        (activation): SiLU(inplace=True)\n        (scale_activation): Sigmoid()\n      )\n      (3): Conv2dNormActivation(\n        (0): Conv2d(576, 96, kernel_size=(1, 1), stride=(1, 1), bias=False)\n        (1): BatchNorm2d(96, eps=1e-05, momentum=0.1, affine=True, track_running_stats=True)\n      )\n    )\n    (stochastic_depth): StochasticDepth(p=0.09230769230769233, mode=row)\n  )\n)",
                "input_shape": [
                    1,
                    48,
                    38,
                    38
                ],
                "output_shape": [
                    1,
                    96,
                    19,
                    19
                ]
            },
            {
                "name": "features.4.0",
                "type": "MBConv",
                "parameters": 0,
                "trainable_parameters": 0,
                "config": "MBConv(\n  (block): Sequential(\n    (0): Conv2dNormActivation(\n      (0): Conv2d(48, 288, kernel_size=(1, 1), stride=(1, 1), bias=False)\n      (1): BatchNorm2d(288, eps=1e-05, momentum=0.1, affine=True, track_running_stats=True)\n      (2): SiLU(inplace=True)\n    )\n    (1): Conv2dNormActivation(\n      (0): Conv2d(288, 288, kernel_size=(3, 3), stride=(2, 2), padding=(1, 1), groups=288, bias=False)\n      (1): BatchNorm2d(288, eps=1e-05, momentum=0.1, affine=True, track_running_stats=True)\n      (2): SiLU(inplace=True)\n    )\n    (2): SqueezeExcitation(\n      (avgpool): AdaptiveAvgPool2d(output_size=1)\n      (fc1): Conv2d(288, 12, kernel_size=(1, 1), stride=(1, 1))\n      (fc2): Conv2d(12, 288, kernel_size=(1, 1), stride=(1, 1))\n      (activation): SiLU(inplace=True)\n      (scale_activation): Sigmoid()\n    )\n    (3): Conv2dNormActivation(\n      (0): Conv2d(288, 96, kernel_size=(1, 1), stride=(1, 1), bias=False)\n      (1): BatchNorm2d(96, eps=1e-05, momentum=0.1, affine=True, track_running_stats=True)\n    )\n  )\n  (stochastic_depth): StochasticDepth(p=0.06153846153846154, mode=row)\n)",
                "input_shape": [
                    1,
                    48,
                    38,
                    38
                ],
                "output_shape": [
                    1,
                    96,
                    19,
                    19
                ]
            },
            {
                "name": "features.4.0.block",
                "type": "Sequential",
                "parameters": 0,
                "trainable_parameters": 0,
                "config": "Sequential(\n  (0): Conv2dNormActivation(\n    (0): Conv2d(48, 288, kernel_size=(1, 1), stride=(1, 1), bias=False)\n    (1): BatchNorm2d(288, eps=1e-05, momentum=0.1, affine=True, track_running_stats=True)\n    (2): SiLU(inplace=True)\n  )\n  (1): Conv2dNormActivation(\n    (0): Conv2d(288, 288, kernel_size=(3, 3), stride=(2, 2), padding=(1, 1), groups=288, bias=False)\n    (1): BatchNorm2d(288, eps=1e-05, momentum=0.1, affine=True, track_running_stats=True)\n    (2): SiLU(inplace=True)\n  )\n  (2): SqueezeExcitation(\n    (avgpool): AdaptiveAvgPool2d(output_size=1)\n    (fc1): Conv2d(288, 12, kernel_size=(1, 1), stride=(1, 1))\n    (fc2): Conv2d(12, 288, kernel_size=(1, 1), stride=(1, 1))\n    (activation): SiLU(inplace=True)\n    (scale_activation): Sigmoid()\n  )\n  (3): Conv2dNormActivation(\n    (0): Conv2d(288, 96, kernel_size=(1, 1), stride=(1, 1), bias=False)\n    (1): BatchNorm2d(96, eps=1e-05, momentum=0.1, affine=True, track_running_stats=True)\n  )\n)",
                "input_shape": [
                    1,
                    48,
                    38,
                    38
                ],
                "output_shape": [
                    1,
                    96,
                    19,
                    19
                ]
            },
            {
                "name": "features.4.0.block.0",
                "type": "Conv2dNormActivation",
                "parameters": 0,
                "trainable_parameters": 0,
                "config": "Conv2dNormActivation(\n  (0): Conv2d(48, 288, kernel_size=(1, 1), stride=(1, 1), bias=False)\n  (1): BatchNorm2d(288, eps=1e-05, momentum=0.1, affine=True, track_running_stats=True)\n  (2): SiLU(inplace=True)\n)",
                "input_shape": [
                    1,
                    48,
                    38,
                    38
                ],
                "output_shape": [
                    1,
                    288,
                    38,
                    38
                ]
            },
…
                "name": "features.4.0.stochastic_depth",
                "type": "StochasticDepth",
                "parameters": 0,
                "trainable_parameters": 0,
                "config": "StochasticDepth(p=0.06153846153846154, mode=row)",
                "input_shape": null,
                "output_shape": null
            },
            {
                "name": "features.4.1",
                "type": "MBConv",
                "parameters": 0,
                "trainable_parameters": 0,
                "config": "MBConv(\n  (block): Sequential(\n    (0): Conv2dNormActivation(\n      (0): Conv2d(96, 576, kernel_size=(1, 1), stride=(1, 1), bias=False)\n      (1): BatchNorm2d(576, eps=1e-05, momentum=0.1, affine=True, track_running_stats=True)\n      (2): SiLU(inplace=True)\n    )\n    (1): Conv2dNormActivation(\n      (0): Conv2d(576, 576, kernel_size=(3, 3), stride=(1, 1), padding=(1, 1), groups=576, bias=False)\n      (1): BatchNorm2d(576, eps=1e-05, momentum=0.1, affine=True, track_running_stats=True)\n      (2): SiLU(inplace=True)\n    )\n    (2): SqueezeExcitation(\n      (avgpool): AdaptiveAvgPool2d(output_size=1)\n      (fc1): Conv2d(576, 24, kernel_size=(1, 1), stride=(1, 1))\n      (fc2): Conv2d(24, 576, kernel_size=(1, 1), stride=(1, 1))\n      (activation): SiLU(inplace=True)\n      (scale_activation): Sigmoid()\n    )\n    (3): Conv2dNormActivation(\n      (0): Conv2d(576, 96, kernel_size=(1, 1), stride=(1, 1), bias=False)\n      (1): BatchNorm2d(96, eps=1e-05, momentum=0.1, affine=True, track_running_stats=True)\n    )\n  )\n  (stochastic_depth): StochasticDepth(p=0.06923076923076923, mode=row)\n)",
                "input_shape": [
                    1,
                    96,
                    19,
                    19
                ],
                "output_shape": [
                    1,
                    96,
                    19,
                    19
                ]
            },
            {
                "name": "features.4.1.block",
                "type": "Sequential",
                "parameters": 0,
                "trainable_parameters": 0,
                "config": "Sequential(\n  (0): Conv2dNormActivation(\n    (0): Conv2d(96, 576, kernel_size=(1, 1), stride=(1, 1), bias=False)\n    (1): BatchNorm2d(576, eps=1e-05, momentum=0.1, affine=True, track_running_stats=True)\n    (2): SiLU(inplace=True)\n  )\n  (1): Conv2dNormActivation(\n    (0): Conv2d(576, 576, kernel_size=(3, 3), stride=(1, 1), padding=(1, 1), groups=576, bias=False)\n    (1): BatchNorm2d(576, eps=1e-05, momentum=0.1, affine=True, track_running_stats=True)\n    (2): SiLU(inplace=True)\n  )\n  (2): SqueezeExcitation(\n    (avgpool): AdaptiveAvgPool2d(output_size=1)\n    (fc1): Conv2d(576, 24, kernel_size=(1, 1), stride=(1, 1))\n    (fc2): Conv2d(24, 576, kernel_size=(1, 1), stride=(1, 1))\n    (activation): SiLU(inplace=True)\n    (scale_activation): Sigmoid()\n  )\n  (3): Conv2dNormActivation(\n    (0): Conv2d(576, 96, kernel_size=(1, 1), stride=(1, 1), bias=False)\n    (1): BatchNorm2d(96, eps=1e-05, momentum=0.1, affine=True, track_running_stats=True)\n  )\n)",
                "input_shape": [
                    1,
                    96,
                    19,
                    19
                ],
                "output_shape": [
                    1,
                    96,
                    19,
                    19
                ]
            },
            {
                "name": "features.4.1.block.0",
                "type": "Conv2dNormActivation",
                "parameters": 0,
                "trainable_parameters": 0,
                "config": "Conv2dNormActivation(\n  (0): Conv2d(96, 576, kernel_size=(1, 1), stride=(1, 1), bias=False)\n  (1): BatchNorm2d(576, eps=1e-05, momentum=0.1, affine=True, track_running_stats=True)\n  (2): SiLU(inplace=True)\n)",
                "input_shape": [
                    1,
                    96,
                    19,
                    19
                ],
                "output_shape": [
                    1,
                    576,
                    19,
                    19
                ]
            },
…
                "config": "StochasticDepth(p=0.09230769230769233, mode=row)",
                "input_shape": [
                    1,
                    96,
                    19,
                    19
                ],
                "output_shape": [
                    1,
                    96,
                    19,
                    19
                ]
            },
            {
                "name": "features.5",
                "type": "Sequential",
                "parameters": 0,
                "trainable_parameters": 0,
                "config": "Sequential(\n  (0): MBConv(\n    (block): Sequential(\n      (0): Conv2dNormActivation(\n        (0): Conv2d(96, 576, kernel_size=(1, 1), stride=(1, 1), bias=False)\n        (1): BatchNorm2d(576, eps=1e-05, momentum=0.1, affine=True, track_running_stats=True)\n        (2): SiLU(inplace=True)\n      )\n      (1): Conv2dNormActivation(\n        (0): Conv2d(576, 576, kernel_size=(5, 5), stride=(1, 1), padding=(2, 2), groups=576, bias=False)\n        (1): BatchNorm2d(576, eps=1e-05, momentum=0.1, affine=True, track_running_stats=True)\n        (2): SiLU(inplace=True)\n      )\n      (2): SqueezeExcitation(\n        (avgpool): AdaptiveAvgPool2d(output_size=1)\n        (fc1): Conv2d(576, 24, kernel_size=(1, 1), stride=(1, 1))\n        (fc2): Conv2d(24, 576, kernel_size=(1, 1), stride=(1, 1))\n        (activation): SiLU(inplace=True)\n        (scale_activation): Sigmoid()\n      )\n      (3): Conv2dNormActivation(\n        (0): Conv2d(576, 136, kernel_size=(1, 1), stride=(1, 1), bias=False)\n        (1): BatchNorm2d(136, eps=1e-05, momentum=0.1, affine=True, track_running_stats=True)\n      )\n    )\n    (stochastic_depth): StochasticDepth(p=0.1, mode=row)\n  )\n  (1): MBConv(\n    (block): Sequential(\n      (0): Conv2dNormActivation(\n        (0): Conv2d(136, 816, kernel_size=(1, 1), stride=(1, 1), bias=False)\n        (1): BatchNorm2d(816, eps=1e-05, momentum=0.1, affine=True, track_running_stats=True)\n        (2): SiLU(inplace=True)\n      )\n      (1): Conv2dNormActivation(\n        (0): Conv2d(816, 816, kernel_size=(5, 5), stride=(1, 1), padding=(2, 2), groups=816, bias=False)\n        (1): BatchNorm2d(816, eps=1e-05, momentum=0.1, affine=True, track_running_stats=True)\n        (2): SiLU(inplace=True)\n      )\n      (2): SqueezeExcitation(\n        (avgpool): AdaptiveAvgPool2d(output_size=1)\n        (fc1): Conv2d(816, 34, kernel_size=(1, 1), stride=(1, 1))\n        (fc2): Conv2d(34, 816, kernel_size=(1, 1), stride=(1, 1))\n        (activation): SiLU(inplace=True)\n        (scale_activation): Sigmoid()\n      )\n      (3): Conv2dNormActivation(\n        (0): Conv2d(816, 136, kernel_size=(1, 1), stride=(1, 1), bias=False)\n        (1): BatchNorm2d(136, eps=1e-05, momentum=0.1, affine=True, track_running_stats=True)\n      )\n    )\n    (stochastic_depth): StochasticDepth(p=0.1076923076923077, mode=row)\n  )\n  (2): MBConv(\n    (block): Sequential(\n      (0): Conv2dNormActivation(\n        (0): Conv2d(136, 816, kernel_size=(1, 1), stride=(1, 1), bias=False)\n        (1): BatchNorm2d(816, eps=1e-05, momentum=0.1, affine=True, track_running_stats=True)\n        (2): SiLU(inplace=True)\n      )\n      (1): Conv2dNormActivation(\n        (0): Conv2d(816, 816, kernel_size=(5, 5), stride=(1, 1), padding=(2, 2), groups=816, bias=False)\n        (1): BatchNorm2d(816, eps=1e-05, momentum=0.1, affine=True, track_running_stats=True)\n        (2): SiLU(inplace=True)\n      )\n      (2): SqueezeExcitation(\n        (avgpool): AdaptiveAvgPool2d(output_size=1)\n        (fc1): Conv2d(816, 34, kernel_size=(1, 1), stride=(1, 1))\n        (fc2): Conv2d(34, 816, kernel_size=(1, 1), stride=(1, 1))\n        (activation): SiLU(inplace=True)\n        (scale_activation): Sigmoid()\n      )\n      (3): Conv2dNormActivation(\n        (0): Conv2d(816, 136, kernel_size=(1, 1), stride=(1, 1), bias=False)\n        (1): BatchNorm2d(136, eps=1e-05, momentum=0.1, affine=True, track_running_stats=True)\n      )\n    )\n    (stochastic_depth): StochasticDepth(p=0.11538461538461539, mode=row)\n  )\n  (3): MBConv(\n    (block): Sequential(\n      (0): Conv2dNormActivation(\n        (0): Conv2d(136, 816, kernel_size=(1, 1), stride=(1, 1), bias=False)\n        (1): BatchNorm2d(816, eps=1e-05, momentum=0.1, affine=True, track_running_stats=True)\n        (2): SiLU(inplace=True)\n      )\n      (1): Conv2dNormActivation(\n        (0): Conv2d(816, 816, kernel_size=(5, 5), stride=(1, 1), padding=(2, 2), groups=816, bias=False)\n        (1): BatchNorm2d(816, eps=1e-05, momentum=0.1, affine=True, track_running_stats=True)\n        (2): SiLU(inplace=True)\n      )\n      (2): SqueezeExcitation(\n        (avgpool): AdaptiveAvgPool2d(output_size=1)\n        (fc1): Conv2d(816, 34, kernel_size=(1, 1), stride=(1, 1))\n        (fc2): Conv2d(34, 816, kernel_size=(1, 1), stride=(1, 1))\n        (activation): SiLU(inplace=True)\n        (scale_activation): Sigmoid()\n      )\n      (3): Conv2dNormActivation(\n        (0): Conv2d(816, 136, kernel_size=(1, 1), stride=(1, 1), bias=False)\n        (1): BatchNorm2d(136, eps=1e-05, momentum=0.1, affine=True, track_running_stats=True)\n      )\n    )\n    (stochastic_depth): StochasticDepth(p=0.12307692307692308, mode=row)\n  )\n  (4): MBConv(\n    (block): Sequential(\n      (0): Conv2dNormActivation(\n        (0): Conv2d(136, 816, kernel_size=(1, 1), stride=(1, 1), bias=False)\n        (1): BatchNorm2d(816, eps=1e-05, momentum=0.1, affine=True, track_running_stats=True)\n        (2): SiLU(inplace=True)\n      )\n      (1): Conv2dNormActivation(\n        (0): Conv2d(816, 816, kernel_size=(5, 5), stride=(1, 1), padding=(2, 2), groups=816, bias=False)\n        (1): BatchNorm2d(816, eps=1e-05, momentum=0.1, affine=True, track_running_stats=True)\n        (2): SiLU(inplace=True)\n      )\n      (2): SqueezeExcitation(\n        (avgpool): AdaptiveAvgPool2d(output_size=1)\n        (fc1): Conv2d(816, 34, kernel_size=(1, 1), stride=(1, 1))\n        (fc2): Conv2d(34, 816, kernel_size=(1, 1), stride=(1, 1))\n        (activation): SiLU(inplace=True)\n        (scale_activation): Sigmoid()\n      )\n      (3): Conv2dNormActivation(\n        (0): Conv2d(816, 136, kernel_size=(1, 1), stride=(1, 1), bias=False)\n        (1): BatchNorm2d(136, eps=1e-05, momentum=0.1, affine=True, track_running_stats=True)\n      )\n    )\n    (stochastic_depth): StochasticDepth(p=0.13076923076923078, mode=row)\n  )\n)",
                "input_shape": [
                    1,
                    96,
                    19,
                    19
                ],
                "output_shape": [
                    1,
                    136,
                    19,
                    19
                ]
            },
            {
                "name": "features.5.0",
                "type": "MBConv",
                "parameters": 0,
                "trainable_parameters": 0,
                "config": "MBConv(\n  (block): Sequential(\n    (0): Conv2dNormActivation(\n      (0): Conv2d(96, 576, kernel_size=(1, 1), stride=(1, 1), bias=False)\n      (1): BatchNorm2d(576, eps=1e-05, momentum=0.1, affine=True, track_running_stats=True)\n      (2): SiLU(inplace=True)\n    )\n    (1): Conv2dNormActivation(\n      (0): Conv2d(576, 576, kernel_size=(5, 5), stride=(1, 1), padding=(2, 2), groups=576, bias=False)\n      (1): BatchNorm2d(576, eps=1e-05, momentum=0.1, affine=True, track_running_stats=True)\n      (2): SiLU(inplace=True)\n    )\n    (2): SqueezeExcitation(\n      (avgpool): AdaptiveAvgPool2d(output_size=1)\n      (fc1): Conv2d(576, 24, kernel_size=(1, 1), stride=(1, 1))\n      (fc2): Conv2d(24, 576, kernel_size=(1, 1), stride=(1, 1))\n      (activation): SiLU(inplace=True)\n      (scale_activation): Sigmoid()\n    )\n    (3): Conv2dNormActivation(\n      (0): Conv2d(576, 136, kernel_size=(1, 1), stride=(1, 1), bias=False)\n      (1): BatchNorm2d(136, eps=1e-05, momentum=0.1, affine=True, track_running_stats=True)\n    )\n  )\n  (stochastic_depth): StochasticDepth(p=0.1, mode=row)\n)",
                "input_shape": [
                    1,
                    96,
                    19,
                    19
                ],
                "output_shape": [
                    1,
                    136,
                    19,
                    19
                ]
            },
            {
                "name": "features.5.0.block",
                "type": "Sequential",
                "parameters": 0,
                "trainable_parameters": 0,
                "config": "Sequential(\n  (0): Conv2dNormActivation(\n    (0): Conv2d(96, 576, kernel_size=(1, 1), stride=(1, 1), bias=False)\n    (1): BatchNorm2d(576, eps=1e-05, momentum=0.1, affine=True, track_running_stats=True)\n    (2): SiLU(inplace=True)\n  )\n  (1): Conv2dNormActivation(\n    (0): Conv2d(576, 576, kernel_size=(5, 5), stride=(1, 1), padding=(2, 2), groups=576, bias=False)\n    (1): BatchNorm2d(576, eps=1e-05, momentum=0.1, affine=True, track_running_stats=True)\n    (2): SiLU(inplace=True)\n  )\n  (2): SqueezeExcitation(\n    (avgpool): AdaptiveAvgPool2d(output_size=1)\n    (fc1): Conv2d(576, 24, kernel_size=(1, 1), stride=(1, 1))\n    (fc2): Conv2d(24, 576, kernel_size=(1, 1), stride=(1, 1))\n    (activation): SiLU(inplace=True)\n    (scale_activation): Sigmoid()\n  )\n  (3): Conv2dNormActivation(\n    (0): Conv2d(576, 136, kernel_size=(1, 1), stride=(1, 1), bias=False)\n    (1): BatchNorm2d(136, eps=1e-05, momentum=0.1, affine=True, track_running_stats=True)\n  )\n)",
                "input_shape": [
                    1,
                    96,
                    19,
                    19
                ],
                "output_shape": [
                    1,
                    136,
                    19,
                    19
                ]
            },
            {
                "name": "features.5.0.block.0",
                "type": "Conv2dNormActivation",
                "parameters": 0,
                "trainable_parameters": 0,
                "config": "Conv2dNormActivation(\n  (0): Conv2d(96, 576, kernel_size=(1, 1), stride=(1, 1), bias=False)\n  (1): BatchNorm2d(576, eps=1e-05, momentum=0.1, affine=True, track_running_stats=True)\n  (2): SiLU(inplace=True)\n)",
                "input_shape": [
                    1,
                    96,
                    19,
                    19
                ],
                "output_shape": [
                    1,
                    576,
                    19,
                    19
                ]
            },
…
            {
                "name": "features.5.0.stochastic_depth",
                "type": "StochasticDepth",
                "parameters": 0,
                "trainable_parameters": 0,
                "config": "StochasticDepth(p=0.1, mode=row)",
                "input_shape": null,
                "output_shape": null
            },
            {
                "name": "features.5.1",
                "type": "MBConv",
                "parameters": 0,
                "trainable_parameters": 0,
                "config": "MBConv(\n  (block): Sequential(\n    (0): Conv2dNormActivation(\n      (0): Conv2d(136, 816, kernel_size=(1, 1), stride=(1, 1), bias=False)\n      (1): BatchNorm2d(816, eps=1e-05, momentum=0.1, affine=True, track_running_stats=True)\n      (2): SiLU(inplace=True)\n    )\n    (1): Conv2dNormActivation(\n      (0): Conv2d(816, 816, kernel_size=(5, 5), stride=(1, 1), padding=(2, 2), groups=816, bias=False)\n      (1): BatchNorm2d(816, eps=1e-05, momentum=0.1, affine=True, track_running_stats=True)\n      (2): SiLU(inplace=True)\n    )\n    (2): SqueezeExcitation(\n      (avgpool): AdaptiveAvgPool2d(output_size=1)\n      (fc1): Conv2d(816, 34, kernel_size=(1, 1), stride=(1, 1))\n      (fc2): Conv2d(34, 816, kernel_size=(1, 1), stride=(1, 1))\n      (activation): SiLU(inplace=True)\n      (scale_activation): Sigmoid()\n    )\n    (3): Conv2dNormActivation(\n      (0): Conv2d(816, 136, kernel_size=(1, 1), stride=(1, 1), bias=False)\n      (1): BatchNorm2d(136, eps=1e-05, momentum=0.1, affine=True, track_running_stats=True)\n    )\n  )\n  (stochastic_depth): StochasticDepth(p=0.1076923076923077, mode=row)\n)",
                "input_shape": [
                    1,
                    136,
                    19,
                    19
                ],
                "output_shape": [
                    1,
                    136,
                    19,
                    19
                ]
            },
            {
                "name": "features.5.1.block",
                "type": "Sequential",
                "parameters": 0,
                "trainable_parameters": 0,
                "config": "Sequential(\n  (0): Conv2dNormActivation(\n    (0): Conv2d(136, 816, kernel_size=(1, 1), stride=(1, 1), bias=False)\n    (1): BatchNorm2d(816, eps=1e-05, momentum=0.1, affine=True, track_running_stats=True)\n    (2): SiLU(inplace=True)\n  )\n  (1): Conv2dNormActivation(\n    (0): Conv2d(816, 816, kernel_size=(5, 5), stride=(1, 1), padding=(2, 2), groups=816, bias=False)\n    (1): BatchNorm2d(816, eps=1e-05, momentum=0.1, affine=True, track_running_stats=True)\n    (2): SiLU(inplace=True)\n  )\n  (2): SqueezeExcitation(\n    (avgpool): AdaptiveAvgPool2d(output_size=1)\n    (fc1): Conv2d(816, 34, kernel_size=(1, 1), stride=(1, 1))\n    (fc2): Conv2d(34, 816, kernel_size=(1, 1), stride=(1, 1))\n    (activation): SiLU(inplace=True)\n    (scale_activation): Sigmoid()\n  )\n  (3): Conv2dNormActivation(\n    (0): Conv2d(816, 136, kernel_size=(1, 1), stride=(1, 1), bias=False)\n    (1): BatchNorm2d(136, eps=1e-05, momentum=0.1, affine=True, track_running_stats=True)\n  )\n)",
                "input_shape": [
                    1,
                    136,
                    19,
                    19
                ],
                "output_shape": [
                    1,
                    136,
                    19,
                    19
                ]
            },
            {
                "name": "features.5.1.block.0",
                "type": "Conv2dNormActivation",
                "parameters": 0,
                "trainable_parameters": 0,
                "config": "Conv2dNormActivation(\n  (0): Conv2d(136, 816, kernel_size=(1, 1), stride=(1, 1), bias=False)\n  (1): BatchNorm2d(816, eps=1e-05, momentum=0.1, affine=True, track_running_stats=True)\n  (2): SiLU(inplace=True)\n)",
                "input_shape": [
                    1,
                    136,
                    19,
                    19
                ],
                "output_shape": [
                    1,
                    816,
                    19,
                    19
                ]
            },
…
                "input_shape": [
                    1,
                    136,
                    19,
                    19
                ],
                "output_shape": [
                    1,
                    136,
                    19,
                    19
                ]
            },
            {
                "name": "features.6",
                "type": "Sequential",
                "parameters": 0,
                "trainable_parameters": 0,
                "config": "Sequential(\n  (0): MBConv(\n    (block): Sequential(\n      (0): Conv2dNormActivation(\n        (0): Conv2d(136, 816, kernel_size=(1, 1), stride=(1, 1), bias=False)\n        (1): BatchNorm2d(816, eps=1e-05, momentum=0.1, affine=True, track_running_stats=True)\n        (2): SiLU(inplace=True)\n      )\n      (1): Conv2dNormActivation(\n        (0): Conv2d(816, 816, kernel_size=(5, 5), stride=(2, 2), padding=(2, 2), groups=816, bias=False)\n        (1): BatchNorm2d(816, eps=1e-05, momentum=0.1, affine=True, track_running_stats=True)\n        (2): SiLU(inplace=True)\n      )\n      (2): SqueezeExcitation(\n        (avgpool): AdaptiveAvgPool2d(output_size=1)\n        (fc1): Conv2d(816, 34, kernel_size=(1, 1), stride=(1, 1))\n        (fc2): Conv2d(34, 816, kernel_size=(1, 1), stride=(1, 1))\n        (activation): SiLU(inplace=True)\n        (scale_activation): Sigmoid()\n      )\n      (3): Conv2dNormActivation(\n        (0): Conv2d(816, 232, kernel_size=(1, 1), stride=(1, 1), bias=False)\n        (1): BatchNorm2d(232, eps=1e-05, momentum=0.1, affine=True, track_running_stats=True)\n      )\n    )\n    (stochastic_depth): StochasticDepth(p=0.13846153846153847, mode=row)\n  )\n  (1): MBConv(\n    (block): Sequential(\n      (0): Conv2dNormActivation(\n        (0): Conv2d(232, 1392, kernel_size=(1, 1), stride=(1, 1), bias=False)\n        (1): BatchNorm2d(1392, eps=1e-05, momentum=0.1, affine=True, track_running_stats=True)\n        (2): SiLU(inplace=True)\n      )\n      (1): Conv2dNormActivation(\n        (0): Conv2d(1392, 1392, kernel_size=(5, 5), stride=(1, 1), padding=(2, 2), groups=1392, bias=False)\n        (1): BatchNorm2d(1392, eps=1e-05, momentum=0.1, affine=True, track_running_stats=True)\n        (2): SiLU(inplace=True)\n      )\n      (2): SqueezeExcitation(\n        (avgpool): AdaptiveAvgPool2d(output_size=1)\n        (fc1): Conv2d(1392, 58, kernel_size=(1, 1), stride=(1, 1))\n        (fc2): Conv2d(58, 1392, kernel_size=(1, 1), stride=(1, 1))\n        (activation): SiLU(inplace=True)\n        (scale_activation): Sigmoid()\n      )\n      (3): Conv2dNormActivation(\n        (0): Conv2d(1392, 232, kernel_size=(1, 1), stride=(1, 1), bias=False)\n        (1): BatchNorm2d(232, eps=1e-05, momentum=0.1, affine=True, track_running_stats=True)\n      )\n    )\n    (stochastic_depth): StochasticDepth(p=0.14615384615384616, mode=row)\n  )\n  (2): MBConv(\n    (block): Sequential(\n      (0): Conv2dNormActivation(\n        (0): Conv2d(232, 1392, kernel_size=(1, 1), stride=(1, 1), bias=False)\n        (1): BatchNorm2d(1392, eps=1e-05, momentum=0.1, affine=True, track_running_stats=True)\n        (2): SiLU(inplace=True)\n      )\n      (1): Conv2dNormActivation(\n        (0): Conv2d(1392, 1392, kernel_size=(5, 5), stride=(1, 1), padding=(2, 2), groups=1392, bias=False)\n        (1): BatchNorm2d(1392, eps=1e-05, momentum=0.1, affine=True, track_running_stats=True)\n        (2): SiLU(inplace=True)\n      )\n      (2): SqueezeExcitation(\n        (avgpool): AdaptiveAvgPool2d(output_size=1)\n        (fc1): Conv2d(1392, 58, kernel_size=(1, 1), stride=(1, 1))\n        (fc2): Conv2d(58, 1392, kernel_size=(1, 1), stride=(1, 1))\n        (activation): SiLU(inplace=True)\n        (scale_activation): Sigmoid()\n      )\n      (3): Conv2dNormActivation(\n        (0): Conv2d(1392, 232, kernel_size=(1, 1), stride=(1, 1), bias=False)\n        (1): BatchNorm2d(232, eps=1e-05, momentum=0.1, affine=True, track_running_stats=True)\n      )\n    )\n    (stochastic_depth): StochasticDepth(p=0.15384615384615385, mode=row)\n  )\n  (3): MBConv(\n    (block): Sequential(\n      (0): Conv2dNormActivation(\n        (0): Conv2d(232, 1392, kernel_size=(1, 1), stride=(1, 1), bias=False)\n        (1): BatchNorm2d(1392, eps=1e-05, momentum=0.1, affine=True, track_running_stats=True)\n        (2): SiLU(inplace=True)\n      )\n      (1): Conv2dNormActivation(\n        (0): Conv2d(1392, 1392, kernel_size=(5, 5), stride=(1, 1), padding=(2, 2), groups=1392, bias=False)\n        (1): BatchNorm2d(1392, eps=1e-05, momentum=0.1, affine=True, track_running_stats=True)\n        (2): SiLU(inplace=True)\n      )\n      (2): SqueezeExcitation(\n        (avgpool): AdaptiveAvgPool2d(output_size=1)\n        (fc1): Conv2d(1392, 58, kernel_size=(1, 1), stride=(1, 1))\n        (fc2): Conv2d(58, 1392, kernel_size=(1, 1), stride=(1, 1))\n        (activation): SiLU(inplace=True)\n        (scale_activation): Sigmoid()\n      )\n      (3): Conv2dNormActivation(\n        (0): Conv2d(1392, 232, kernel_size=(1, 1), stride=(1, 1), bias=False)\n        (1): BatchNorm2d(232, eps=1e-05, momentum=0.1, affine=True, track_running_stats=True)\n      )\n    )\n    (stochastic_depth): StochasticDepth(p=0.16153846153846155, mode=row)\n  )\n  (4): MBConv(\n    (block): Sequential(\n      (0): Conv2dNormActivation(\n        (0): Conv2d(232, 1392, kernel_size=(1, 1), stride=(1, 1), bias=False)\n        (1): BatchNorm2d(1392, eps=1e-05, momentum=0.1, affine=True, track_running_stats=True)\n        (2): SiLU(inplace=True)\n      )\n      (1): Conv2dNormActivation(\n        (0): Conv2d(1392, 1392, kernel_size=(5, 5), stride=(1, 1), padding=(2, 2), groups=1392, bias=False)\n        (1): BatchNorm2d(1392, eps=1e-05, momentum=0.1, affine=True, track_running_stats=True)\n        (2): SiLU(inplace=True)\n      )\n      (2): SqueezeExcitation(\n        (avgpool): AdaptiveAvgPool2d(output_size=1)\n        (fc1): Conv2d(1392, 58, kernel_size=(1, 1), stride=(1, 1))\n        (fc2): Conv2d(58, 1392, kernel_size=(1, 1), stride=(1, 1))\n        (activation): SiLU(inplace=True)\n        (scale_activation): Sigmoid()\n      )\n      (3): Conv2dNormActivation(\n        (0): Conv2d(1392, 232, kernel_size=(1, 1), stride=(1, 1), bias=False)\n        (1): BatchNorm2d(232, eps=1e-05, momentum=0.1, affine=True, track_running_stats=True)\n      )\n    )\n    (stochastic_depth): StochasticDepth(p=0.16923076923076924, mode=row)\n  )\n  (5): MBConv(\n    (block): Sequential(\n      (0): Conv2dNormActivation(\n        (0): Conv2d(232, 1392, kernel_size=(1, 1), stride=(1, 1), bias=False)\n        (1): BatchNorm2d(1392, eps=1e-05, momentum=0.1, affine=True, track_running_stats=True)\n        (2): SiLU(inplace=True)\n      )\n      (1): Conv2dNormActivation(\n        (0): Conv2d(1392, 1392, kernel_size=(5, 5), stride=(1, 1), padding=(2, 2), groups=1392, bias=False)\n        (1): BatchNorm2d(1392, eps=1e-05, momentum=0.1, affine=True, track_running_stats=True)\n        (2): SiLU(inplace=True)\n      )\n      (2): SqueezeExcitation(\n        (avgpool): AdaptiveAvgPool2d(output_size=1)\n        (fc1): Conv2d(1392, 58, kernel_size=(1, 1), stride=(1, 1))\n        (fc2): Conv2d(58, 1392, kernel_size=(1, 1), stride=(1, 1))\n        (activation): SiLU(inplace=True)\n        (scale_activation): Sigmoid()\n      )\n      (3): Conv2dNormActivation(\n        (0): Conv2d(1392, 232, kernel_size=(1, 1), stride=(1, 1), bias=False)\n        (1): BatchNorm2d(232, eps=1e-05, momentum=0.1, affine=True, track_running_stats=True)\n      )\n    )\n    (stochastic_depth): StochasticDepth(p=0.17692307692307693, mode=row)\n  )\n)",
                "input_shape": [
                    1,
                    136,
                    19,
                    19
                ],
                "output_shape": [
                    1,
                    232,
                    10,
                    10
                ]
            },
            {
                "name": "features.6.0",
                "type": "MBConv",
                "parameters": 0,
                "trainable_parameters": 0,
                "config": "MBConv(\n  (block): Sequential(\n    (0): Conv2dNormActivation(\n      (0): Conv2d(136, 816, kernel_size=(1, 1), stride=(1, 1), bias=False)\n      (1): BatchNorm2d(816, eps=1e-05, momentum=0.1, affine=True, track_running_stats=True)\n      (2): SiLU(inplace=True)\n    )\n    (1): Conv2dNormActivation(\n      (0): Conv2d(816, 816, kernel_size=(5, 5), stride=(2, 2), padding=(2, 2), groups=816, bias=False)\n      (1): BatchNorm2d(816, eps=1e-05, momentum=0.1, affine=True, track_running_stats=True)\n      (2): SiLU(inplace=True)\n    )\n    (2): SqueezeExcitation(\n      (avgpool): AdaptiveAvgPool2d(output_size=1)\n      (fc1): Conv2d(816, 34, kernel_size=(1, 1), stride=(1, 1))\n      (fc2): Conv2d(34, 816, kernel_size=(1, 1), stride=(1, 1))\n      (activation): SiLU(inplace=True)\n      (scale_activation): Sigmoid()\n    )\n    (3): Conv2dNormActivation(\n      (0): Conv2d(816, 232, kernel_size=(1, 1), stride=(1, 1), bias=False)\n      (1): BatchNorm2d(232, eps=1e-05, momentum=0.1, affine=True, track_running_stats=True)\n    )\n  )\n  (stochastic_depth): StochasticDepth(p=0.13846153846153847, mode=row)\n)",
                "input_shape": [
                    1,
                    136,
                    19,
                    19
                ],
                "output_shape": [
                    1,
                    232,
                    10,
                    10
                ]
            },
            {
                "name": "features.6.0.block",
                "type": "Sequential",
                "parameters": 0,
                "trainable_parameters": 0,
                "config": "Sequential(\n  (0): Conv2dNormActivation(\n    (0): Conv2d(136, 816, kernel_size=(1, 1), stride=(1, 1), bias=False)\n    (1): BatchNorm2d(816, eps=1e-05, momentum=0.1, affine=True, track_running_stats=True)\n    (2): SiLU(inplace=True)\n  )\n  (1): Conv2dNormActivation(\n    (0): Conv2d(816, 816, kernel_size=(5, 5), stride=(2, 2), padding=(2, 2), groups=816, bias=False)\n    (1): BatchNorm2d(816, eps=1e-05, momentum=0.1, affine=True, track_running_stats=True)\n    (2): SiLU(inplace=True)\n  )\n  (2): SqueezeExcitation(\n    (avgpool): AdaptiveAvgPool2d(output_size=1)\n    (fc1): Conv2d(816, 34, kernel_size=(1, 1), stride=(1, 1))\n    (fc2): Conv2d(34, 816, kernel_size=(1, 1), stride=(1, 1))\n    (activation): SiLU(inplace=True)\n    (scale_activation): Sigmoid()\n  )\n  (3): Conv2dNormActivation(\n    (0): Conv2d(816, 232, kernel_size=(1, 1), stride=(1, 1), bias=False)\n    (1): BatchNorm2d(232, eps=1e-05, momentum=0.1, affine=True, track_running_stats=True)\n  )\n)",
                "input_shape": [
                    1,
                    136,
                    19,
                    19
                ],
                "output_shape": [
                    1,
                    232,
                    10,
                    10
                ]
            },
            {
                "name": "features.6.0.block.0",
                "type": "Conv2dNormActivation",
                "parameters": 0,
                "trainable_parameters": 0,
                "config": "Conv2dNormActivation(\n  (0): Conv2d(136, 816, kernel_size=(1, 1), stride=(1, 1), bias=False)\n  (1): BatchNorm2d(816, eps=1e-05, momentum=0.1, affine=True, track_running_stats=True)\n  (2): SiLU(inplace=True)\n)",
                "input_shape": [
                    1,
                    136,
                    19,
                    19
                ],
                "output_shape": [
                    1,
                    816,
                    19,
                    19
                ]
            },
…
                "name": "features.6.0.stochastic_depth",
                "type": "StochasticDepth",
                "parameters": 0,
                "trainable_parameters": 0,
                "config": "StochasticDepth(p=0.13846153846153847, mode=row)",
                "input_shape": null,
                "output_shape": null
            },
            {
                "name": "features.6.1",
                "type": "MBConv",
                "parameters": 0,
                "trainable_parameters": 0,
                "config": "MBConv(\n  (block): Sequential(\n    (0): Conv2dNormActivation(\n      (0): Conv2d(232, 1392, kernel_size=(1, 1), stride=(1, 1), bias=False)\n      (1): BatchNorm2d(1392, eps=1e-05, momentum=0.1, affine=True, track_running_stats=True)\n      (2): SiLU(inplace=True)\n    )\n    (1): Conv2dNormActivation(\n      (0): Conv2d(1392, 1392, kernel_size=(5, 5), stride=(1, 1), padding=(2, 2), groups=1392, bias=False)\n      (1): BatchNorm2d(1392, eps=1e-05, momentum=0.1, affine=True, track_running_stats=True)\n      (2): SiLU(inplace=True)\n    )\n    (2): SqueezeExcitation(\n      (avgpool): AdaptiveAvgPool2d(output_size=1)\n      (fc1): Conv2d(1392, 58, kernel_size=(1, 1), stride=(1, 1))\n      (fc2): Conv2d(58, 1392, kernel_size=(1, 1), stride=(1, 1))\n      (activation): SiLU(inplace=True)\n      (scale_activation): Sigmoid()\n    )\n    (3): Conv2dNormActivation(\n      (0): Conv2d(1392, 232, kernel_size=(1, 1), stride=(1, 1), bias=False)\n      (1): BatchNorm2d(232, eps=1e-05, momentum=0.1, affine=True, track_running_stats=True)\n    )\n  )\n  (stochastic_depth): StochasticDepth(p=0.14615384615384616, mode=row)\n)",
                "input_shape": [
                    1,
                    232,
                    10,
                    10
                ],
                "output_shape": [
                    1,
                    232,
                    10,
                    10
                ]
            },
            {
                "name": "features.6.1.block",
                "type": "Sequential",
                "parameters": 0,
                "trainable_parameters": 0,
                "config": "Sequential(\n  (0): Conv2dNormActivation(\n    (0): Conv2d(232, 1392, kernel_size=(1, 1), stride=(1, 1), bias=False)\n    (1): BatchNorm2d(1392, eps=1e-05, momentum=0.1, affine=True, track_running_stats=True)\n    (2): SiLU(inplace=True)\n  )\n  (1): Conv2dNormActivation(\n    (0): Conv2d(1392, 1392, kernel_size=(5, 5), stride=(1, 1), padding=(2, 2), groups=1392, bias=False)\n    (1): BatchNorm2d(1392, eps=1e-05, momentum=0.1, affine=True, track_running_stats=True)\n    (2): SiLU(inplace=True)\n  )\n  (2): SqueezeExcitation(\n    (avgpool): AdaptiveAvgPool2d(output_size=1)\n    (fc1): Conv2d(1392, 58, kernel_size=(1, 1), stride=(1, 1))\n    (fc2): Conv2d(58, 1392, kernel_size=(1, 1), stride=(1, 1))\n    (activation): SiLU(inplace=True)\n    (scale_activation): Sigmoid()\n  )\n  (3): Conv2dNormActivation(\n    (0): Conv2d(1392, 232, kernel_size=(1, 1), stride=(1, 1), bias=False)\n    (1): BatchNorm2d(232, eps=1e-05, momentum=0.1, affine=True, track_running_stats=True)\n  )\n)",
                "input_shape": [
                    1,
                    232,
                    10,
                    10
                ],
                "output_shape": [
                    1,
                    232,
                    10,
                    10
                ]
            },
            {
                "name": "features.6.1.block.0",
                "type": "Conv2dNormActivation",
                "parameters": 0,
                "trainable_parameters": 0,
                "config": "Conv2dNormActivation(\n  (0): Conv2d(232, 1392, kernel_size=(1, 1), stride=(1, 1), bias=False)\n  (1): BatchNorm2d(1392, eps=1e-05, momentum=0.1, affine=True, track_running_stats=True)\n  (2): SiLU(inplace=True)\n)",
                "input_shape": [
                    1,
                    232,
                    10,
                    10
                ],
                "output_shape": [
                    1,
                    1392,
                    10,
                    10
                ]
            },
…
                "input_shape": [
                    1,
                    232,
                    10,
                    10
                ],
                "output_shape": [
                    1,
                    232,
                    10,
                    10
                ]
            },
            {
                "name": "features.7",
                "type": "Sequential",
                "parameters": 0,
                "trainable_parameters": 0,
                "config": "Sequential(\n  (0): MBConv(\n    (block): Sequential(\n      (0): Conv2dNormActivation(\n        (0): Conv2d(232, 1392, kernel_size=(1, 1), stride=(1, 1), bias=False)\n        (1): BatchNorm2d(1392, eps=1e-05, momentum=0.1, affine=True, track_running_stats=True)\n        (2): SiLU(inplace=True)\n      )\n      (1): Conv2dNormActivation(\n        (0): Conv2d(1392, 1392, kernel_size=(3, 3), stride=(1, 1), padding=(1, 1), groups=1392, bias=False)\n        (1): BatchNorm2d(1392, eps=1e-05, momentum=0.1, affine=True, track_running_stats=True)\n        (2): SiLU(inplace=True)\n      )\n      (2): SqueezeExcitation(\n        (avgpool): AdaptiveAvgPool2d(output_size=1)\n        (fc1): Conv2d(1392, 58, kernel_size=(1, 1), stride=(1, 1))\n        (fc2): Conv2d(58, 1392, kernel_size=(1, 1), stride=(1, 1))\n        (activation): SiLU(inplace=True)\n        (scale_activation): Sigmoid()\n      )\n      (3): Conv2dNormActivation(\n        (0): Conv2d(1392, 384, kernel_size=(1, 1), stride=(1, 1), bias=False)\n        (1): BatchNorm2d(384, eps=1e-05, momentum=0.1, affine=True, track_running_stats=True)\n      )\n    )\n    (stochastic_depth): StochasticDepth(p=0.18461538461538465, mode=row)\n  )\n  (1): MBConv(\n    (block): Sequential(\n      (0): Conv2dNormActivation(\n        (0): Conv2d(384, 2304, kernel_size=(1, 1), stride=(1, 1), bias=False)\n        (1): BatchNorm2d(2304, eps=1e-05, momentum=0.1, affine=True, track_running_stats=True)\n        (2): SiLU(inplace=True)\n      )\n      (1): Conv2dNormActivation(\n        (0): Conv2d(2304, 2304, kernel_size=(3, 3), stride=(1, 1), padding=(1, 1), groups=2304, bias=False)\n        (1): BatchNorm2d(2304, eps=1e-05, momentum=0.1, affine=True, track_running_stats=True)\n        (2): SiLU(inplace=True)\n      )\n      (2): SqueezeExcitation(\n        (avgpool): AdaptiveAvgPool2d(output_size=1)\n        (fc1): Conv2d(2304, 96, kernel_size=(1, 1), stride=(1, 1))\n        (fc2): Conv2d(96, 2304, kernel_size=(1, 1), stride=(1, 1))\n        (activation): SiLU(inplace=True)\n        (scale_activation): Sigmoid()\n      )\n      (3): Conv2dNormActivation(\n        (0): Conv2d(2304, 384, kernel_size=(1, 1), stride=(1, 1), bias=False)\n        (1): BatchNorm2d(384, eps=1e-05, momentum=0.1, affine=True, track_running_stats=True)\n      )\n    )\n    (stochastic_depth): StochasticDepth(p=0.19230769230769232, mode=row)\n  )\n)",
                "input_shape": [
                    1,
                    232,
                    10,
                    10
                ],
                "output_shape": [
                    1,
                    384,
                    10,
                    10
                ]
            },
            {
                "name": "features.7.0",
                "type": "MBConv",
                "parameters": 0,
                "trainable_parameters": 0,
                "config": "MBConv(\n  (block): Sequential(\n    (0): Conv2dNormActivation(\n      (0): Conv2d(232, 1392, kernel_size=(1, 1), stride=(1, 1), bias=False)\n      (1): BatchNorm2d(1392, eps=1e-05, momentum=0.1, affine=True, track_running_stats=True)\n      (2): SiLU(inplace=True)\n    )\n    (1): Conv2dNormActivation(\n      (0): Conv2d(1392, 1392, kernel_size=(3, 3), stride=(1, 1), padding=(1, 1), groups=1392, bias=False)\n      (1): BatchNorm2d(1392, eps=1e-05, momentum=0.1, affine=True, track_running_stats=True)\n      (2): SiLU(inplace=True)\n    )\n    (2): SqueezeExcitation(\n      (avgpool): AdaptiveAvgPool2d(output_size=1)\n      (fc1): Conv2d(1392, 58, kernel_size=(1, 1), stride=(1, 1))\n      (fc2): Conv2d(58, 1392, kernel_size=(1, 1), stride=(1, 1))\n      (activation): SiLU(inplace=True)\n      (scale_activation): Sigmoid()\n    )\n    (3): Conv2dNormActivation(\n      (0): Conv2d(1392, 384, kernel_size=(1, 1), stride=(1, 1), bias=False)\n      (1): BatchNorm2d(384, eps=1e-05, momentum=0.1, affine=True, track_running_stats=True)\n    )\n  )\n  (stochastic_depth): StochasticDepth(p=0.18461538461538465, mode=row)\n)",
                "input_shape": [
                    1,
                    232,
                    10,
                    10
                ],
                "output_shape": [
                    1,
                    384,
                    10,
                    10
                ]
            },
            {
                "name": "features.7.0.block",
                "type": "Sequential",
                "parameters": 0,
                "trainable_parameters": 0,
                "config": "Sequential(\n  (0): Conv2dNormActivation(\n    (0): Conv2d(232, 1392, kernel_size=(1, 1), stride=(1, 1), bias=False)\n    (1): BatchNorm2d(1392, eps=1e-05, momentum=0.1, affine=True, track_running_stats=True)\n    (2): SiLU(inplace=True)\n  )\n  (1): Conv2dNormActivation(\n    (0): Conv2d(1392, 1392, kernel_size=(3, 3), stride=(1, 1), padding=(1, 1), groups=1392, bias=False)\n    (1): BatchNorm2d(1392, eps=1e-05, momentum=0.1, affine=True, track_running_stats=True)\n    (2): SiLU(inplace=True)\n  )\n  (2): SqueezeExcitation(\n    (avgpool): AdaptiveAvgPool2d(output_size=1)\n    (fc1): Conv2d(1392, 58, kernel_size=(1, 1), stride=(1, 1))\n    (fc2): Conv2d(58, 1392, kernel_size=(1, 1), stride=(1, 1))\n    (activation): SiLU(inplace=True)\n    (scale_activation): Sigmoid()\n  )\n  (3): Conv2dNormActivation(\n    (0): Conv2d(1392, 384, kernel_size=(1, 1), stride=(1, 1), bias=False)\n    (1): BatchNorm2d(384, eps=1e-05, momentum=0.1, affine=True, track_running_stats=True)\n  )\n)",
                "input_shape": [
                    1,
                    232,
                    10,
                    10
                ],
                "output_shape": [
                    1,
                    384,
                    10,
                    10
                ]
            },
            {
                "name": "features.7.0.block.0",
                "type": "Conv2dNormActivation",
                "parameters": 0,
                "trainable_parameters": 0,
                "config": "Conv2dNormActivation(\n  (0): Conv2d(232, 1392, kernel_size=(1, 1), stride=(1, 1), bias=False)\n  (1): BatchNorm2d(1392, eps=1e-05, momentum=0.1, affine=True, track_running_stats=True)\n  (2): SiLU(inplace=True)\n)",
                "input_shape": [
                    1,
                    232,
                    10,
                    10
                ],
                "output_shape": [
                    1,
                    1392,
                    10,
                    10
                ]
            },
…
                "name": "features.7.0.stochastic_depth",
                "type": "StochasticDepth",
                "parameters": 0,
                "trainable_parameters": 0,
                "config": "StochasticDepth(p=0.18461538461538465, mode=row)",
                "input_shape": null,
                "output_shape": null
            },
            {
                "name": "features.7.1",
                "type": "MBConv",
                "parameters": 0,
                "trainable_parameters": 0,
                "config": "MBConv(\n  (block): Sequential(\n    (0): Conv2dNormActivation(\n      (0): Conv2d(384, 2304, kernel_size=(1, 1), stride=(1, 1), bias=False)\n      (1): BatchNorm2d(2304, eps=1e-05, momentum=0.1, affine=True, track_running_stats=True)\n      (2): SiLU(inplace=True)\n    )\n    (1): Conv2dNormActivation(\n      (0): Conv2d(2304, 2304, kernel_size=(3, 3), stride=(1, 1), padding=(1, 1), groups=2304, bias=False)\n      (1): BatchNorm2d(2304, eps=1e-05, momentum=0.1, affine=True, track_running_stats=True)\n      (2): SiLU(inplace=True)\n    )\n    (2): SqueezeExcitation(\n      (avgpool): AdaptiveAvgPool2d(output_size=1)\n      (fc1): Conv2d(2304, 96, kernel_size=(1, 1), stride=(1, 1))\n      (fc2): Conv2d(96, 2304, kernel_size=(1, 1), stride=(1, 1))\n      (activation): SiLU(inplace=True)\n      (scale_activation): Sigmoid()\n    )\n    (3): Conv2dNormActivation(\n      (0): Conv2d(2304, 384, kernel_size=(1, 1), stride=(1, 1), bias=False)\n      (1): BatchNorm2d(384, eps=1e-05, momentum=0.1, affine=True, track_running_stats=True)\n    )\n  )\n  (stochastic_depth): StochasticDepth(p=0.19230769230769232, mode=row)\n)",
                "input_shape": [
                    1,
                    384,
                    10,
                    10
                ],
                "output_shape": [
                    1,
                    384,
                    10,
                    10
                ]
            },
            {
                "name": "features.7.1.block",
                "type": "Sequential",
                "parameters": 0,
                "trainable_parameters": 0,
                "config": "Sequential(\n  (0): Conv2dNormActivation(\n    (0): Conv2d(384, 2304, kernel_size=(1, 1), stride=(1, 1), bias=False)\n    (1): BatchNorm2d(2304, eps=1e-05, momentum=0.1, affine=True, track_running_stats=True)\n    (2): SiLU(inplace=True)\n  )\n  (1): Conv2dNormActivation(\n    (0): Conv2d(2304, 2304, kernel_size=(3, 3), stride=(1, 1), padding=(1, 1), groups=2304, bias=False)\n    (1): BatchNorm2d(2304, eps=1e-05, momentum=0.1, affine=True, track_running_stats=True)\n    (2): SiLU(inplace=True)\n  )\n  (2): SqueezeExcitation(\n    (avgpool): AdaptiveAvgPool2d(output_size=1)\n    (fc1): Conv2d(2304, 96, kernel_size=(1, 1), stride=(1, 1))\n    (fc2): Conv2d(96, 2304, kernel_size=(1, 1), stride=(1, 1))\n    (activation): SiLU(inplace=True)\n    (scale_activation): Sigmoid()\n  )\n  (3): Conv2dNormActivation(\n    (0): Conv2d(2304, 384, kernel_size=(1, 1), stride=(1, 1), bias=False)\n    (1): BatchNorm2d(384, eps=1e-05, momentum=0.1, affine=True, track_running_stats=True)\n  )\n)",
                "input_shape": [
                    1,
                    384,
                    10,
                    10
                ],
                "output_shape": [
                    1,
                    384,
                    10,
                    10
                ]
            },
            {
                "name": "features.7.1.block.0",
                "type": "Conv2dNormActivation",
                "parameters": 0,
                "trainable_parameters": 0,
                "config": "Conv2dNormActivation(\n  (0): Conv2d(384, 2304, kernel_size=(1, 1), stride=(1, 1), bias=False)\n  (1): BatchNorm2d(2304, eps=1e-05, momentum=0.1, affine=True, track_running_stats=True)\n  (2): SiLU(inplace=True)\n)",
                "input_shape": [
                    1,
                    384,
                    10,
                    10
                ],
                "output_shape": [
                    1,
                    2304,
                    10,
                    10
                ]
            },
…
